code_RLSCG/model_dual_predictor.pth (torch, 21834 bytes, 5 tensors)

lstm.weight_ih_l0 f4 [128, 3]
0.07409882 0.1713146 -0.07877179 -0.13924453 -0.0925265 0.03356146 -0.060612176 0.13554461
-0.042131674 0.13346557 0.04449419 0.056873348 -0.16133745 -0.06632969 -0.06373348 -0.018058773
0.021339117 0.06482679 -0.1483393 -0.09776899 0.044671666 0.059620798 -0.18516442 0.016597062
0.004517429 0.052698936 0.20085055 -0.1335484 -0.09516908 -0.1277454 -0.10045754 0.1242121
-0.12873687 -0.023196297 -0.027542857 -0.10062346 -0.11842706 0.14430688 0.10719032 0.03981858
-0.052198272 -0.15053836 0.05362458 -0.1713272 -0.118265785 -0.11787422 0.1260482 0.0742102
-0.03848041 0.08936748 0.22043368 0.20099089 0.07923485 0.026052946 0.15123312 -0.0697717
0.078206554 -0.13509665 -0.12759283 -0.14865738 0.107854865 0.10027339 -0.08722932 0.06222379
0.08284318 -0.01822793 -0.039118353 -0.009757241 0.057678733 0.14783326 -0.17323571 -0.2331278
0.050725527 0.13540053 0.15065306 0.14311138 0.08007721 -0.13975915 0.0010350299 -0.120968655
-0.19600435 0.18737857 0.15978877 -0.15977862 0.09551577 0.021773633 -0.0032480122 -0.08250174
0.07285258 -0.13885644 0.08408259 0.101808615 0.14090799 0.12078847 -0.115942955 -0.055543642
0.1471141 0.095958374 -0.1029792 -0.1224102 0.145305 0.09785704 -0.084824644 -0.03314558
-0.17255382 0.009376033 -0.11918212 -0.14599134 -0.014345827 0.0374212 -0.077980645 0.09019321
-0.1334486 0.14052497 0.09565957 -0.16929147 -0.060919136 0.033214197 0.04238329 0.053268455
0.09215024 0.033747964 -0.05959599 0.10816342 -0.1610148 -0.21801776 -0.06476058 -0.10525906
-0.079348855 -0.080717854 0.042234037 0.11754739 -0.08455584 0.055616613 0.20984425 -0.037748847
-0.015301393 -0.03649418 0.08980618 0.16757557 0.1900568 0.02793199 0.11331034 -0.24910106
-0.11001607 0.017910765 0.3192798 -0.0059791394 -0.0742126 -0.24508639 -0.21946529 -0.18353157
-0.05473059 0.10239949 0.081585355 -0.23787493 0.04554996 -0.1938527 -0.11726197 -0.07664974
-0.049275994 -0.04532644 -0.16813032 -0.16697805 -0.040437058 -0.01859315 -0.09894593 0.04320058
-0.16449656 -0.012425621 0.15514378 -0.08571394 0.15543921 0.05038389 -0.15181765 0.09737775
-0.048737258 -0.06760008 0.16626607 -0.2028554 0.020159546 -0.04408726 0.075796135 0.06563357
0.106716 0.108385175 -0.040421043 -0.03730568 -0.1583224 0.116566174 0.16148368 0.141487
-0.15918544 -0.020994224 -0.12683779 -0.09779957 -0.10294989 0.060380466 -0.11915688 -0.026376743
-0.0013386742 0.08952856 -0.18458287 -0.25735056 -0.1341452 0.09472911 -0.06938257 0.1580718
0.06662734 0.022750093 0.015409482 -0.015820965 0.040730886 -0.042027514 0.013764653 0.025927141
-0.1382764 -0.09265461 0.1427459 -0.14336303 -0.012619618 0.17490008 0.0070521776 -0.05469872
-0.212569 0.089530386 -0.16690706 -0.15492901 -0.082072765 -0.05538582 -0.025386043 0.05167598
-0.13442224 0.025786528 0.11050697 -0.123437 0.07898037 -0.0936185 -0.06745048 0.04098706
0.009015356 0.10024187 -0.05067794 -0.06034179 0.0802472 -0.077578545 0.14564456 -0.12848027
0.026438698 0.051969774 -0.0056162686 0.077545896 0.08852832 -0.16150258 -0.25609222 -0.079270534
00000000: 1fc1 973d 186d 2f3e 1b53 a1bd 1e96 0ebe
00000010: 897e bdbd be77 093d 7944 78bd 35cc 0a3e
00000020: 4392 2cbd 33ab 083e 8a3f 363d 07f4 683d
00000030: a535 25be dcd7 87bd b386 82bd feef 93bc
00000040: 5fcf ae3c e8c3 843d 42e6 17be 1c3b c8bd
00000050: a3f9 363d f034 743d be9b 3dbe 90f6 873c
00000060: f106 943b d7da 573d c4ab 4d3e e9c0 08be
00000070: 02e8 c2bd b1cf 02be afbc cdbd ea62 fe3d
00000080: 99d3 03be 2906 bebc 8fa1 e1bc ac13 cebd
00000090: e389 f2bd 2fc5 133e 9986 db3d cf18 233d
000000a0: dbcd 55bd ba26 1abe 73a5 5b3d 6670 2fbe
000000b0: 5535 f2bd 0a68 f1bd c812 013e 84fb 973d
000000c0: a29d 1dbd 4c06 b73d 5eb9 613e 8ed0 4d3e
000000d0: e245 a23d fd6c d53c dbdc 1a3e 77e4 8ebd
000000e0: c22a a03d c756 0abe b2a7 02be a439 18be
000000f0: 03e3 dc3d 235c cd3d 49a5 b2bd 5fde 7e3d
00000100: afa9 a93d bd52 95bc 913a 20bd d6dc 1fbc
00000110: 8940 6c3d 9a61 173e b464 31be 0eb9 6ebe
00000120: 92c5 4f3d 70a6 0a3e cc44 1a3e ca8b 123e
00000130: 85ff a33d 061d 0fbe d7a9 873a 6abe f7bd
00000140: 5db5 48be 2be0 3f3e ab9f 233e 029d 23be
00000150: c69d c33d 9e5e b23c 9adc 54bb acf6 a8bd
00000160: bc33 953d 6230 0ebe 7e33 ac3d 0981 d03d
00000170: 2f4a 103e f25f f73d 8073 edbd bb81 63bd
00000180: 14a5 163e d385 c43d c2e6 d2bd 33b2 fabd
00000190: d5ca 143e 4669 c83d 8bb8 adbd a9c3 07bd
000001a0: f3b1 30be ef9d 193c c115 f4bd c17e 15be
000001b0: c20a 6bbc f946 193d 51b4 9fbd 38b7 b83d
000001c0: c0a6 08be c7e5 0f3e 2ae9 c33d be5a 2dbe
000001d0: 5886 79bd 9c0b 083d 1a9a 2d3d 0630 5a3d
000001e0: 44b9 bc3d 4e3b 0a3d ed1a 74bd c884 dd3d
000001f0: 10e1 24be 0c40 5fbe 32a1 84bd 1092 d7bd
00000200: a781 a2bd 674f a5bd 99fd 2c3d b0bc f03d
00000210: 9d2b adbd 3fce 633d 69e1 563e 899e 1abd
00000220: b2b2 7abc ec7a 15bd 4dec b73d ee98 2b3e
00000230: 409e 423e a1d1 e43c 400f e83d 5914 7fbe
00000240: 1b50 e1bd 99b9 923c a478 a33e a8ec c3bb
00000250: c7fc 97bd edf7 7abe 82bb 60be b3ef 3bbe
00000260: 2f2d 60bd d3b6 d13d 3916 a73d 7c95 73be
00000270: 9892 3a3d 5281 46be 0b27 f0bd 8afa 9cbd
00000280: a0d5 49bd 38a8 39bd 5b2a 2cbe 4bfc 2abe
00000290: 54a1 25bd a950 98bc 2aa4 cabd 17f3 303d
000002a0: c971 28be d594 4bbc 03de 1e3e ca8a afbd
000002b0: 752b 1f3e 565f 4e3d 1676 1bbe fc6d c73d
000002c0: b8a0 47bd e971 8abd a741 2a3e 53b9 4fbe
000002d0: a225 a53c d894 34bd 013b 9b3d e56a 863d
000002e0: eb8d da3d 0cf9 dd3d 8990 25bd d7cd 18bd
000002f0: 441f 22be 3fba ee3d fa5b 253e f8e1 103e
00000300: 8201 23be 14fc abbc c4e1 01be 244b c8bd
00000310: 64d7 d2bd 8251 773d 8608 f4bd 0a14 d8bc
00000320: 7476 afba c05a b73d 4b03 3dbe 74c3 83be
00000330: 5c5d 09be 5601 c23d 7318 8ebd 93dd 213e
00000340: ea73 883d 675e ba3c 0d78 7c3c f89a 81bc
00000350: 6ed5 263d 0b25 2cbd 2485 613c 2865 d43c
00000360: 5498 0dbe b3c1 bdbd fb2b 123e c2cd 12be
00000370: 84c2 4ebc 0219 333e f415 e73b c40b 60bd
00000380: b0ab 59be b55b b73d afe9 2abe b6a5 1ebe
00000390: c415 a8bd 3edc 62bd 64f6 cfbc 31aa 533d
000003a0: fca5 09be 453e d33c 7a51 e23d 8acc fcbd
000003b0: 76c0 a13d 0ebb bfbd 7a23 8abd 0ce2 273d
000003c0: 25b5 133c 9c4b cd3d ac93 4fbd f428 77bd
000003d0: a558 a43d 80e1 9ebd d923 153e 5590 03be
000003e0: f895 d83c 42de 543d ad08 b8bb 62d0 9e3d
000003f0: 564e b53d ef60 25be 851e 83be 9758 a2bd

lstm.weight_hh_l0 f4 [128, 32]
0.02654938 0.17670469 0.0881154 0.10879963 -0.061870966 0.113651596 0.020310914 -0.042329688
-0.13738348 -0.09919255 -0.11525135 0.1185078 0.08683062 0.012101117 -0.1022982 0.11972777
0.14112425 0.045340035 -0.04513055 0.16246498 0.07408056 -0.16851786 0.14063467 0.15600902
-0.06443109 0.13830224 -0.101901636 -0.03250083 0.1501028 0.012753537 -0.12540847 -0.028969059
-0.06930226 -0.03337981 0.020329319 0.18025464 0.009457854 -0.11889261 0.010382374 0.087088756
0.08677733 -0.1615899 -0.04865624 -0.09483087 -0.054056495 0.057006035 -0.12552673 0.06329855
0.13100766 -0.028377807 -0.11809778 -0.061919954 0.02692576 -0.13336714 0.10557118 -0.15207385
-0.16994755 -0.17686012 -0.051447637 0.14758812 -0.16741772 0.13595928 -0.07723774 0.037143063
0.07567739 -0.1511474 0.17308533 -0.047559462 0.17740539 0.008165208 -0.14129376 0.20990181
0.077308156 0.09193074 -0.15292862 -0.16379839 -0.17757882 -0.15365216 0.027265335 -0.007520758
0.054840956 0.21083666 -0.04261664 -0.1359114 -0.19264296 0.024193978 0.08363788 0.098942704
0.08308619 -0.080199 0.14501132 -0.17181681 -0.16703595 0.046638273 -0.0030410178 0.056523256
-0.22157915 -0.08609144 -0.16196437 0.029257922 -0.018032866 0.13400906 0.11175646 0.08555786
-0.0334155 -0.05466132 -0.08538306 -0.03389667 0.04661854 -0.13652365 0.14871848 -0.018264621
-0.016865667 -0.13248144 0.1949242 0.16309823 -0.18263534 0.12557589 0.097759485 0.12218352
0.14961578 -0.061880846 0.03800262 0.044917013 -0.05263159 0.023477752 -1.056769e-05 0.16977024
-0.03600588 -0.06589443 0.050872136 0.061453395 -0.086364545 0.015379295 0.10234872 -0.017017439
0.06333181 -0.04263316 0.06839201 -0.13108002 -0.10687912 -0.0929363 0.16245586 -0.03436279
-0.0053297505 -0.055957425 0.16775963 0.17266755 -0.13332689 -0.1344393 -0.14048438 -0.016499722
-0.045107663 -0.12284673 -0.057380293 0.040503155 -0.0923726 0.039153654 -0.023685895 -0.091697924
0.011987809 0.12776397 -0.12371104 -0.024673108 -0.07064231 0.14745715 -0.13511832 -0.2689467
0.17285702 -0.13202098 -0.020747187 0.09687321 -0.0027916804 -0.072392054 0.16605067 -0.07435191
-0.1379103 -0.19952498 -0.057774577 0.10981698 -0.16732976 0.17971238 0.0020934124 0.0023268221
0.1691707 0.08594487 0.05792469 0.11335302 0.0043003485 -0.13118185 -0.021300398 0.14663547
-0.016974693 -0.16139585 0.09604469 0.1491317 -0.04997876 -0.16203268 -0.16236286 0.06357684
0.018043937 -0.08903151 0.026855227 0.036569797 0.16787554 0.11633661 -0.026506051 -0.13110419
-0.20085232 0.17982365 0.0479115 0.078514986 -0.16517416 0.19182472 0.1782301 0.12763958
-0.15224491 -0.09584368 -0.08699634 0.186408 -0.0768938 -0.0883315 0.12043959 -0.11139692
-0.084409796 -0.01565969 -0.02668401 -0.087714225 0.14736268 -0.061403636 0.06288609 0.13609059
0.096110046 0.024758656 0.19494887 0.07127089 -0.03136593 0.26300326 0.042382613 -0.2701503
-0.080152646 -0.15729527 0.14636819 -0.028325005 -0.15939525 -0.075412005 0.13085352 0.09892249
0.056054477 0.0014979093 -0.0047715735 -0.027136967 -0.06839702 -0.15869537 -0.2521786 0.050871376
00000000: 167e d93c 13f2 343e d975 b43d 57d2 de3d
00000010: 696c 7dbd 2bc2 e83d 1363 a63c e561 2dbd
00000020: 41ae 0cbe 7725 cbbd e608 ecbd 38b4 f23d
00000030: 41d4 b13d c343 463c b881 d1bd d533 f53d
00000040: e082 103e 79b6 393d d0da 38bd 385d 263e
00000050: 8cb7 973d f28f 2cbe 8902 103e d4c0 1f3e
00000060: 73f4 83bd 1a9f 0d3e ceb1 d0bd 971f 05bd
00000070: 8cb4 193e 36f4 503c 146b 00be 8550 edbc
00000080: 58ee 8dbd 45b9 08bd ac89 a63c ac94 383e
00000090: 1df5 1a3c f87d f3bd d51a 2a3c 975b b23d
000000a0: 50b8 b13d d377 25be c44b 47bd b036 c2bd
000000b0: 586a 5dbd 297f 693d 148a 00be aca2 813d
000000c0: df26 063e 9378 e8bc 40dd f1bd c79f 7dbd
000000d0: 6993 dc3c 6591 08be b435 d83d 3fb9 1bbe
000000e0: bb06 2ebe d21a 35be c2ba 52bd 5721 173e
000000f0: 8d6f 2bbe e938 0b3e d22e 9ebd 5323 183d
00000100: bffc 9a3d 62c6 1abe 483d 313e b6cd 42bd
00000110: c2a9 353e 5dc7 053c 50af 10be 80f0 563e
00000120: bd53 9e3d 2f46 bc3d 5299 1cbe c4ba 27be
00000130: 39d7 35be fe56 1dbe 8d5b df3c b170 f6bb
00000140: e9a0 603d 91e5 573e c98e 2ebd 5c2c 0bbe
00000150: 3244 45be 7332 c63c 564a ab3d 79a2 ca3d
00000160: 1829 aa3d 603f a4bd d97d 143e bff0 2fbe
00000170: 790b 2bbe c607 3f3d d04b 47bb ee84 673d
00000180: a5e5 62be b550 b0bd fdd9 25be 4fae ef3c
00000190: a9b9 93bc ac39 093e 92e0 e43d f638 af3d
000001a0: b1de 08bd 8ce4 5fbd 50dd aebd 3cd7 0abd
000001b0: 15f3 3e3d dbcc 0bbe a849 183e b09f 95bc
000001c0: de29 8abc 37a9 07be 369a 473e 3903 273e
000001d0: c204 3bbe f796 003e 2036 c83d 5a3b fa3d
000001e0: e134 193e c576 7dbd a3a8 1b3d e7fa 373d
000001f0: 3994 57bd 6a54 c03c e24b 31b7 40d8 2d3e
00000200: e77a 13bd a9f3 86bd 4d5f 503d 8eb6 7b3d
00000210: e5df b0bd 70f9 7b3c 359c d13d 2868 8bbc
00000220: 1cb4 813d 1ca0 2ebd 1c11 8c3d d739 06be
00000230: 71e3 dabd 6355 bebd d45a 263e ffbf 0cbd
00000240: 30a5 aebb 9d33 65bd 2ec9 2b3e c3cf 303e
00000250: d886 08be 75aa 09be 23db 0fbe 6d2a 87bc
00000260: d0c2 38bd 1197 fbbd 9907 6bbd a3e6 253d
00000270: d92d bdbd 955f 203d ec08 c2bc 1fcc bbbd
00000280: 8468 443c 8fd4 023e 375c fdbd 421f cabc
00000290: eaac 90bd 02ff 163e 755c 0abe 62b3 89be
000002a0: 6e01 313e 8230 07be 01f6 a9bc 7665 c63d
000002b0: a0f4 36bb 4942 94bd 3009 2a3e d045 98bd
000002c0: 5c38 0dbe 4750 4cbe 09a5 6cbd bae7 e03d
000002d0: 7e58 2bbe 8606 383e a231 093b 997d 183b
000002e0: 153b 2d3e dd03 b03d 7142 6d3d a125 e83d
000002f0: f0e9 8c3b 8954 06be 2c7e aebc 9c27 163e
00000300: 830e 8bbc f444 25be 14b3 c43d fbb5 183e
00000310: 87b6 4cbd e5eb 25be 7342 26be 9334 823d
00000320: e1d0 933c 2756 b6bd 7eff db3c 36ca 153d
00000330: 91e7 2b3e e341 ee3d 3823 d9bc 2d40 06be
00000340: 3bac 4dbe b123 383e d93e 443d 77cc a03d
00000350: 6a23 29be b36d 443e f481 363e f3b3 023e
00000360: 17e6 1bbe b149 c4bd 232b b2bd bde1 3e3e
00000370: 7f7a 9dbd 25e7 b4bd 08a9 f63d 1224 e4bd
00000380: 0bdf acbd c048 80bc 6d98 dabc 84a3 b3bd
00000390: 3ee6 163e 6182 7bbd 6cca 803d 555b 0b3e
000003a0: 58d5 c43d aad2 ca3c ada0 473e 79f6 913d
000003b0: 9079 00bd 5da8 863e 6499 2d3d 2451 8abe
000003c0: 1227 a4bd 0312 21be 8be1 153e d709 e8bc
000003d0: 8238 23be 9c71 9abd 77fe 053e e097 ca3d
000003e0: 6199 653d 7f55 c43a dc5a 9cbb 584e debc
000003f0: bd13 8cbd 0a81 22be 8e1d 81be 815e 503d

lstm.bias_ih_l0 f4 [128]
0.07532007 -0.15145542 -0.15555033 0.016185807 0.015866803 0.03832221 -0.062161937 -0.13628083
0.1205965 -0.1422663 0.10316113 0.077981845 0.13541563 0.13370049 0.03873081 -0.013974371
-0.049790695 0.14366217 0.1419101 -0.02610214 0.09098951 0.000639253 0.08973754 0.01602132
0.12650189 -0.1731266 0.16531938 0.084471054 0.11784232 0.045817096 0.13712153 0.2249437
0.005653495 -0.16499713 0.15506487 -0.0102156075 -0.09497717 0.09814842 0.07317135 0.049920112
0.013181061 -0.017134566 0.1413681 0.16369572 0.15143819 0.093424186 -0.07143888 -0.03282474
-0.088712715 0.11053386 -0.1884171 -0.17516589 -0.23194858 0.10617156 0.0070352075 -0.024060117
0.027908744 -0.09551947 -0.04596151 -0.11764279 -0.044232585 -0.09450955 0.015994942 0.15916273
-0.1473612 0.08692563 -0.136484 -0.099418074 0.031123135 0.03063705 0.1616754 -0.0013907618
-0.06732866 -0.07310717 -0.051517308 -0.13726126 -0.16093984 -0.16932124 0.007166982 -0.13386254
-0.15620348 0.14749873 0.1863776 0.003783648 -0.20158209 -0.08155849 0.0695129 0.02651578
-0.04481115 -0.19581917 -0.062852606 -0.026561929 0.09058822 -0.14843498 0.14589639 0.048514716
0.010689181 -0.15782233 0.18791574 0.101237364 0.10664342 -0.13097373 -0.22630948 -0.13269064
-0.057946607 -0.05559904 -0.015444973 0.2705201 -0.19582313 0.08497015 0.1997498 0.012006165
-0.22719668 -0.04368058 -0.019392233 0.07814289 -0.020390073 -0.1377225 -0.1369985 -0.16813286
0.05556216 -0.16957934 -0.110980295 0.027992235 0.17034933 0.16010717 -0.10556244 0.1511999
00000000: 6941 9a3d 2117 1bbe 9648 1fbe 1998 843c
00000010: 19fb 813c c0f7 1c3d 849d 7ebd 348d 0bbe
00000020: 4cfb f63d 42ae 11be 2446 d33d f2b4 9f3d
00000030: 65aa 0a3e c8e8 083e 33a4 1e3d c3f4 64bc
00000040: 54f1 4bbd 2d1c 133e e250 113e 28d4 d5bc
00000050: b558 ba3d 8b93 273a 51c8 b73d 253f 833c
00000060: b689 013e 1948 31be 7c49 293e 29ff ac3d
00000070: 5057 f13d b5aa 3b3d 9669 0c3e a457 663e
00000080: f440 b93b 02f5 28be 53c9 1e3e 5d5f 27bc
00000090: 6483 c2bd 0a02 c93d dcda 953d 0879 4c3d
000000a0: 60f5 573c ca5d 8cbc cdc2 103e da9f 273e
000000b0: 9d12 1b3e 2e55 bf3d 8c4e 92bd 3c73 06bd
000000c0: 03af b5bd 945f e23d 6af0 40be b05e 33be
000000d0: ee83 6dbe 7a70 d93d 9987 e63b b919 c5bc
000000e0: e1a0 e43c b69f c3bd 2342 3cbd b4ee f0bd
000000f0: 3a2d 35bd 398e c1bd d307 833c 8efb 223e
00000100: dbe5 16be 1106 b23d 76c2 0bbe b49b cbbd
00000110: f2f5 fe3c 8dfa fa3c 3c8e 253e 394a b6ba
00000120: 9ce3 89bd 36b9 95bd d003 53bd 378e 0cbe
00000130: 6acd 24be 8c62 2dbe 01d9 ea3b 4313 09be
00000140: cef3 1fbe e809 173e c5d9 3e3e 14f7 773b
00000150: 896b 4ebe 2308 a7bd c85c 8e3d 9f37 d93c
00000160: e58b 37bd d284 48be deb8 80bd 6798 d9bc
00000170: 5186 b93d 57ff 17be dd65 153e 5eb7 463d
00000180: ad21 2f3c 2d9c 21be fc6c 403e 8955 cf3d
00000190: de67 da3d fa1d 06be acbd 67be 0ee0 07be
000001a0: 6c59 6dbd d2bb 63bd e90c 7dbc 9c81 8a3e
000001b0: dc85 48be d404 ae3d 368b 4c3e 82b5 443c
000001c0: 3fa6 68be 68ea 32bd 76dc 9ebc 6109 a03d
000001d0: 1509 a7bc 2107 0dbe 5649 0cbe 052b 2cbe
000001e0: 2695 633d 35a6 2dbe a349 e3bd f94f e53c
000001f0: 0e70 2e3e 22f3 233e 1f31 d8bd 26d4 1a3e

lstm.bias_hh_l0 f4 [128]
0.23047985 0.1336707 -0.0370395 0.22894537 0.08290325 -0.15674365 -0.122340396 -0.06318631
-0.08225225 -0.02859429 0.12215766 0.18083504 0.16636045 0.0014808916 -0.07029222 0.047105756
0.0632277 0.04677445 -0.036456272 0.07427688 -0.10847171 0.15160462 0.10627551 0.0070369677
0.135284 0.09485722 -0.07443297 -0.13471691 0.055158675 0.11742006 0.0029324295 0.07339634
0.15173854 0.053041294 0.124893785 0.05302256 0.01009373 -0.052957404 -0.055314917 -0.06769801
0.1424665 0.17791186 0.04488444 0.061011415 -0.0121936975 -0.19383998 -0.0116541935 -0.19522999
-0.066292375 -0.027174354 -0.0479704 0.037165817 -0.1853392 0.12420124 -0.17230879 -0.10818238
-0.06732189 -0.017719224 0.080795094 -0.045153666 0.026528655 -0.027581753 -0.058184296 -0.004458744
0.034370966 -0.17172039 -0.12804207 0.11193177 0.076491244 -0.004506973 0.022287684 0.023076745
0.041086838 -0.12069016 -0.10488722 -0.1669504 -0.16131592 -0.12694621 -0.020715082 0.123787284
-0.024844365 -0.007382505 0.018117597 0.15788484 -0.10346874 -0.046926256 -0.03729711 -0.17340422
-0.014717179 -0.2035483 -0.10471882 -0.09955649 0.120474815 -0.22362061 0.21013126 0.090274386
-0.07914796 0.14617516 -0.025564302 -0.016967468 -0.029133733 0.04783211 -0.2260369 -0.005028791
0.10457625 -0.06819562 0.025618725 0.05380272 -0.15138836 0.13517903 -0.07451489 0.008795913
-0.058074296 -0.14812587 0.024024593 -0.14687954 0.20217514 0.0016714527 -0.07862736 -0.14420176
-0.0010718021 0.026770962 -0.122065574 0.0075487993 -0.14210002 -0.1737955 0.0038190258 0.14580093
00000000: e902 6c3e f9e0 083e bbb6 17bd a870 6a3e
00000010: 2ec9 a93d 6881 20be 9a8d fabd d367 81bd
00000020: de73 a8bd 933e eabc cc2d fa3d d22c 393e
00000030: 655a 2a3e 7a1a c23a 5ef5 8fbd f7f1 403d
00000040: 867d 813d 9196 3f3d 2c53 15bd 7a1e 983d
00000050: 6a26 debd 3e3e 1b3e f9a6 d93d 5d96 e63b
00000060: e487 0a3e 8144 c23d 5070 98bd 3bf3 09be
00000070: 10ee 613d ee79 f03d 012e 403b d250 963d
00000080: 5961 1b3e d441 593d 50c8 ff3d 2f2e 593d
00000090: 2c60 253c dde9 58bd e591 62bd 41a5 8abd
000000a0: bde2 113e 872e 363e bfd8 373d 1be7 793d
000000b0: 13c8 47bc fd7d 46be 3bf1 3ebc 5fea 47be
000000c0: 4cc4 87bd c09c debc 9c7c 44bd 2f3b 183d
000000d0: 8fc9 3dbe 385d fe3d b771 30be b98e ddbd
000000e0: 0fe0 89bd e827 91bc e677 a53d 0df3 38bd
000000f0: 9f52 d93c 21f3 e1bc a852 6ebd a81a 92bb
00000100: 92c8 0c3d 78d7 2fbe 761d 03be 7c3c e53d
00000110: 71a7 9c3d 3baf 93bb a994 b63c 710b bd3c
00000120: ac4a 283d 672c f7bd 1ccf d6bd 0cf5 2abe
00000130: 0030 25be 30fe 01be adb2 a9bc 3084 fd3d
00000140: 6986 cbbc f1e8 f1bb 5b6b 943c 90ac 213e
00000150: 6be7 d3bd bf35 40bd dbc4 18bd e090 31be
00000160: 5320 71bc f76e 50be d276 d6bd 46e4 cbbd
00000170: 80bb f63d cdfc 64be a62c 573e c7e1 b83d
00000180: 5318 a2bd f1ae 153e 3a6c d1bc 5cff 8abc
00000190: dea9 eebc 9aeb 433d 3876 67be 8ec8 a4bb
000001a0: 132c d63d 25aa 8bbd 5cde d13c 3e60 5c3d
000001b0: 8d05 1bbe 5f6c 0a3e 439b 98bd bc1c 103c
000001c0: 50df 6dbd 4fae 17be 39cf c43c 9767 16be
000001d0: 0007 4f3e a514 db3a 6207 a1bd a0a9 13be
000001e0: b67b 8cba c74e db3c 84fd f9bd eb5b f73b
000001f0: ab82 11be 73f7 31be 9f48 7a3b d74c 153e

fc.weight f4 [1, 32]
-0.061766755 0.04916182 -0.081340015 -0.31272978 -0.027103381 -0.058904145 0.07678237 0.11662944
-0.1705674 0.09780286 -0.057152744 -0.19918407 -0.083916895 -0.021207023 -0.16005234 0.05688858
0.27392787 0.026035236 0.02613091 -0.03752409 -0.11573596 0.06634423 0.1329036 -0.001671421
-0.017927645 0.1779291 0.1338222 -0.15009874 -0.12752458 -0.16530237 0.09251666 0.18410158
00000000: 23ff 7cbd e85d 493d 9895 a6bd 1e1e a0be
00000010: e907 debc 7945 71bd 1340 9d3d 6adb ee3d
00000020: 38a9 2ebe de4c c83d ff18 6abd e9f6 4bbe
00000030: 9fdc abbd 5aba adbc c3e4 23be 0004 693d
00000040: 4640 8c3e d947 d53c 7d10 d63c dcb2 19bd
00000050: fa06 edbd 7cdf 873d e217 083e 9513 dbba
00000060: ffdc 92bc 0c33 363e b008 093e 7cb3 19be
00000070: ce95 02be 0645 29be 6079 bd3d 2085 3c3e
