code_RLSCG/save_models/Model_RLCG_2022_past.pt (torch, 46136 bytes, 17 tensors)

cons_embedding.0.weight f4 [32, 2]
000000 5e 83 89 bf 84 96 27 3e b1 fc 14 bf 1d 38 05 bf
       -1.0743215 0.16366011 -0.58198076 -0.5203875
000010 f0 9d 50 bf 20 55 2c 3f 3c ef 49 3d 56 90 b1 3f
       -0.81490993 0.6731739 0.049300417 1.3872173
000020 1c f6 49 be ea 04 a6 bd 46 6b fc be 0b 17 f9 be
       -0.1972279 -0.08106406 -0.49300593 -0.48650393
000030 c2 ef 2c bf 90 c5 ef be 9f 3d 95 be 40 94 d6 3c
       -0.6755334 -0.46830416 -0.29148576 0.026193738
000040 19 c6 4d 3e 25 24 80 3f f2 1a 30 bf ed cf 8f be
       0.200951 1.001103 -0.68791115 -0.28088322
000050 68 f6 81 be f8 1d 3d 3d 0c ce 10 bf 5e c3 b1 3e
       -0.25383306 0.04617116 -0.565644 0.34719366
000060 58 ba 15 bf 7b c9 fe 3e e7 58 87 3f 0e f8 92 bf
       -0.58487463 0.49763092 1.0574006 -1.148195
000070 eb 6b 17 bf 4c 71 41 be 0b 89 46 be 14 ee 9a 3f
       -0.59149045 -0.18890876 -0.19388215 1.2103906
000080 86 aa ea be 86 a8 a6 be b1 e9 19 bf 39 8d 43 bf
       -0.45833224 -0.32550448 -0.6012221 -0.76387364
000090 44 19 90 bf b1 5e 59 3f 28 1d 41 3e 8b 78 9d 3e
       -1.125771 0.8491011 0.18858778 0.3075603
0000a0 da f4 c7 3e 62 b3 0f bf 69 24 c2 3d a8 9d 39 bf
       0.39053994 -0.5613309 0.09479601 -0.7250619
0000b0 68 cc 02 bf 4c a4 ba be 55 40 88 3f 6d 1a 70 3f
       -0.5109315 -0.36453474 1.0644633 0.9379032
0000c0 d6 9b a3 be b2 d2 ff 3e 10 6f a3 3f 07 01 dd 3f
       -0.3195483 0.49965435 1.2768269 1.7265939
0000d0 03 f7 18 3c a1 f3 c7 bd 36 b7 10 3f eb 87 8d bf
       0.009336236 -0.097632654 0.5652956 -1.1057104
0000e0 55 21 0a 3f d0 cc c7 bf 0d 82 2b bf 2c 44 0e be
       0.5395711 -1.5609379 -0.66995317 -0.13893193
0000f0 0b ef 59 3e 3e f9 40 3e 5b 74 d6 be b8 bf 5a 3e
       0.21282594 0.18845078 -0.41885647 0.21362197

cons_embedding.0.bias f4 [32]
000000 69 7e cf 3e 40 c8 b6 bd 91 89 2f 3c 59 d3 9a 3e
       0.4052613 -0.089249134 0.010713951 0.3023937
000010 9d 65 b9 3c ce b6 87 3f 6e 7f 0b bf 1c ad 84 be
       0.02263146 1.0602663 -0.5449132 -0.25913322
000020 31 a3 3e 3d ec d7 8d 3f 16 7c f9 3c 3d e2 dc 3e
       0.04654235 1.1081519 0.030454677 0.43141356
000030 bd ab 2c 3f ad e1 b3 bd 25 6e 9f 3d 60 5b 95 be
       0.6744955 -0.087832786 0.0778468 -0.29171276
000040 a4 b3 28 bf b7 2b 95 3f e1 59 14 3f 1c f4 5f bf
       -0.6589911 1.1653966 0.57949644 -0.87481856
000050 bf dc fa 3e bc d0 37 be 60 4f ee bd 47 2d d6 be
       0.4899654 -0.1795072 -0.11636233 -0.4183142
000060 05 80 3c 3f 6c 38 b3 3d 34 b5 4f bd 15 e7 67 3e
       0.7363284 0.08750996 -0.05070992 0.22646745
000070 b9 f3 4e 3f 8a d2 65 3f fe 24 59 bf 76 da ea be
       0.8084064 0.8977438 -0.8482207 -0.45869797

var_embedding.0.weight f4 [32, 9]
000000 bb c7 82 3f cb 8d 93 be 77 b6 54 bf 1c 88 61 bf
       1.0217203 -0.28819117 -0.8309092 -0.8809831
000010 3c 1f 08 3f 41 6e cd 3f 18 f5 33 bf fe 21 af 3e
       0.5317266 1.6049272 -0.7029586 0.3420562
000020 b5 20 1e be 83 08 f8 3e 88 4f 92 bf 32 46 f1 be
       -0.15442164 0.48443994 -1.1430521 -0.47123867
000030 a5 11 11 bf c9 13 17 bf 42 18 26 bf 7c 6c 80 3e
       -0.5666755 -0.59014565 -0.64880764 0.25082767
000040 29 99 06 be c8 cd d7 3f 1c 0e 17 3f 95 83 b5 bf
       -0.13144363 1.6859674 0.59005904 -1.4180781
000050 42 d4 ec bf 92 a2 ae be 5a fb 23 3f 53 a9 7d 3d
       -1.8502276 -0.34108406 0.6405541 0.06192906
000060 5a c9 20 bf 0f 91 9d 3e 00 33 a7 3e 5f 50 9e 3f
       -0.6280724 0.30774733 0.32656097 1.2368277
000070 92 3a 7c bf 9d 04 e6 be 93 2d 27 3f df 4e 43 bf
       -0.9852687 -0.44925395 0.65303916 -0.7629222
000080 56 64 43 bf f4 6c 90 bf c7 73 c5 bf 37 cf d1 3f
       -0.76324975 -1.128325 -1.5425957 1.6391362
000090 bb d1 8b bf 4c dc 13 3d 85 45 c1 3f 29 14 b8 c0
       -1.092338 0.036098763 1.5099341 -5.752461
0000a0 33 9b d3 be 53 b1 02 3f 34 c1 5d 3f f8 8c 70 3f
       -0.41329345 0.51051825 0.8662293 0.939651
0000b0 2e d3 60 3f e6 74 d5 3e 5b 0c a2 3f 19 69 df 3f
       0.87822235 0.4169075 1.266002 1.7453948
0000c0 59 fe d6 bf f3 e8 cd 3d 7e 8c 09 be 6b dd 4c bf
       -1.6796371 0.10054197 -0.134325 -0.80025357
0000d0 d5 57 85 3e 68 92 1f 3f a9 d4 05 be 23 62 a1 bf
       0.26043573 0.62332773 -0.13069405 -1.2608074
0000e0 a8 5c d3 3f 76 07 bd 3f 54 8f 43 3f 3c ee 00 c0
       1.6512651 1.4767902 0.76390576 -2.0145407
0000f0 73 21 47 3f 65 af 1b 3e b9 52 25 3f ca cd 0c c0
       0.77785414 0.15203626 0.6457935 -2.2000604
000100 23 7e 48 3a b2 75 59 bd 2f 79 ca c0 72 67 9a 3e
       0.00076481904 -0.05309076 -6.327293 0.30157048
000110 cb 87 27 bf 3a 16 30 bd 57 3d 32 bf 84 c2 8d 3f
       -0.6544158 -0.042989947 -0.6962485 1.1074986
000120 98 0c 99 bf f8 85 b5 3d ba c2 ef 3f 37 12 3c 3f
       -1.1956968 0.08863443 1.8731301 0.73465294
000130 a4 b2 54 3f db 78 ee 3e 2d a9 6d be 7c c4 d7 3e
       0.83085084 0.4657658 -0.23209067 0.42142093
000140 5c 6f 45 bf 9a 7b f4 bf 70 90 76 3f c3 d0 50 be
       -0.77123046 -1.910022 0.96314144 -0.20392136
000150 64 15 ba c0 3f 72 e9 3e 41 c0 47 c0 e6 59 97 be
       -5.815111 0.45594975 -3.1211092 -0.29560775
000160 fa 56 fa be 08 5a 80 3f 42 21 c9 bd 7f 96 90 3e
       -0.48894483 1.0027475 -0.098207965 0.2823982
000170 b4 21 ab bf 6f e4 79 3f a7 5c 9e 3f 4c 1c 22 3f
       -1.336966 0.97614187 1.2372025 0.6332443
000180 08 2f 17 be d9 a2 04 bd 05 23 ec bd 0b d8 4b bf
       -0.14764035 -0.032381866 -0.11530117 -0.7962653
000190 45 c1 1b bf 2f f4 ea 3e 32 e3 97 be 43 5f 16 3f
       -0.6084178 0.45889422 -0.29665524 0.5873911
0001a0 88 c8 db 3f f7 f2 d1 bd 9c 75 b7 be af ff 2b 3d
       1.7170572 -0.1025142 -0.35831916 0.041991886
0001b0 68 ff 70 be 4f c9 d0 3e 26 35 7e be a8 4e d6 bf
       -0.2353493 0.40778586 -0.24824962 -1.6742754
0001c0 54 8b 6e bf 75 bd 74 3e 7a f6 c3 3e d3 e6 90 3f
       -0.9318135 0.23900397 0.38273984 1.1320442
0001d0 af d2 38 bf 35 e2 23 c0 d6 56 42 bd 5d f5 b6 bb
       -0.7219648 -2.5606816 -0.047446094 -0.005583449
0001e0 bf 81 e8 c0 eb fc 44 3e ed 65 c1 be df 52 b0 be
       -7.265838 0.19237106 -0.37773076 -0.34438226
0001f0 8c a9 a1 be b6 e8 8c 3f 93 6a 33 3f 5f 16 c6 3e
       -0.31574667 1.1008518 0.70084494 0.38688943
000200 18 6a f0 bf f2 da 5b 3f 04 51 40 c0 a6 ca 0d bf
       -1.8782377 0.8588096 -3.0049448 -0.5538734
000210 ac 18 40 3f c9 2c 91 3e f9 d1 cf 3e 2c 98 32 bf
       0.75037646 0.2835448 0.40589884 -0.69763446
000220 eb 41 aa 3f 47 09 53 3d bf fc ba 3f 91 6d 06 bf
       1.3301367 0.05152252 1.4608382 -0.52510935
000230 a8 a8 7d 3f 03 a0 77 bf a8 40 81 be 65 52 89 3f
       0.99085474 -0.96728534 -0.2524464 1.072827
000240 bb 54 b9 bc 6f 11 20 3f bc 07 73 3f 23 03 4a bf
       -0.02262341 0.625266 0.94933677 -0.78911036
000250 30 d0 a1 bf c2 9d fd be 97 3a 10 40 0a 1b 1b bf
       -1.2641659 -0.49534422 2.253576 -0.60588133
000260 a8 87 3a 3d b5 b8 58 3d e6 e0 a5 bf b8 96 b0 3e
       0.045539528 0.052910525 -1.2959259 0.3448999
000270 a6 2e c1 3f c4 24 a0 be 51 9d 46 bf a8 4d 3c bf
       1.5092361 -0.3127805 -0.77583796 -0.73555994
000280 e2 73 ae 3e 1d b6 a6 3f 17 e7 fa 3d a1 a4 a0 be
       0.34072787 1.3024327 0.12251108 -0.31375602
000290 8b 77 ae bf 84 7b 3d 3f 9d 96 96 3f 84 1e a4 3f
       -1.3630232 0.74016595 1.1764714 1.2821813
0002a0 7c 50 84 3f 2e 13 a2 bd a3 d8 31 bf 9c 52 8c 3e
       1.0337062 -0.079138145 -0.69471186 0.27406776
0002b0 04 16 a9 3f 1a d8 37 3f 72 38 9c bf 6f 09 e9 be
       1.3209844 0.7181412 -1.2204726 -0.4551501
0002c0 33 8f 22 bf 90 51 e2 3e 65 52 66 bf 8b 59 aa 3f
       -0.63499755 0.44202852 -0.89969474 1.3308576
0002d0 0a 0e 8b 3f a3 8a 83 bf bd 7c 8f be 4d 66 e6 3e
       1.0863659 -1.0276684 -0.28024855 0.44999924
0002e0 19 8f 22 bf e9 f2 0e bf de cc 6b bf 9d 4a 13 3f
       -0.634996 -0.558394 -0.9210948 0.57535726
0002f0 bf 81 a4 3f 9d f9 70 3e cb ef 5a be be 6f 80 3e
       1.2852095 0.2353272 -0.21380536 0.25085253
000300 01 59 93 bd c9 36 83 bd c7 b6 32 be 5e 5b 90 3d
       -0.071947105 -0.06406934 -0.17452537 0.07048677
000310 79 76 9e 3c c0 51 e1 bb c3 1d 89 bf 35 f3 88 bf
       0.019343602 -0.0068762004 -1.0712208 -1.0699221
000320 b2 06 8d 3f f1 2c 92 bf c3 6b 7f 3f 40 93 4c bf
       1.1017668 -1.1419965 0.99773806 -0.79912186
000330 4a fc f2 be 83 62 c8 bd 83 00 ef 3e 3d 0d 54 3d
       -0.47458106 -0.097844146 0.46680078 0.051770438
000340 a6 69 7b be a4 fc c3 bf 1f 7f 3b 3f 2c 19 3d 3f
       -0.2455202 -1.5311475 0.73240846 0.73866534
000350 c0 7f 46 3f 12 82 ea be 4a b5 12 3d 11 3e 95 bf
       0.7753868 -0.4580236 0.035817422 -1.1659566
000360 7f f5 a0 3f f1 91 78 3e 15 06 05 3f 0f 66 0b 40
       1.257492 0.24274422 0.51962405 2.1781042
000370 86 7f 8f be ee 45 20 bf bf 85 5a 3f 83 e3 eb be
       -0.2802698 -0.62606704 0.8536033 -0.46072015
000380 bc 6a 3e 3f 0f b8 bb 3e 60 20 74 bf 9f 09 24 bd
       0.74381614 0.36663863 -0.953619 -0.040048238
000390 0f 2b d7 3f 28 c5 66 3d a1 9d 67 3f 7e 7c 76 bf
       1.6810015 0.056340367 0.904749 -0.9628371
0003a0 29 1e 9e 3f 76 bc 29 3f ab 48 d4 be 3c c1 e7 bd
       1.2352954 0.66303194 -0.4146169 -0.113161534
0003b0 56 9a 2c bc 58 b7 ff 3f cf 7a 30 be 85 9f c8 be
       -0.010534843 1.9977827 -0.17234348 -0.39184204
0003c0 7a 00 12 be b3 45 fa bc 51 c0 05 40 8d 59 c4 3f
       -0.14257994 -0.030550813 2.089863 1.5339829
0003d0 18 88 f8 be 54 76 be 3d 70 c5 f8 3f a0 5f b5 3c
       -0.4854133 0.09299913 1.9435253 0.022140324
0003e0 82 b1 9f bf fd 07 b0 3f e0 c5 39 3f 61 34 25 3f
       -1.2476046 1.3752438 0.7256756 0.6453305
0003f0 de 62 b5 be 7b ab 7c 3e 76 ce 06 bf 08 4a 2f 3f
       -0.35426992 0.2467479 -0.52658784 0.6847234

var_embedding.0.bias f4 [32]
000000 96 91 03 3f e6 8f 89 3f 09 39 87 3f 4e e7 65 3f
       0.5139402 1.0747039 1.0564281 0.8980607
000010 59 31 ee 3e 54 c3 69 3f 2d a7 ab 3e 1d 60 48 3f
       0.46522024 0.9131367 0.33525982 0.7827166
000020 0a 23 96 3e 8c c0 04 3e 61 5e 8f bd 97 95 8a 3f
       0.29323608 0.12964076 -0.07000423 1.0826901
000030 28 af 08 3f 59 f9 0b 3f 28 ae 43 be 83 e5 9d 3e
       0.5339227 0.5467735 -0.19109404 0.30839166
000040 f3 ac 22 3f 02 92 6a 3e 34 cc e7 3d 50 bc 96 3f
       0.6354515 0.2290726 0.113182455 1.1776218
000050 63 c9 48 3f 0a 94 9e be 71 e3 8c 3f d1 69 23 3f
       0.7843229 -0.3097232 1.100691 0.6383334
000060 89 2f 1a be d5 11 d5 3e 98 de 38 3e 62 62 91 be
       -0.15057196 0.41615167 0.18053663 -0.28395373
000070 f5 2c 2c 3f 6e 69 55 3f 29 74 42 be 42 7a 83 be
       0.672561 0.83364 -0.18989624 -0.25679213

join_features_NN.0.weight f4 [32, 64]
000000 54 96 44 bf d8 2b 9f 41 91 26 f3 3e 50 78 34 3f
       -0.7679188 19.896408 0.4749036 0.7049608
000010 52 56 a5 bf a5 29 69 be 7e 3d ac 3e af 7a 22 be
       -1.2916968 -0.22769792 0.33640665 -0.15867113
000020 55 b6 d8 be a5 4d 4b bf 61 81 53 bf 4f dc b8 3d
       -0.42326608 -0.7941535 -0.8261929 0.090263955
000030 64 38 ba be 1e 89 24 3f 60 77 4c 3f 1f d9 84 bc
       -0.36371148 0.64271724 0.7986965 -0.016216813
000040 e0 42 cc bc c0 fb 71 3d c6 64 44 bf f5 c2 ef 3b
       -0.024934232 0.059077978 -0.7671627 0.007316942
000050 ae d5 4b 3f c5 d2 29 3e e5 b4 7b 3d 1e 82 0d 3f
       0.79622924 0.16584308 0.06145181 0.5527667
000060 02 fd 26 bf 52 cc 18 bf f2 ad 40 3f 77 25 b1 be
       -0.6522981 -0.5968677 0.7526542 -0.34598896
000070 09 a2 76 bd 71 c4 fc 3e ef 97 61 3e 89 09 9f 3e
       -0.060213123 0.49368623 0.22030614 0.31061962
000080 05 8d 91 bf cd d7 35 be 71 d0 8e 3e 74 d3 2e be
       -1.1371161 -0.17758103 0.27893403 -0.1707285
000090 5e 8a cd bf 55 1d 8d bf f2 97 5b 3f ca a0 4d 3f
       -1.6057851 -1.1024576 0.85778725 0.8032347
0000a0 6d a6 56 3f 61 e8 f2 3f cc 43 8a bf 3b 67 7f 3f
       0.83847696 1.8977166 -1.080194 0.9976689
0000b0 3f fc 36 bf 18 ba 1a 3e cb ec 3a 3e 86 26 00 bf
       -0.71478647 0.15110052 0.18254392 -0.5005878
0000c0 4a 44 b8 be 0f 30 0b 3f 51 b6 66 3e 2b 21 75 bf
       -0.359896 0.54370207 0.22530486 -0.95753735
0000d0 11 12 c3 bd 9f e1 78 c2 8b 00 09 3f ec cc 1b bf
       -0.0952493 -62.220333 0.53516454 -0.6085956
0000e0 d9 97 5e 3f 2d 65 0e 3f 46 8a e0 3e 1d 85 62 3f
       0.8695045 0.5562313 0.43855494 0.88484365
0000f0 0b 93 b1 3e 2c f4 cc be bc 62 7f bf 56 e0 81 3e
       0.34682497 -0.40030038 -0.9976003 0.25366467
000100 4b 7c 15 be 1a 6a a3 c2 1c d5 83 bf e6 86 1b 3e
       -0.14598195 -81.70723 -1.0299411 0.15188178
000110 34 cc aa 3f 82 8d d5 3f 65 fc 24 3f fb 5e 1f 3d
       1.3343568 1.668381 0.64447623 0.03890894
000120 41 9e ae be db 3d 7a 3d 4c 3a ab 3c b8 a0 a7 3e
       -0.34105113 0.061094146 0.020901822 0.32739806
000130 46 f4 59 3e 07 f5 33 be 2e 51 13 41 f5 49 5a bf
       0.21284589 -0.1757394 9.207319 -0.852691
000140 67 ae 24 40 5d eb c1 3e 37 1d e7 bc 1f 03 45 3f
       2.5731447 0.3787488 -0.028212173 0.7695789
000150 f7 d0 1e be bc 9d f3 bc 7a 07 c9 be 8d 8e e6 3e
       -0.15509401 -0.0297383 -0.39263517 0.45030633
000160 a8 85 13 be dc 43 5e 3e 93 83 17 40 b4 be 89 3e
       -0.14406455 0.21705574 2.3674057 0.26903307
000170 5e 43 18 bf a7 11 a8 3e c4 5b 36 40 f7 4a 21 41
       -0.59477794 0.32825968 2.849351 10.080802
000180 1c 0b a5 3d 52 90 e3 3e 43 3f a9 3e 41 ec 41 3f
       0.080587596 0.44446045 0.33056077 0.7575112
000190 3d b1 59 bc 31 3f b0 3e 9f 15 8a 3e d6 ae b4 3e
       -0.013286886 0.3442321 0.2696962 0.3528964
0001a0 5f 8f 64 3f af e7 b5 3e c7 c8 da bf 33 b0 29 bd
       0.89281267 0.35528323 -1.7092522 -0.041427802
0001b0 21 40 7b be 47 87 6a 3e d1 08 07 3f 84 33 14 3f
       -0.24536182 0.22903167 0.5274783 0.57891107
0001c0 2d 55 70 bf 59 ea c4 3e f6 97 0e bf e9 7a bb 3e
       -0.9387997 0.38460043 -0.55700624 0.3661721
0001d0 29 33 8f 3e 25 a1 4a c2 93 34 cf 3e a7 1e bc bf
       0.2796872 -50.657368 0.40469798 -1.4696854
0001e0 94 a2 74 3e cb f3 c1 3c 01 f5 f2 3e 9d a4 6d 3e
       0.23890144 0.02367582 0.47452548 0.23207326
0001f0 a0 5b e4 be 27 71 46 3f 3d 1c 88 bf 5f b5 b8 bd
       -0.44601154 0.77516407 -1.0633618 -0.09018969
000200 bf 93 55 bf d0 82 38 41 9f 9b 22 3e d9 fd a0 3e
       -0.8342857 11.531937 0.15879677 0.3144367
000210 c3 75 32 3d 82 8a cd bf 6e 3d 32 3f 45 25 71 3e
       0.043569338 -1.6057894 0.69624984 0.23549373
000220 7b d9 d3 3e 09 06 9c bf 8d f6 30 3e ff a1 00 bf
       0.41376862 -1.2189342 0.17281552 -0.50247186
000230 48 9a 87 bb 19 f1 56 bf 7a df b9 c0 0b 17 30 3e
       -0.004138265 -0.83961636 -5.80853 0.1719629
000240 fd d3 0f c1 56 47 11 c0 8d 8f 02 bf 74 61 dd 3d
       -8.989255 -2.269979 -0.5100029 0.10809603
000250 1b bd 08 3f ef 1b 8e 3d 1d 04 62 40 51 8a 4a 3f
       0.5341355 0.06938922 3.531501 0.79117304
000260 b5 20 ce 3e 71 1c 52 3f 3f f8 34 40 2b 08 92 3d
       0.40259328 0.8207465 2.8276517 0.07130464
000270 83 ef 6e 3e f6 ee c2 bf 09 bd 8f bd 9d 54 83 c1
       0.23333554 -1.5229175 -0.070184775 -16.416315
000280 8b 26 bb 3e f8 75 bd 3d 61 48 7d be 35 f5 ee 3e
       0.36552843 0.092510164 -0.24734642 0.46671453
000290 53 d1 df be 1f 62 c9 3e 35 90 cd bf d6 75 4e be
       -0.4371439 0.39332673 -1.6059633 -0.20162138
0002a0 3c 45 f4 be 65 68 13 bf 46 23 76 bd 47 78 f1 bd
       -0.47709072 -0.5758117 -0.060092233 -0.11790519
0002b0 91 74 b0 3e 8c f2 07 be f6 8f a7 3e 98 5f ea 3e
       0.34463933 -0.13276118 0.3272702 0.45776057
0002c0 69 9a 19 3d 40 4f 65 3e 1d 68 e0 bd ee e1 ee 3e
       0.037500773 0.22393513 -0.10957358 0.46656746
0002d0 0c 11 37 3d 05 7e 2e c2 04 36 75 3e cd 42 13 3e
       0.04469399 -43.623066 0.23946387 0.14380951
0002e0 af 31 b6 3d 7c 1e 87 3e ce 53 8e 3e de 5d 97 3e
       0.08896195 0.26390445 0.27798313 0.29563802
0002f0 a9 e6 fb 3c a1 24 dc 3e f3 30 7e be 5d a1 ba be
       0.030749636 0.42996696 -0.2482336 -0.36451235
000300 65 d7 b8 be 35 6b a6 3f d3 75 0f bb 22 12 09 bf
       -0.36101833 1.3001467 -0.0021890297 -0.53543293
000310 ae df 6b 3f 3f 25 d5 bc 19 8c a0 3f 53 f7 c4 3f
       0.92138183 -0.026018737 1.2542754 1.5387977
000320 ad 4a 18 3e fc bb 31 3f 27 64 0a 3f 3c b0 14 be
       0.14872237 0.69427466 0.5405907 -0.14520353
000330 ae 0f f7 3d 72 9a 59 3e ce 11 3e 40 6b 6c 4e be
       0.120635375 0.21250322 2.9698367 -0.20158546
000340 90 c1 a4 3f c9 53 37 3e f4 3d 9a 3c 37 9d 4e 3e
       1.287157 0.17903055 0.01882837 0.2017716
000350 6b d7 89 3f c1 19 77 3e 54 1e 13 40 43 e4 d4 bc
       1.0768865 0.24130918 2.298726 -0.02598775
000360 1e 96 3f 3f 94 73 ae 3e 2a c0 2e 40 11 f4 b8 be
       0.74838436 0.34072554 2.7304788 -0.36123708
000370 0b 0a 61 3e 54 2d 04 be c3 6d a6 3f 59 f3 6b 40
       0.21976487 -0.12907916 1.3002247 3.6867278
000380 8f 14 48 3f 62 5c 67 3e 89 bd 0b 3f 8b 17 71 be
       0.7815637 0.22593835 0.5458608 -0.23544137
000390 77 61 7b 3f b1 5c fd 3e bf 0f 18 bf 96 f2 97 3f
       0.98195595 0.4948478 -0.59399027 1.1870906
0003a0 05 1d 50 bf a8 b8 19 3e da b2 39 3e 58 82 67 3e
       -0.8129428 0.15011847 0.18134633 0.22608316
0003b0 da a3 77 bd 13 49 76 3f e2 c9 02 c0 46 ab 9a bf
       -0.060458995 0.9620525 -2.043572 -1.2083519
0003c0 1b 4f b9 bf 51 bb c0 bd cf 13 22 3f 20 bc b8 3d
       -1.4477266 -0.09410728 0.63311476 0.09020257
0003d0 8c 29 0c 3e 4e e4 f2 40 95 bd 60 3f fd e0 b7 3c
       0.13687724 7.590369 0.8778928 0.02244615
0003e0 44 73 ea bf 00 e3 b6 be 1a 73 cd be 6c 31 de be
       -1.8316426 -0.35720062 -0.40126878 -0.4339708
0003f0 e4 25 6f be 0a 0c 61 3f 8b 1d 75 be 0d 20 22 be
       -0.23354298 0.87908995 -0.23937051 -0.15832539

join_features_NN.0.bias f4 [32]
000000 eb 68 8c be 11 d0 20 3f 41 36 e4 3e 9d 79 9a be
       -0.27423796 0.62817484 0.44572642 -0.3017091
000010 6a 46 49 bf f9 42 b3 3d 06 10 e9 3e 23 98 05 c0
       -0.7862307 0.087530084 0.45520037 -2.0874107
000020 ac c6 16 3e 06 ac 48 bd 74 32 f3 be 3c b3 05 be
       0.14724225 -0.04899218 -0.4749943 -0.13056654
000030 ec 35 fd 3d 08 e1 c9 3c 82 3b 8d bc 06 4e 14 3f
       0.123638004 0.024643436 -0.01724029 0.57931554
000040 4a de e6 bd 30 da c8 3d 78 6f 84 3e 14 48 ee 3c
       -0.11272867 0.09807241 0.25866294 0.029087104
000050 65 40 ed bd 22 24 af be 03 e8 14 be af c5 69 c0
       -0.11584548 -0.34207255 -0.1454163 -3.6526906
000060 3c 33 0c be d3 e2 b7 3e a6 57 52 be d1 18 02 bf
       -0.1369142 0.3591524 -0.20541248 -0.50819117
000070 9a 1b b7 3e d2 3f f1 3e 18 2b c7 3e cf 2a 89 be
       0.35763246 0.47119004 0.38900065 -0.26790473

join_features_NN.2.weight f4 [32, 32]
000000 e3 9e 0e 3f 99 de 8e 3f 8f 48 d6 be f9 e8 95 3e
       0.5571119 1.1161681 -0.41852233 0.29279307
000010 12 81 d3 bf d4 3f 59 3f 05 41 07 3f e7 8e 96 3e
       -1.6523764 0.8486302 0.52833587 0.294059
000020 82 3f 03 3f 6f 4b b8 be 41 e5 bb bf 46 12 03 3e
       0.5126878 -0.3599505 -1.4679338 0.1279994
000030 7e 2b b2 be 6a 69 81 3f 90 a4 ba 3e 92 6e 0b 3f
       -0.34798807 1.0110295 0.36453676 0.5446559
000040 8c c6 dd 3f ff 17 05 bf a9 61 3f bd 3e 73 57 bf
       1.7326217 -0.5198974 -0.046723995 -0.8416022
000050 27 94 cc be 28 a2 2e 3f 5a 3c a6 3e 80 6e 70 bf
       -0.3995678 0.6821618 0.3246792 -0.9391861
000060 a7 9d 46 bf ab ea 0a 3f 39 17 50 bf 6b 86 79 3e
       -0.7758431 0.54264325 -0.81285435 0.24367683
000070 04 45 a5 bd 51 d2 19 bf 3f 3f f9 3f b9 85 94 bf
       -0.08069804 -0.6008654 1.9472426 -1.1603309
000080 e7 61 6f 3f 07 d5 7c 3f e4 b2 ad bd a9 09 36 3f
       0.9350876 0.98762554 -0.08481386 0.7110849
000090 cb 94 95 3f 3e 05 5a 3f c4 98 00 3f f9 3b 8c 40
       1.1686033 0.8516425 0.502331 4.382321
0000a0 27 ee 07 bf da 88 cc 3f f0 7b 8b 3e b5 ec a4 bd
       -0.53097767 1.5979264 0.27242994 -0.08052961
0000b0 e9 71 a7 bf f2 c6 67 bf ed 12 72 3f 53 59 c5 3e
       -1.3081638 -0.9053794 0.9456013 0.3854471
0000c0 39 49 67 3f 15 40 18 3f 20 fd ec be 4e f3 81 3f
       0.90346104 0.5947278 -0.4628687 1.0152376
0000d0 f2 48 e5 3e 10 d6 af 3f bb fc 99 be 2f 12 db 40
       0.44782215 1.3737202 -0.3007563 6.8459697
0000e0 4a 28 1c c0 79 62 9a bf 35 08 af 3f 9b 43 1d 3f
       -2.439959 -1.2061301 1.367438 0.6143128
0000f0 12 f1 af be 39 90 72 bf 03 4e c3 be 81 38 96 3f
       -0.3436361 -0.94751316 -0.38145456 1.1735994
000100 33 cc 4d bf 25 e0 0a 3d 9f 50 c7 3e a1 92 5f 3e
       -0.8038971 0.033905167 0.38928697 0.21833278
000110 e0 7e 3b 3e 48 bf bd 3f 48 82 93 3e d9 0e f2 be
       0.18310118 1.4824 0.28810334 -0.47276953
000120 0b 04 9c bf b0 23 cc 3e 4d 7f 0c 3f dd 60 19 bc
       -1.2188734 0.39870977 0.54881746 -0.009361473
000130 68 95 12 3e b7 43 a8 3f a0 2c 08 3f 17 1f 96 bf
       0.14314806 1.3145665 0.5319309 -1.1728238
000140 b1 49 d6 be c0 4d 94 3f 98 64 84 bc e0 7e b8 3d
       -0.41853097 1.1586227 -0.016161248 0.090085745
000150 7a 0e 56 bf fb 1c 5e 3f 41 0b a3 bf c0 ab ee bf
       -0.8361584 0.8676297 -1.273781 -1.8646164
000160 a5 81 33 3f 85 3b 84 3f 41 3b 88 3e 18 49 b6 3f
       0.70119697 1.0330664 0.26607707 1.4241056
000170 69 30 08 3e be 9a 36 bd 7e 93 ac 3f e9 98 6a bf
       0.13299717 -0.044581167 1.3482511 -0.9163957
000180 6d 64 62 3f 12 4c 1b bf 37 97 6d bf 34 c3 fa be
       0.8843449 -0.6066295 -0.9280886 -0.48977053
000190 1b aa 1c 40 a2 b8 11 3f 05 d3 39 3d a4 b9 31 3f
       2.4478824 0.5692235 0.04536726 0.6942389
0001a0 4f 92 08 3f a8 27 37 3e 22 7d 9e 3f aa 79 1d be
       0.5334825 0.17886221 1.2381938 -0.15378442
0001b0 7b 81 f1 be ba f9 35 bd de 14 7a 3e 0f 65 10 be
       -0.47169098 -0.04442761 0.24422023 -0.14101051
0001c0 ca ee ae be 46 f9 b0 be 00 c8 d8 3e 88 30 2d 3f
       -0.34166557 -0.3456518 0.42340088 0.6765218
0001d0 3a 7c 9b be 67 8a 77 3f 44 08 dc be 6c d8 5f 3f
       -0.30368215 0.9669556 -0.42975056 0.8743961
0001e0 84 01 4d be f6 cd c6 bf d6 5b 99 3f 33 fb 8d be
       -0.2002011 -1.5531604 1.1981151 -0.27730712
0001f0 88 2f 83 bf 95 8b 45 be 1c 50 5e 3c b2 8f b0 3f
       -1.024888 -0.19291528 0.013568904 1.3793852
000200 79 09 61 3e 3f c4 57 3f 6b 42 e0 3f 22 c2 89 bf
       0.2197627 0.8428382 1.7520269 -1.076237
000210 22 db 0b bf 1b 39 84 3f c3 ff e1 bd 80 5b e5 bf
       -0.54631245 1.0329927 -0.11035111 -1.7918549
000220 6d 7b 64 bf fe db 0b 3f 6b 11 1e c0 71 d1 eb 3d
       -0.8925083 0.54632556 -2.469813 0.11514557
000230 6d 6f d1 bf ef cd 26 3f f4 6b c2 3f 8d b1 83 be
       -1.636213 0.6515798 1.5189195 -0.25721398
000240 fb a2 94 3e 0c 19 39 bf cd 6c c4 3d a3 b9 15 3f
       0.29030594 -0.72303843 0.095910646 0.58486384
000250 54 14 dd bf 84 c7 31 3f b2 18 f6 3e f3 8d 1c bf
       -1.7271829 0.6944506 0.48065716 -0.611541
000260 49 fe 46 3f 75 7c 17 40 58 fb 58 bf c0 7d d9 3f
       0.7773176 2.3669713 -0.8475852 1.6991501
000270 58 d4 99 3f 0b 31 26 c0 d8 60 c8 3e 53 04 01 c0
       1.2017927 -2.5967433 0.39136386 -2.015889
000280 d2 dc ca bc 4a b7 fb be ed 06 04 bf ad bc 51 3f
       -0.024763498 -0.49163276 -0.5157307 0.8192852
000290 00 13 f9 bf 4c a3 8d 3f 7e 24 17 3f 74 4b 80 be
       -1.9458923 1.1065459 0.5904006 -0.25057566
0002a0 ea 2c 90 3d 78 34 a8 3f 9b 4f b9 bf 5f fd b9 bd
       0.07039817 1.3141012 -1.4477419 -0.0908153
0002b0 ec 0a 27 3c db c0 e8 3e 46 70 6a 3f f8 fb 09 3f
       0.010195475 0.45459637 0.91577566 0.539001
0002c0 36 dc a2 3f 07 93 51 3e 30 bb 75 bf 9a c1 e7 be
       1.2723453 0.20466243 -0.9598875 -0.45264894
0002d0 9a ba c6 bf ba a0 19 bd e3 9a 39 bf 95 74 31 be
       -1.5525696 -0.037506796 -0.72501963 -0.17329629
0002e0 46 f9 85 3f 51 d2 80 3f 47 1b 25 c0 9c 8f d5 3f
       1.0466697 1.0064183 -2.5797899 1.6684451
0002f0 d7 66 c0 bf c2 2c 97 be 45 8d 46 3d ad 1d 44 3f
       -1.5031384 -0.29526335 0.04847457 0.7660778
000300 de dc 84 3e 3d 54 41 3e 74 92 0c 3f 13 ee 0d 3f
       0.25949758 0.1887979 0.5491097 0.554414
000310 44 86 46 be 31 a4 ea 3e 3e 82 97 3e 49 28 47 bf
       -0.19387156 0.45828393 0.29591554 -0.77795845
000320 34 09 45 3e 23 20 2b 3f 01 9d e5 be 16 94 cd 3d
       0.19241792 0.6684591 -0.44846347 0.10038011
000330 6b 4d 0e 3f 74 22 96 3e 41 79 a6 3f dc 68 a6 3d
       0.5558688 0.2932316 1.3005754 0.08125469
000340 f5 ed 31 3f 48 13 2f 3f 78 f0 de 3e b5 64 98 3f
       0.6950372 0.68388796 0.43542838 1.1905733
000350 81 ab 46 be d7 f5 68 3f db 5f c1 be 84 10 4d bf
       -0.19401361 0.9100012 -0.37768444 -0.80103326
000360 9e a2 cd 3d 51 86 eb 3f 98 08 52 bf 7c 64 94 3f
       0.100407824 1.8400365 -0.82044363 1.1593165
000370 cb a6 5d be 48 83 87 be 1d 95 10 3f 18 1e 3e bf
       -0.21645658 -0.26467347 0.5647753 -0.7426467
000380 56 55 1e 3e 35 38 cd be 20 6c 0f 3f 3f db b1 3e
       0.1546224 -0.40081945 0.5602436 0.34737584
000390 c8 a8 c9 3d 31 fc 5b bf 62 a3 86 3d f3 94 3f bf
       0.098466456 -0.8593169 0.065741315 -0.74836653
0003a0 3d b1 8e bf 55 87 53 3f de 36 ab 3f 00 e4 6e be
       -1.1147839 0.82628375 1.3376119 -0.23329163
0003b0 b6 49 c2 bf fb 7c 0d 3f e0 ea 93 3f 94 e1 ab be
       -1.5178745 0.5526883 1.1556053 -0.3357054
0003c0 95 a4 64 bf 3a ac da bd 9c 50 25 3e 56 28 8d 3f
       -0.8931363 -0.10677381 0.16144031 1.1027935
0003d0 6f 2b e9 bf 1b c1 11 3f 97 b6 7f bf 05 df b9 bf
       -1.821638 0.5693528 -0.99887985 -1.4521185
0003e0 5f 8b 2c 3f a9 de bf 3f 2c 6c 02 bf 59 ae 36 3f
       0.67400163 1.4989825 -0.5094631 0.71359783
0003f0 ca e5 06 3f da fa dc be 1e 89 e6 3f 52 d1 bc bf
       0.5269438 -0.43160135 1.8010595 -1.475138

join_features_NN.2.bias f4 [32]
000000 94 93 56 3f e4 01 02 be 59 8b c8 be 51 a8 da be
       0.83818936 -0.12696034 -0.39168814 -0.4270654
000010 79 71 85 be 19 72 bd be a3 8d 0d 3f 11 ff 46 3f
       -0.26063135 -0.37001112 0.55294245 0.7773295
000020 72 32 85 be 16 82 84 3e 1a 91 8e 3e 56 0d 28 be
       -0.2601505 0.25880498 0.2784508 -0.16411337
000030 f8 fc df be 88 94 42 3b d2 83 9a 3e 42 b4 c7 bf
       -0.43747687 0.0029690582 0.30178696 -1.5601885
000040 c0 95 58 bf 74 62 3c 3f 91 be 15 bf 04 17 17 bf
       -0.846035 0.7358773 -0.58493906 -0.59019494
000050 8f d7 04 3f 82 5b 96 3f 1b 3d 05 be 64 5f b5 3e
       0.51891416 1.1746676 -0.13011591 0.3542434
000060 e2 53 57 be ff f6 8f 3d 75 c3 c6 3e 23 39 68 3f
       -0.21028093 0.07029533 0.38820997 0.90712184
000070 ee 02 2a 3f 91 de 21 bf f4 69 09 3f 65 18 13 3f
       0.6641072 -0.63230234 0.53677297 0.574591

cons_representation_NN.0.weight f4 [32, 64]
000000 d4 ec 6f bd 21 5f 37 bd a1 fb 93 bd d2 69 99 bd
       -0.058575466 -0.044768456 -0.07225729 -0.07490887
000010 18 61 92 3d 96 f1 06 be ac 59 ad bd 0d 35 0c be
       0.071474254 -0.13178095 -0.08464369 -0.13692112
000020 1e 61 fc bc 6c e8 0f be 01 8d c1 bd f0 81 e6 3d
       -0.030808028 -0.14053506 -0.094507225 0.11255252
000030 73 06 03 bb 83 6a 28 3d 1e 4b 10 bd 8f 74 c9 bd
       -0.0019992858 0.041117202 -0.035227887 -0.09836685
000040 21 43 83 bd 09 0a 02 be 62 86 c4 bd 2b 0e 4b 3c
       -0.06409288 -0.1269914 -0.09595944 0.012393515
000050 f8 b3 4c bd 6e 24 4c 3d 89 ce f5 bd 71 fc 1a be
       -0.04997632 0.04983943 -0.12002284 -0.15135361
000060 25 93 f1 3d 28 64 45 be fd f7 32 3d cc 5c e0 bc
       0.11795644 -0.19276488 0.04369353 -0.027387999
000070 6b a3 37 be 47 d4 68 3d 3c c1 e4 bd 8c 26 7a bd
       -0.17933433 0.05684307 -0.11169669 -0.061071917
000080 88 d8 f9 bd 5c 89 d8 bd 43 ee 95 3c b4 dc 53 be
       -0.12199503 -0.10573074 0.018302089 -0.2068966
000090 95 32 f0 b8 32 76 ce bd 30 af 33 3d 98 b7 fa bc
       -0.000114535134 -0.10081138 0.043868244 -0.030605122
0000a0 26 41 41 bb 49 db 2f bd ef db 92 bb 8d 2d cc bd
       -0.0029488294 -0.042933736 -0.0044817845 -0.099696256
0000b0 2e 10 e4 bd ad e6 c7 bc 3c 66 a3 bd 87 58 4f bd
       -0.111358985 -0.024401987 -0.07978484 -0.050621536
0000c0 52 29 f6 bd 0d aa d7 bd 0c 93 cb bd 5c 5c c7 3d
       -0.120196 -0.105304815 -0.09940156 0.09734413
0000d0 23 ab e2 bb 90 f5 f2 3c 56 00 d0 3d 18 73 33 bb
       -0.0069173737 0.029658109 0.10156314 -0.0027381834
0000e0 30 79 11 be d4 63 b4 bd 53 61 10 bd 39 56 37 be
       -0.14206386 -0.08808103 -0.035249066 -0.17903985
0000f0 19 31 37 bd fe 08 99 bd dc d3 74 bd 80 fe be ba
       -0.044724558 -0.07472418 -0.059772357 -0.0014571697
000100 e6 d5 cf be 63 5d 7a 3f 17 ed 52 be e8 77 8e 3e
       -0.4059288 0.97798747 -0.20598255 0.27825856
000110 90 18 c7 be a3 83 79 3f fa 4c 02 be 30 87 b5 bf
       -0.38885927 0.97466487 -0.12724677 -1.4181881
000120 db 4e 17 3f a3 74 4a be 6f 56 8f bc 05 a8 e8 be
       0.591047 -0.19771056 -0.01749727 -0.4544069
000130 1e 84 e3 3e 78 1c 0a bf 9d 4f 14 3e 82 77 9c bf
       0.44436735 -0.5394969 0.14483495 -1.2223971
000140 d1 72 7e 3f ed c9 4b 3e cf 4d eb bf e8 5f d3 bf
       0.99393946 0.19901247 -1.838312 -1.6513643
000150 40 e0 12 3f f5 67 05 3e f0 be 6d bd 7b 93 19 3d
       0.5737343 0.13027938 -0.05804342 0.037494164
000160 28 fa 0f 3f a3 68 eb bd 02 e2 a9 bb af a8 ed 3e
       0.56241083 -0.11494567 -0.005184413 0.46417758
000170 b7 e8 37 bf d0 14 44 bf 3a eb 47 be 50 5b 7f be
       -0.7183947 -0.7659426 -0.19523326 -0.24937177
000180 04 47 79 c2 26 fa ee 3d c1 e7 08 bf 94 0e 6a 3e
       -62.31935 0.11668806 -0.5347863 0.22857124
000190 5b 00 5c 3e 2f 48 dc 3f 1a 30 80 bd 38 32 87 bd
       0.2148451 1.7209529 -0.06259175 -0.06601375
0001a0 3c 5e f9 be 36 05 df 3f e9 3a 7d c2 1d c1 b1 3f
       -0.48704708 1.7423465 -63.30753 1.3887058
0001b0 4c e1 ed 3f e6 94 93 3f d4 40 26 be 10 5f 90 bf
       1.858438 1.1529815 -0.16235667 -1.1279011
0001c0 0e 5f 87 bd 35 11 03 40 26 36 be 3f 3d ad 43 3d
       -0.06609927 2.0479252 1.4860275 0.047772635
0001d0 a0 1e 50 3f 5d 8c df bc 1e a6 84 3d 2d f7 28 bf
       0.8129673 -0.02728861 0.06476997 -0.6600216
0001e0 24 4b e8 3f 09 8a 15 bf 0c 81 c2 bd 7c 5e e1 3f
       1.8147931 -0.5841375 -0.0949727 1.7606959
0001f0 34 37 8b 3f 00 42 e1 3f b8 ef 11 3e 50 90 ca bc
       1.0876222 1.7598267 0.14251602 -0.024727017
000200 6f 72 6e 3f 41 fc 68 3f 8c 2f 3f 3f 27 e6 99 3f
       0.9314336 0.9100991 0.74681926 1.2023362
000210 97 76 eb 3e 71 29 4b 3f 85 e7 02 3e f1 a9 42 3f
       0.45988914 0.7936011 0.1278363 0.7604056
000220 c3 94 d2 3d 99 f8 1b 3e 44 be 9c be a7 c9 52 bf
       0.1028228 0.15231551 -0.3061391 -0.8233895
000230 25 52 94 3e 57 f0 cd 3e 94 a9 82 be 13 56 87 bf
       0.2896892 0.40222427 -0.25520003 -1.0573143
000240 09 83 6d bf 47 8a 0a be 8e 6d 67 3f 12 03 46 3f
       -0.9277807 -0.13529311 0.9040154 0.77348435
000250 cc 78 84 3f 77 6a db 3d 88 33 3a be 07 40 8c 3e
       1.0349364 0.10713666 -0.1818372 0.273926
000260 8b 3b bb bd ed 65 d6 3e c6 b1 84 3f a6 d7 3b 3f
       -0.09142216 0.41874638 1.0366752 0.7337593
000270 2a fa 61 be 71 64 10 3e 29 d2 36 be 47 64 f8 3e
       -0.22068086 0.14100815 -0.17853607 0.48514006
000280 7e a3 2b 41 98 fb f7 bd 03 65 bc 42 0b 80 06 40
       10.727415 -0.121085346 94.19729 2.1015651
000290 0b 1d 6f bb 94 ae 32 41 02 00 d4 bd ec 75 22 bd
       -0.0036485817 11.167622 -0.10351564 -0.03966324
0002a0 6b 4b 44 40 99 6f 27 41 51 ee c6 41 c2 3c 7b c0
       3.0671031 10.4647455 24.866365 -3.9255834
0002b0 82 07 71 40 d7 94 25 41 a0 5c cc 3e e0 6d 30 41
       3.7660832 10.348838 0.39914417 11.026825
0002c0 6c 19 22 3d 18 79 3a c2 a9 13 40 41 ad 03 3c 3e
       0.039575025 -46.618256 12.0048 0.18360777
0002d0 2e af 7c 40 b0 93 d2 bd 80 39 c0 ba 1e ec 15 40
       3.9481921 -0.102820754 -0.0014665574 2.3425364
0002e0 b9 ad 26 40 03 eb c8 3f 36 08 19 3d c5 50 86 c2
       2.6043532 1.569672 0.037361346 -67.15775
0002f0 67 4b 1c 41 d2 57 6b 41 ea 54 ed 3d c4 c7 52 3d
       9.768409 14.7089405 0.11588462 0.051460043
000300 b6 42 40 3e 2f 97 cb bc 60 0e e5 3e 2c fe 43 bf
       0.18775448 -0.024852363 0.4473753 -0.7655971
000310 6f 9a f9 3e 89 27 32 be d5 9c 50 3d 58 33 0f be
       0.48750636 -0.17397894 0.050930817 -0.1398443
000320 97 c4 1d 3f b7 fd 8e be 12 db 40 bf 5e 1d a0 be
       0.616281 -0.27927944 -0.75334275 -0.31272405
000330 2f f9 0d 3e 41 51 71 bf 4f ba 1e be d4 86 d5 be
       0.13864587 -0.9426461 -0.15500759 -0.41704428
000340 70 cf ff be a1 0a 1c bd ef bc be bd 69 11 0b 3f
       -0.4996295 -0.038096074 -0.0931338 0.5432344
000350 b4 0a 9a 3e 01 ce 4f bc 51 a1 89 be c1 68 bb 3e
       0.3008629 -0.0126833925 -0.26880887 0.36603358
000360 69 e4 7e 3e 69 e3 b5 3e 37 a7 89 be 0c 7b af 3e
       0.24891819 0.35525063 -0.26885387 0.34273565
000370 3a 9e 86 be ae 15 18 bf 47 0d 41 3f 9e e5 a4 be
       -0.26292592 -0.5940808 0.75410885 -0.32206434
000380 3a 36 bc 41 f8 14 a9 bc 70 16 14 c1 7c c3 4d c0
       23.526478 -0.020639881 -9.255478 -3.2150564
000390 9e 3e 61 be a0 ac d4 bf a0 f3 7c bc f4 f0 f9 3d
       -0.21996543 -1.6615181 -0.015438944 0.12204161
0003a0 6d 0f 98 c0 09 c2 8d bf c8 f1 ca c0 ea 25 09 43
       -4.751883 -1.107484 -6.3420143 137.1481
0003b0 23 23 54 3f 71 59 8b 41 a8 a9 b3 3d d7 c6 5d 43
       0.82866114 17.418673 0.08772594 221.77672
0003c0 e6 24 b6 3d 9e 4a fb 42 10 6a b7 42 f8 29 dc 3d
       0.088937566 125.64574 91.70715 0.107501924
0003d0 3d 9b 5e 3e 71 8a 50 3e 6c 1a ef bd eb d7 31 c0
       0.21738906 0.20365311 -0.116749614 -2.7788036
0003e0 d2 20 ab c0 fc d1 9f bf b1 f3 81 bd cf db 27 43
       -5.3477564 -1.2485957 -0.063453086 167.85863
0003f0 f0 ff a0 be 3d e1 0d 43 47 61 4f 3c c4 d0 94 3d
       -0.31445265 141.87984 0.01265747 0.072663814

cons_representation_NN.0.bias f4 [32]
000000 9f 35 49 be 6c 3d 16 3f 14 6a f7 3f 79 1c 52 c0
       -0.19649361 0.5868747 1.9329247 -3.2829878
000010 20 51 6a 3e 16 46 81 bf 5e 3e ae 40 24 55 7e 40
       0.22882509 -1.0099514 5.445113 3.9739466
000020 c3 96 d7 c1 99 ae 94 bf ee a7 9f be 4b b7 18 be
       -26.948614 -1.1615783 -0.31182808 -0.1491367
000030 8c cf b2 c2 3d 6b 19 be 4f 52 43 c0 a2 ea 52 c0
       -89.405365 -0.14982314 -3.0518987 -3.2955709
000040 59 1c 14 40 9f f7 3f bc 24 15 2b be f4 12 36 c1
       2.3142302 -0.011716752 -0.16707283 -11.379627
000050 18 b5 d6 c1 6c 35 96 bd 72 a6 13 40 c0 e9 6e be
       -26.838425 -0.07334408 2.307034 -0.23331356
000060 bd 9e b9 c2 c1 0e 12 c0 b5 10 0e 40 f1 fa fe 3f
       -92.810036 -2.2821505 2.2197697 1.9920331
000070 72 cf bf c0 7b 0e d8 bf 61 7e a7 40 bc 14 bc 3f
       -5.994073 -1.6879419 5.234177 1.4693828

vars_representation_NN.0.weight f4 [32, 64]
000000 bc 0c 10 40 33 fb 14 be f5 c9 37 3f d8 d8 b6 bf
       2.2507772 -0.1454895 0.71792537 -1.4284925
000010 7e 32 6c 40 5a 2a 14 40 8d 7a c4 3f 08 25 3a 40
       3.6905818 2.315085 1.53499 2.9085102
000020 b7 39 f0 3e 91 04 30 41 c5 0f cf 3f 3a f7 81 3f
       0.46919033 11.001115 1.6176687 1.0153573
000030 df 21 b1 3f e7 b1 49 bf dd ac 16 40 a9 62 ff bf
       1.3838462 -0.7878708 2.3543007 -1.9951984
000040 25 50 98 3f 78 50 2f 40 3a c2 49 3e a3 88 73 40
       1.1899458 2.7392864 0.19702998 3.8052146
000050 c4 2d 5f 40 c2 1b 22 40 b0 92 98 40 50 7a 57 40
       3.4871683 2.5329442 4.767906 3.3668404
000060 3d 91 0e 40 2f fc 3e 40 cd 80 31 3e 6b bc fd 40
       2.2276146 2.984142 0.1733429 7.9292502
000070 88 7d 09 40 76 15 86 40 20 14 d6 c0 15 71 cf 3f
       2.1482868 4.1901197 -6.6899567 1.6206385
000080 8d a3 3c c2 30 c8 25 c2 71 b9 63 40 f9 25 20 c2
       -47.159718 -41.445496 3.5581934 -40.037083
000090 44 01 92 c2 4e 0f 98 c2 5c 60 fd 41 4b 47 8b c2
       -73.00247 -76.02989 31.67205 -69.639244
0000a0 8c 5a ac 41 97 fc ad c2 7e d2 e8 c0 f0 d4 04 c2
       21.544212 -86.99334 -7.275695 -33.207947
0000b0 47 70 45 c3 1e 44 8a c2 6a a6 94 c2 f3 45 88 c2
       -197.43858 -69.13304 -74.32503 -68.13662
0000c0 15 31 9a c2 fa c7 15 c0 07 bb bd bf 3f 1d 8a c2
       -77.09586 -2.3403306 -1.4822701 -69.05712
0000d0 3e 0b 0a c2 28 23 d8 3c 8b dc d2 c1 6c 50 72 3f
       -34.51098 0.026383951 -26.357687 0.94653964
0000e0 40 dd 4b c2 8d 87 68 40 76 3c 41 c2 99 7b 22 42
       -50.966064 3.6332734 -48.309044 40.6207
0000f0 09 b9 92 42 f7 67 33 c2 24 b7 11 42 7b 83 93 c2
       73.3614 -44.85153 36.42885 -73.7568
000100 97 d5 ab 40 c2 07 03 40 b2 d0 52 40 20 53 a0 bf
       5.369823 2.0473485 3.2939878 -1.2525368
000110 e8 17 00 41 da d6 5e 40 2c 77 45 40 86 e3 ea 40
       8.0058365 3.4818635 3.0853987 7.340274
000120 4b d5 77 bf 06 62 27 41 11 f0 35 40 54 6e 6d 40
       -0.96809834 10.4614315 2.8427775 3.709859
000130 be 18 04 41 5d c0 3e 40 29 3d c6 40 37 8a fb 3f
       8.256041 2.980491 6.194966 1.9651555
000140 e0 22 3c 40 a0 d4 0c 41 e7 bd 17 41 b3 cc 13 41
       2.9396286 8.80191 9.483863 9.237475
000150 54 3b 01 41 21 61 96 40 a3 96 02 41 4e 1c d5 40
       8.076984 4.6993566 8.161777 6.659705
000160 d5 6e ce 3f d7 f0 92 40 99 72 5c bf e4 6c 87 41
       1.6127573 4.5918994 -0.8611236 16.92817
000170 cb 6b cb 40 22 44 35 41 50 29 aa c0 89 0e 45 40
       6.3569083 11.329134 -5.317543 3.0790122
000180 fb d0 31 c2 b2 ca 11 c2 ab cc ea 40 5d fd 0b c2
       -44.454082 -36.447945 7.337484 -34.997425
000190 57 69 8c c2 16 44 8f c2 1b 47 12 42 ca 5e 85 c2
       -70.20574 -71.63298 36.56944 -66.685135
0001a0 fa 00 ab 41 fb 13 a7 c2 96 82 c1 c0 cb 29 e6 c1
       21.375477 -83.539024 -6.0471907 -28.770407
0001b0 92 0a 45 c3 d2 65 84 c2 c7 35 8d c2 40 57 7d c2
       -197.04129 -66.19887 -70.605034 -63.335205
0001c0 42 43 91 c2 9f 3c 4e 40 9e 05 26 c0 b6 27 80 c2
       -72.63136 3.22245 -2.5940928 -64.07756
0001d0 01 53 f0 c1 ac 08 8a 3d a6 21 b6 c1 3d 9d 11 3f
       -30.04053 0.06739935 -22.76643 0.5688055
0001e0 15 3d 33 c2 e7 44 1f 41 52 ca 2a c2 d4 a2 3b 42
       -44.80965 9.954322 -42.69758 46.90901
0001f0 42 5d 94 42 d2 5d 23 c2 ef 3d 12 42 cd b6 88 c2
       74.182144 -40.84162 36.560482 -68.35703
000200 e4 a6 81 41 62 11 0d 41 0f 6a 37 41 ca 4d 7e c1
       16.20649 8.816744 11.463393 -15.893991
000210 71 24 97 c2 61 ac 18 41 d8 e6 2d 41 ed b2 74 c2
       -75.571175 9.542085 10.868858 -61.174732
000220 87 8c d4 bd 76 fa 84 42 93 6b 2c 41 ab 53 31 41
       -0.10378366 66.48918 10.776263 11.082927
000230 a8 4e 25 c2 98 fe b2 c1 28 06 37 c2 9d 30 bf c0
       -41.326813 -22.374313 -45.756012 -5.9746842
000240 e9 25 0a 41 24 5e 99 c2 c4 16 21 c0 f2 94 9c 41
       8.634255 -76.68387 -2.5170145 19.572727
000250 96 70 1c c2 89 09 31 41 3c 61 f7 c1 52 c7 97 41
       -39.109947 11.064828 -30.922478 18.972324
000260 cf 48 6a 40 b6 41 42 41 18 d2 a2 bf 3d 53 bb c2
       3.660694 12.141043 -1.2720366 -93.662575
000270 89 3e 8e 41 7b 60 97 41 35 05 0e 42 cb 61 2f 41
       17.780535 18.92211 35.505085 10.961375
000280 62 b8 1b 43 78 ae 24 43 ad 9c 69 43 15 54 27 43
       155.72025 164.68152 233.61201 167.32845
000290 3c b4 c3 42 e9 d8 c8 42 c8 98 8d 43 ba fc d5 42
       97.85202 100.42365 283.1936 106.99361
0002a0 52 20 b5 41 9f 83 93 42 4f 76 12 42 cd a9 2f 43
       22.640781 73.75707 36.615536 175.66328
0002b0 cb c9 1d c3 76 f3 cb 42 35 5a da 42 b6 99 e3 42
       -157.78825 101.97551 109.176186 113.80022
0002c0 b7 37 c5 42 22 d0 63 43 be 9a de 3f 59 77 e4 42
       98.60882 227.81302 1.7390974 114.2331
0002d0 e0 89 2f 43 ce c4 d6 3d 50 ee 38 43 a9 ed 53 40
       175.53857 0.10486756 184.93091 3.3113806
0002e0 83 62 11 43 ae 12 6e 43 27 bb 17 43 93 eb 8d 43
       145.38481 238.07297 151.73106 283.84042
0002f0 f2 9f 89 42 47 bc 1a 43 21 c6 08 42 7a 64 c1 42
       68.81239 154.73546 34.193485 96.69624
000300 ad 31 af be 0c 35 91 3f 57 9a 69 be 88 8f 3c 40
       -0.34217587 1.1344314 -0.22812782 2.9462605
000310 6a 77 90 bf d7 a3 bc 3e 99 86 80 3d 5c de bd be
       -1.1286442 0.3684375 0.062756725 -0.3708371
000320 bc 82 7f 3f c3 17 c9 c1 e3 82 96 3f c9 15 c0 bd
       0.9980886 -25.136602 1.1758693 -0.09379155
000330 e2 32 ca be 14 d1 1f 40 df ee 88 be d7 2f 04 40
       -0.39491946 2.497136 -0.26744744 2.06542
000340 b9 cf b5 3e 9c 1c e8 be 23 fc e2 3f 55 b6 93 bf
       0.35510042 -0.45334327 1.7733196 -1.1540018
000350 9d a3 f4 bb 96 81 93 bf 8e 90 f2 be d7 44 57 bf
       -0.0074657933 -1.1523921 -0.4737591 -0.84089416
000360 98 4b d5 c1 c4 eb 70 bf e2 6d 95 3f 34 2f b0 3d
       -26.661911 -0.9410975 1.1674159 0.08602753
000370 38 0e 28 bf db b4 37 3e 73 18 53 c2 ee d5 b5 3e
       -0.65646696 0.17940085 -52.773876 0.35514778
000380 d2 c7 8e 42 1b 47 8f 42 16 8c 78 42 4d 13 92 42
       71.390274 71.63888 62.136803 73.0377
000390 aa 0b 80 42 86 9c 99 42 c8 23 80 42 61 05 85 42
       64.02278 76.80571 64.069885 66.510506
0003a0 11 79 d3 c0 7e f5 85 42 b6 37 35 41 14 db 89 42
       -6.6085286 66.97948 11.326101 68.92789
0003b0 7f f7 1f 42 79 47 74 42 ab e6 a4 42 29 86 98 42
       39.991695 61.069798 82.45052 76.26203
0003c0 6a 81 97 42 fe cc 88 42 0c 12 f8 3f 26 97 96 42
       75.75276 68.400375 1.9380507 75.29521
0003d0 f2 40 90 42 80 53 78 bd 63 ad 82 42 2e f8 35 3f
       72.12685 -0.060626507 65.338646 0.7108182
0003e0 a1 29 9f 42 1b 93 89 42 11 f1 93 42 d4 81 9c 42
       79.58131 68.787315 73.97083 78.25357
0003f0 d0 f0 fa c1 ca aa 8b 42 db b7 32 c1 4e 16 9a 42
       -31.367584 69.83357 -11.169887 77.043564

vars_representation_NN.0.bias f4 [32]
000000 fd 19 5c c2 44 91 46 c2 61 09 0c 43 5d a7 93 42
       -55.02538 -49.64186 140.03664 73.82688
000010 fc b2 2a 42 18 60 68 c2 86 c5 da bf 1e b8 a3 42
       42.67479 -58.09384 -1.7091529 81.859604
000020 8f 89 62 c2 ef 1b 58 c2 db bb 62 c2 37 cf 6b 42
       -56.634335 -54.02728 -56.683453 58.95236
000030 6f 1a 3c bd d7 30 12 bf a1 c7 6b c2 1a 85 59 c2
       -0.045923647 -0.57105774 -58.94495 -54.379982
000040 bb 52 64 c0 95 23 4b c2 c0 25 59 c2 d5 f3 79 42
       -3.5675495 -50.784748 -54.286865 62.488117
000050 a7 18 4e c2 68 6f 5f c2 d6 7d 5c c2 6f 20 5d 42
       -51.524075 -55.858795 -55.122887 55.281673
000060 69 8a e7 bf 03 27 99 42 86 d4 f3 bd 7a 0d 70 be
       -1.8089114 76.576195 -0.1190577 -0.23442641
000070 db 4e 64 c2 6f 8c 60 c2 ee d1 5f c2 4f 18 6d c2
       -57.077007 -56.137142 -55.95501 -59.27374

output_module.0.weight f4 [32, 32]
000000 2e 44 fe be 83 d8 1f 3d 66 26 a6 be 67 71 fe bd
       -0.49661392 0.03902484 -0.3245117 -0.124239735
000010 d8 a2 c4 be 03 a1 51 be 4d 31 67 be 94 c6 48 3e
       -0.3840549 -0.20471577 -0.225774 0.19607002
000020 f9 c1 86 be d4 4d b8 3e 8b f1 e8 be 73 bd 09 be
       -0.26319864 0.35996878 -0.45496783 -0.13451175
000030 04 21 31 be d1 d8 8c 3e 06 bd 55 3e 68 e8 e4 bc
       -0.1729775 0.27509168 0.20872888 -0.027942851
000040 f6 8a 0a bf a5 e8 81 be fa b6 33 3b 02 be 4b 3e
       -0.5411829 -0.25372806 0.0027422295 0.19896701
000050 eb 66 b2 be ed 27 a3 be 5f 7c 82 bd 24 b2 92 bd
       -0.34844145 -0.31866398 -0.06371378 -0.07162884
000060 4f 82 08 bf 81 12 f9 be a4 4c 06 be 16 df db be
       -0.53323835 -0.4864693 -0.13115174 -0.4294364
000070 62 0c ca 3d a9 ed bd be 97 f5 c4 3d b3 64 f3 be
       0.09865643 -0.37095383 0.09617155 -0.47537765
000080 6f 16 bd be 89 29 1c bf 96 1c 68 bf c9 28 0d be
       -0.36931178 -0.6100088 -0.9066862 -0.1378509
000090 04 0c 10 bf e8 5a 80 be 66 96 33 3f 19 aa 97 bf
       -0.56268334 -0.25069356 0.70151365 -1.1848785
0000a0 0a d3 3c be fb 0f 88 3e 9b 45 53 be 7b f4 62 3e
       -0.1843988 0.26574692 -0.20632021 0.22163574
0000b0 ab c6 14 bf 38 73 b1 3e 91 0a 9f 3e a4 89 93 bc
       -0.58115643 0.34658217 0.3106275 -0.018009968
0000c0 9c 87 d7 3d 76 1e 79 bf d0 57 a6 be 53 6f 37 bf
       0.10523912 -0.97312105 -0.3248887 -0.7165424
0000d0 34 12 f5 bc ea a0 67 bf 16 a6 06 be 7c 1d ba bc
       -0.029915906 -0.9047991 -0.13149294 -0.022719137
0000e0 8e 4e f4 be 17 14 b6 3e 01 7f 28 bc 6a 44 29 bf
       -0.47716182 0.35562202 -0.010284186 -0.66120017
0000f0 25 46 f7 be a5 ea 27 bd 7c 86 ca be 1a 8d d6 3d
       -0.48295704 -0.04099526 -0.39555728 0.10476132
000100 ac b5 c3 40 eb 5b 3d 40 c5 1a c3 3f 8b 5f 67 c2
       6.1159267 2.9587352 1.5242544 -57.843304
000110 88 96 d6 c1 e5 33 98 40 3c a9 06 c0 7a d5 7b c2
       -26.823502 4.756335 -2.1040792 -62.958473
000120 d4 91 81 40 2d d2 7e 40 64 c8 a0 40 c2 58 3a c2
       4.0490513 3.981578 5.0244617 -46.586678
000130 ce d3 5c 3f c6 76 31 3f 6a 44 f9 40 03 bc a8 40
       0.8626069 0.6932186 7.7896013 5.2729506
000140 e0 e4 6e c0 5c 6a 59 40 f9 a1 8e 40 80 16 7c c2
       -3.7327194 3.3971167 4.457272 -63.021973
000150 8e 55 68 40 92 47 aa 40 fa 7c c9 40 36 8a 20 c2
       3.6302218 5.3212366 6.296506 -40.13497
000160 fc 58 0e c0 cc 23 8d c2 1a 56 bf 3e 4b 52 7c bf
       -2.2241812 -70.569916 0.37370378 -0.9856307
000170 2c 6e b5 40 cd d0 c0 40 c1 9a a6 40 40 9e 88 40
       5.6696987 6.0254884 5.206391 4.2693176
000180 59 34 88 be 1b b2 81 3e c7 d1 78 bf e6 92 21 bf
       -0.26602438 0.25331196 -0.97195095 -0.63114774
000190 94 e9 b8 bf 9c dd ad bd 49 a3 77 be 5f 4d 83 bd
       -1.4446282 -0.08489534 -0.24183382 -0.06411242
0001a0 30 e8 55 be b2 05 97 bd 8b 44 f7 be 95 23 35 be
       -0.20889354 -0.07374133 -0.48294482 -0.17689355
0001b0 80 bd d4 3d e6 53 c1 bd 88 98 f9 3e 97 eb f8 3d
       0.10387707 -0.094398305 0.48749185 0.1215431
0001c0 1f ee b2 be 06 00 b8 bf ed f4 3b be 7f 33 2e bf
       -0.34947297 -1.4375007 -0.1835515 -0.68047327
0001d0 47 ca e5 bd c7 f6 17 bd 37 c2 c2 3e f3 28 d7 bd
       -0.11220222 -0.03710058 0.380388 -0.10505857
0001e0 89 2d 07 be db 9d 80 bf 09 1b 23 3e b2 0e 25 3f
       -0.13200964 -1.0048174 0.15928282 0.6447555
0001f0 81 06 02 be a4 51 3f bd 31 c6 b7 3d 70 87 d4 be
       -0.12697794 -0.046708718 0.08973349 -0.4150958
000200 ca 11 85 40 3e 49 5f 40 3a 86 cc 3f eb 5d 6d c2
       4.1584215 3.4888453 1.5978463 -59.341717
000210 b3 fd d4 c1 7b ac 44 40 9f 47 d8 bf 29 95 7c c2
       -26.623877 3.0730274 -1.6896857 -63.145664
000220 16 56 8c 40 65 88 52 40 32 88 62 40 42 d6 43 c2
       4.3855085 3.2895749 3.5395627 -48.959236
000230 67 56 37 3f 2e 65 09 3f 92 29 06 41 11 79 ba 40
       0.71616215 0.5367001 8.385149 5.8272786
000240 af 7c 89 c0 55 a1 38 40 d8 5d 5a 40 70 d4 81 c2
       -4.29647 2.884847 3.4119778 -64.91492
000250 e1 90 54 40 02 83 96 40 12 96 a5 40 d0 fc 29 c2
       3.3213427 4.703492 5.174569 -42.496887
000260 bf 38 77 bf 2b 63 92 c2 4f af e9 be 15 ca c2 be
       -0.9657096 -73.19369 -0.45641562 -0.380448
000270 3b 9a b6 40 3c 0d ca 40 56 f5 9d 40 ad 45 96 40
       5.706327 6.3141155 4.936198 4.6960053
000280 50 d2 a9 40 7b 47 51 40 22 c9 b8 3f c7 c5 6b c2
       5.306923 3.2699878 1.4436381 -58.943142
000290 50 fc c9 c1 ff ea 90 40 2f cf ac bf 57 b0 7a c2
       -25.2482 4.528686 -1.3500727 -62.672207
0002a0 ab 60 7b 40 ee 73 85 40 0c e6 9b 40 13 1e 39 c2
       3.9277751 4.1704016 4.871832 -46.27937
0002b0 f8 d5 ed 3e a2 5d 41 3f 22 cb f6 40 e5 eb af 40
       0.46452308 0.755335 7.7122965 5.4975457
0002c0 6b dc 84 c0 b5 d6 83 40 a6 f0 6d 40 c9 2a 79 c2
       -4.1519065 4.1199594 3.717813 -62.291782
0002d0 e1 69 61 40 d3 c2 92 40 0f 27 b7 40 14 da 1d c2
       3.5220873 4.5862823 5.723518 -39.462967
0002e0 92 c4 14 bf 48 95 89 c2 f1 59 14 3f 90 aa 8a bf
       -0.5811244 -68.791565 0.5794974 -1.0833302
0002f0 e4 2f a2 40 fd d6 c6 40 c1 e6 9f 40 03 4a 93 40
       5.068346 6.2137437 4.996918 4.6027846
000300 a6 c9 40 3e 81 2a 44 bd a6 d2 14 bf 26 fe 0e bf
       0.18826923 -0.047892097 -0.58133924 -0.5585655
000310 a3 76 da bc 19 72 42 be 93 e8 be 3c 4d 13 55 3d
       -0.026667899 -0.18988837 0.02330426 0.05202036
000320 ec 04 5e bf ed 09 90 3e fc 08 4a be 18 f4 e1 3d
       -0.8672626 0.28132573 -0.1972999 0.11032885
000330 2c 30 ee bd aa c3 13 3f ea 64 f0 be b9 a5 ac be
       -0.11630282 0.57720435 -0.4695199 -0.33720186
000340 aa e6 c5 bd c1 75 1b 3d fc 41 8e bd db cd 81 be
       -0.09663136 0.037954096 -0.06946179 -0.25352368
000350 6c 63 88 bd 12 68 8d 3c 38 ca 9a be ab b4 00 3e
       -0.06659588 0.017261539 -0.30232406 0.1256892
000360 d8 8e df be 31 55 47 3d 6b 36 21 3d 6b b5 97 be
       -0.4366367 0.04866523 0.039358538 -0.29630598
000370 c2 71 9a bd 52 61 0a bc c2 7b 13 3e 7a 6b 79 3d
       -0.07541229 -0.0084460545 0.14402679 0.060893513
000380 06 43 b9 40 dd 24 46 40 5f 7d 9b 3f 37 a3 6e c2
       5.7894316 3.096 1.2147635 -59.65939
000390 7b e6 d2 c1 8e 35 8b 40 1c 46 2b c0 36 74 7d c2
       -26.36254 4.3502874 -2.6761541 -63.363487
0003a0 45 66 3d 40 8b cd 4e 40 52 42 92 40 38 e2 39 c2
       2.959367 3.2312953 4.5705957 -46.470917
0003b0 8b e9 2a 3e 29 c3 10 3f 3e 2e 8a 40 5e 9f 9f 40
       0.16690652 0.5654779 4.318145 4.988204
0003c0 11 89 80 c0 2b f0 3d 40 28 c1 63 40 71 80 67 c1
       -4.0167317 2.9677837 3.5586643 -14.468858
0003d0 cd 83 60 40 3b 85 61 40 0f a3 b5 40 66 42 26 c2
       3.5080445 3.5237567 5.6761546 -41.564842
0003e0 71 d2 06 c0 45 54 91 c2 22 5e f9 3e 64 64 cc bf
       -2.1065943 -72.66459 0.4870463 -1.5968137
0003f0 29 a6 a7 40 3f 29 a6 40 69 ae 88 40 f4 47 9f 40
       5.239033 5.192535 4.2712903 4.9775333

output_module.0.bias f4 [32]
000000 d7 3b fb be c6 df 3e be 77 c1 58 c2 8e 7d b1 be
       -0.49069092 -0.1864005 -54.18893 -0.34666103
000010 b8 54 61 c2 01 d4 54 c2 66 f0 33 bf 72 aa 5a c2
       -56.332733 -53.207035 -0.70288694 -54.66645
000020 a6 17 95 be 3e 66 a6 3d d7 1c fc 3e f8 9b 09 3f
       -0.29119605 0.0812497 0.49240753 0.53753614
000030 6c 61 24 bf aa ca 59 c2 73 d5 a6 be ca bb e3 bf
       -0.64211154 -54.447914 -0.32584724 -1.7791684
000040 18 fe c9 42 25 45 4d be 08 6b 06 c0 11 82 9e 3d
       100.99628 -0.20045908 -2.1002827 0.07739652
000050 9e 57 52 bd 6c c1 21 bf ab 13 5f c2 8a 41 54 c2
       -0.05135309 -0.63185763 -55.769207 -53.064003
000060 87 71 a8 3c 13 61 2a be 1e 04 92 3e a3 61 55 c2
       0.020561947 -0.16638593 0.28518766 -53.34535
000070 9c 56 45 c0 47 23 8c 42 a6 f2 57 c2 b0 67 5e c2
       -3.0834112 70.0689 -53.98696 -55.601257
