code_RLSCG/save_models/Model_RLCG_2022.pt (torch, 45536 bytes, 17 tensors)

cons_embedding.0.weight f4 [32, 2]
00000000: b08c 53be b6c9 99bd b1fc 14bf 1d38 05bf
00000010: 37c1 d0be f582 4c3d d2ff 28c0 e1ce 5940
00000020: dc68 e63f b29f bfc0 d3bb 97bf b192 01c1
00000030: c2ef 2cbf 90c5 efbe 9f3d 95be 4094 d63c
00000040: c764 74be d18f 473e 997b dfbf 939c d2bf
00000050: 3282 a7bc afdf ee3d fce7 15bf 84e8 82ba
00000060: cc88 71be 6ec9 95bc 23aa a13f 9c3c 36c0
00000070: 86a4 ecbe 78bb 40be b455 6ac0 848e b640
00000080: 86aa eabe 86a8 a6be 22e3 1ac0 d9a8 10c0
00000090: 06ff 75c0 bf53 16c0 afbe 9e40 6e57 523f
000000a0: 53f8 88be 7c63 81bf 7699 943d 628b 3ebf
000000b0: 68cc 02bf 4ca4 babe 59a7 063e 0eb6 d43e
000000c0: 04f4 a1bf 13d1 84bf 2a3a 5640 cda2 c83f
000000d0: ec75 653d 1ec7 d9be fa47 c23f 62b1 0bc0
000000e0: 54b2 20bf bc3a 14c0 1fc2 f1c0 5d3d 2640
000000f0: 0686 533e d175 1a3e 5b74 d6be b8bf 5a3e
-0.20659137 -0.075091764 -0.58198076 -0.5203875 -0.4077241 0.049929578 -2.640614 3.403252
1.800075 -5.988244 -1.1854194 -8.098313 -0.6755334 -0.46830416 -0.29148576 0.026193738
-0.23866569 0.19488455 -1.7459594 -1.6454033 -0.020447824 0.11663758 -0.58557105 -0.0009987508
-0.2358734 -0.018284526 1.2630047 -2.8474493 -0.4621927 -0.18821514 -3.661481 5.704897
-0.45833224 -0.32550448 -2.420113 -2.2603056 -3.8436904 -2.3488615 4.960777 0.8216466
-0.26751956 -1.0108485 0.07255833 -0.7443143 -0.5109315 -0.36453474 0.13149776 0.41545147
-1.2652593 -1.0376304 3.3473 1.5674683 0.056020662 -0.42534727 1.5178216 -2.1827016
-0.6277211 -2.3160849 -7.5549464 2.5974953 0.20656595 0.15084006 -0.41885647 0.21362197

cons_embedding.0.bias f4 [32]
00000000: 5814 d53c 40c8 b6bd 685d 2fbd e753 5140
00000010: 0d6c df3e b5e0 4840 6e7f 0bbf 1cad 84be
00000020: ed74 6fbe 2cbb a13e 5ce5 f3bd 7938 463c
00000030: 847b 95bc 0ba2 6e3f 4ce1 823d 3393 1a40
00000040: a4b3 28bf 5795 5440 c3b0 3040 c807 55bf
00000050: 5b91 1d3d f786 28be 604f eebd 93ac 5bbf
00000060: 1d8c 513e 31c5 3dbf 84ff dfbd 38ba 483f
00000070: 74f0 003e fee6 9a40 284c 53bf 76da eabe
0.026010677 -0.089249134 -0.04281369 3.270746 0.43637124 3.138715 -0.5449132 -0.25913322
-0.23384447 0.31588113 -0.11908981 0.012098425 -0.018247373 0.9321601 0.06390628 2.4152343
-0.6589911 3.321615 2.7607887 -0.83215 0.0384687 -0.16457735 -0.11636233 -0.858102
0.20463605 -0.74129015 -0.109374076 0.7840915 0.12591726 4.8406973 -0.8253808 -0.45869797

var_embedding.0.weight f4 [32, 9]
00000000: f981 5ec0 5d7f bcbf 39ea 45c0 b547 5cc0
00000010: b7df 0e40 cb70 6340 27cd fcbf 61b0 6240
00000020: 2ab4 0fc0 33db e2c0 4bf5 903c 805f 1d40
00000030: 5040 15c0 7921 6140 76c6 fe3f ccd3 8940
00000040: edeb 1540 c89e f63d 8517 8d40 feb7 57c0
00000050: 1e00 6e40 6af8 9ec0 11a1 03bf 120a d740
00000060: 38d1 b7bf a052 0f40 7bee 8b40 2b77 143f
00000070: 1526 99c0 5f90 02c1 d99a d8bf 4bc0 edbf
00000080: 2fd6 103e 06b0 2d40 ae2d 8f3f f036 f83f
00000090: e57b 13c1 a624 30bf 7ea1 cb3f 7188 0bbf
000000a0: 783c 7140 3529 80be bf35 123d 524a 0a40
000000b0: ad87 fc3d 5344 ea3f 4591 0040 5f46 17bf
000000c0: e7bc 3ebf a4c6 6ac0 bcbe c340 e221 3940
000000d0: 319e c3bf 694c d2bf 57dd 783f 7c2e 66bf
000000e0: 1779 df3f 3378 ba40 ae14 2b40 fd42 5fc0
000000f0: 9b70 9040 bc61 be3d d766 a93e a16a c4c1
00000100: 7cce 0240 fef1 03c0 138f 94c1 b632 06c1
00000110: 3cd2 2a41 9d3b 04c0 a920 01c0 f326 adbd
00000120: 2f10 c5c0 8920 f93f 60db 8740 f030 c240
00000130: 7aec 0f40 20ef 8540 1983 3c40 2cb0 dc3f
00000140: 2822 c93f 3276 30c0 e283 3940 b17b 1740
00000150: d8b8 c5c1 3d30 8b40 185d f7bf f505 3dbf
00000160: a5b3 9f3d 0b3c 943f af30 b340 5695 40c0
00000170: fa96 86c1 deb2 923f 12bc 873f a020 e7c0
00000180: 32cf 01bf 3bf6 0fc0 0a78 8940 db32 76c0
00000190: 0eb6 c33e 1555 afbf d27a acbf b5e8 95bf
000001a0: 9120 b1bf e1a7 1ec0 4f8c 10be 5894 23c0
000001b0: d16a 32bf 28b3 85bf e969 7cc1 b46e 8740
000001c0: 3aba abc0 ca64 e03f fa13 9cc0 1ff0 50c0
000001d0: 68dc 28c0 b04f 8cc0 97ad 29bc 4616 383d
000001e0: d8ed 44c0 7469 44be e319 d73e 0481 8abe
000001f0: 6fa6 57bc c02b 3d3e b8a2 c03d 80a0 1a3c
00000200: c4e6 93be 82e5 0d3e 0b20 73be 9a68 f0bd
00000210: bc0b e5bd 4830 4abd 80f3 6e3b 5a13 cc3c
00000220: 1ddc 483f 38e3 a040 6cba bb3f 4d92 aabe
00000230: 4586 17c0 4fad ccbf 36c0 92c0 7860 3b40
00000240: d419 0abe 5e01 7ebe 6afb 7540 7850 533f
00000250: 466a 8fbf 45a8 21c1 bcba 08bf 3473 78c0
00000260: 99e9 a4bf af05 0dc1 1edb e2be 4c0d 9c3d
00000270: 8f9e d9c0 6ba1 dcbd 8a32 27be 6fba aebd
00000280: ef27 a9be 3b3f ae3d c1ab 63c0 c0be f83f
00000290: 64a2 85c1 31c2 2c3f 97b7 9440 4def a640
000002a0: 9f4e 9840 b500 03c0 5827 b53f c1f0 39c0
000002b0: 0fe7 cc40 1510 90c0 8cdc 6bc0 89b9 5fbf
000002c0: 0b5d d43c 61f8 9040 6553 26bf 4cf6 3e3e
000002d0: e92e 8b3f 3652 96bf 4579 2e40 a503 bf40
000002e0: 35d1 e63d 8413 33c0 109a 43c0 040b 5c3e
000002f0: b03f ca40 2bbd 5e41 9c40 b53f 757e 6d40
00000300: 4cb2 f93e 7db8 4abe a1e0 c1bf d3a9 98c0
00000310: 9575 853f 3589 e93f fdd7 4ac0 c20a 63c0
00000320: d1c1 93be fb64 1dc1 a315 8a40 4c39 afbf
00000330: cdb4 4e40 874d 4f3e fff0 1840 4d13 9c40
00000340: 4866 c6c0 55c2 aac1 c69d 71bf 34b1 4b3d
00000350: 55e4 0f40 7fa7 6340 7598 85bf 88b8 f9be
00000360: 2905 5cc0 e5b7 96c0 b6dc 8140 2dcd 09c0
00000370: 89a9 5dc0 031f 2b3f 0514 fcbf 8355 0e40
00000380: 7a28 01bf bc62 50bf ab2d 7dc0 64d5 d8bf
00000390: 6516 2e40 5f9c 293f a6d5 09c0 1755 3fbf
000003a0: 10b2 503f 5035 3ebf c6d8 58c0 bb93 d9be
000003b0: f246 883f 1919 f140 da94 ffbf 4c45 4bbf
000003c0: e136 6fbf 42cc 043e b6f0 0840 85a5 ce40
000003d0: a079 2ec1 f10d d43f 9e0e ae40 3f94 2940
000003e0: 4a4a 8dc1 fefd 6e3f 4ef1 a7be 1c55 e33f
000003f0: 1810 8bc0 10aa 663f a9dc c9c0 525e cbbf
-3.476683 -1.4726368 -3.0924208 -3.4418766 2.2324045 3.5537593 -1.9750108 3.5420153
-2.2453713 -7.0892577 0.01769509 2.4589539 -2.3320503 3.517668 1.9904315 4.307104
2.3425248 0.12042004 4.409121 -3.370605 3.7187572 -4.967824 -0.5141764 6.7199793
-1.4360723 2.239418 4.3728614 0.57994336 -4.7858987 -8.160247 -1.6922256 -1.8574308
0.14144205 2.7138686 1.1185815 1.9391766 -9.217748 -0.6880592 1.5908659 -0.5450507
3.7693157 -0.25031438 0.035695788 2.1607862 0.123305656 1.8302101 2.0088665 -0.5909175
-0.7450699 -3.668374 6.117033 2.892693 -1.5282651 -1.6429569 0.9721274 -0.8991468
1.7458829 5.8271728 2.6731372 -3.4884636 4.513746 0.09295985 0.33086273 -24.552065
2.0438528 -2.061645 -18.56986 -8.387381 10.676327 -2.0661385 -2.0176184 -0.084546946
-6.1582255 1.9463054 4.245529 6.068474 2.2488084 4.18544 2.9455016 1.7241263
1.5713549 -2.757214 2.8986745 2.3669245 -24.715256 4.3496385 -1.9325285 -0.73837215
0.07797936 1.1580824 5.599693 -3.0091147 -16.823719 1.1460836 1.060427 -7.2227325
-0.5070678 -2.2494037 4.295903 -3.846854 0.38224834 -1.369784 -1.3474982 -1.1711642
-1.3838063 -2.4789965 -0.14116023 -2.5559292 -0.6969424 -1.0445299 -15.775857 4.2322636
-5.3664827 1.7530758 -4.8774385 -3.2646558 -2.6384525 -4.3847275 -0.010356328 0.044943117
-3.0770168 -0.19180852 0.42011937 -0.27051556 -0.013162239 0.1847372 0.09406036 0.00943768
-0.28886998 0.13857082 -0.23742692 -0.11738701 -0.11183879 -0.04936245 0.0036461055 0.024911571
0.78460866 5.0277367 1.4666266 -0.33314744 -2.3675702 -1.599039 -4.5859632 2.927763
-0.13486415 -0.24805209 3.84347 0.8254466 -1.1204307 -10.103581 -0.53409934 -3.8820314
-1.2883788 -8.813888 -0.44307798 0.07619724 -6.8006053 -0.107729755 -0.16327873 -0.08531653
-0.3303828 0.08508154 -3.557358 1.9433212 -16.704292 0.6748381 4.647411 5.2167115
4.7595973 -2.0469182 1.4152632 -2.9053195 6.4032054 -4.501963 -3.685336 -0.8739248
0.025923273 4.5303197 -0.64971 0.18648642 1.0873691 -1.1743839 2.7261517 5.969195
0.11270372 -2.7980661 -3.0562782 0.21488577 6.3202744 13.921184 1.4160342 3.7108433
0.48768842 -0.19796939 -1.5146676 -4.7707305 1.0426508 1.8244997 -3.1694329 -3.5475316
-0.28858808 -9.837153 4.315141 -1.3689361 3.2297852 0.20244418 2.3897092 4.877356
-6.1999855 -21.344889 -0.9438137 0.04972954 2.2483113 3.5570982 -1.0437151 -0.487736
-3.437815 -4.709948 4.0581923 -2.153148 -3.4634726 0.66844195 -1.969361 2.2239692
-0.5045239 -0.81400657 -3.9559124 -1.6940122 2.7201169 0.6625423 -2.153665 -0.7473921
0.815217 -0.743001 -3.3882308 -0.42495522 1.0646651 7.5343137 -1.9967301 -0.79402614
-0.93443114 0.12968543 2.1396918 6.457705 -10.904694 1.6566755 5.4392843 2.6496732
-17.661274 0.9335631 -0.32801288 1.7760348 -4.3457146 0.90103245 -6.308186 -1.5888159

var_embedding.0.bias f4 [32]
00000000: 0186 823e 0205 b1bf 43cd 0cc0 046a 453f
00000010: 8786 06bf 4365 803f 955b 59c0 2ec5 a13f
00000020: d46f f0bf 3ba1 70bf ad7b bc3f eb87 f03f
00000030: d01d ff3d a87c 3bbe ad30 61be aa29 cfbf
00000040: adcf 473f 925f 26bd 4cb1 48c0 68e8 fc3f
00000050: 46d6 2ac0 02ad 98bf 41c1 a2bf ba1f d03d
00000060: 677d a23f d933 62c0 26ed 9abf 4687 3cc0
00000070: c475 b13f 81a5 a13f d9af 4ebf 2707 c3be
0.25492862 -1.3829653 -2.2000282 0.7711489 -0.5254902 1.0030903 -3.3962147 1.26383
-1.8784127 -0.9399602 1.4725243 1.8791479 0.12456858 -0.18309271 -0.21991225 -1.618459
0.78051263 -0.040618487 -3.1358213 1.9758425 -2.6693282 -1.1927798 -1.2715226 0.10162301
1.269452 -3.5344145 -1.2103622 -2.9457564 1.3864064 1.2628633 -0.8073707 -0.38091394

join_features_NN.0.weight f4 [32, 64]
00000000: 76f8 9b3e 208f c5bc 16b6 82bf 4462 dcbf
00000010: f4d6 eb40 2088 2fc0 6341 70bf 8dee a03f
00000020: 2839 b43f 35a5 76bf 7f21 75c0 c06b 48c0
00000030: 83ad 59bf 9e24 9c3e 5f90 00c0 80ec 2dc0
00000040: 9028 8cbf e6ce 6140 673b d2bf 29cd 71bf
00000050: e201 2140 99a9 a3be f43c 49bf e0da e83e
00000060: 3c19 5b40 9341 ec3e f598 b3c0 37e6 273e
00000070: c342 1640 b209 5cc0 2ce9 26c0 3d7c e4be
00000080: 6a8b 9440 00b4 96bf 5a33 583f 4b01 b240
00000090: 5913 c1c0 16df 1940 f6e9 2dbf a865 1ac2
000000a0: e987 9b3f 4539 eec1 e909 f440 cd84 ac40
000000b0: c27f ad3f ea33 20be a0e8 dc3c c44d ffc0
000000c0: f407 c83f 22aa 143f a1f0 dbbf 669f 4ac2
000000d0: 0e9c dc40 f3a4 aebf d0dc b83f eb7c c83e
000000e0: 814c 403e f120 9ebf 96bd 9fc1 39c0 33c0
000000f0: a38f 4540 3a98 1241 2f8d c0bf 1c7e 9ec0
00000100: 18f7 2b40 7e9b a0bd f689 90bf e860 20bf
00000110: b2e2 54bf ec84 13c1 6b5b ab40 7add 0440
00000120: 35bb 26bf d9b6 38c0 2619 df3f 9d4c ea3f
00000130: b4f7 09c0 ff2c 9c3e 9257 17c0 b832 af3f
00000140: f9c7 c6c0 28c7 09c1 30a3 83c1 0463 2e40
00000150: 7c55 13c0 3a2e 9abe ee41 2f40 6364 15c1
00000160: 5d84 5b40 b614 9c40 8cf7 d5bf 8cfb 503f
00000170: f3cd 143f 8720 febf 8dae 89bf 6334 fe3f
00000180: 5541 b43f a8d7 c540 aa2e 47c1 e412 e13e
00000190: 7789 3a41 fb37 ba40 2d52 70bd 92e0 d9bf
000001a0: 4982 bc3f d095 a73f effc f9c0 5671 1441
000001b0: 1408 8740 6cc7 64be ce5e 063e f305 1dc0
000001c0: 62b8 5440 0d3b 483f a8b1 a9c0 d7d5 5340
000001d0: f199 3ec1 b071 c7bf e8b7 e0bf 9318 b140
000001e0: 50f2 c640 fde6 633d 7da5 0fc1 dc82 3cbf
000001f0: be34 0e41 b794 6c3f dda1 13c1 5e31 7740
00000200: 5234 4cbf 2141 42bd 082b 09be 63da ab3f
00000210: ae98 8c40 527c 3641 9f08 8a40 1368 f540
00000220: 8242 2241 5667 d740 b091 9f40 3b4c 783f
00000230: 0a8f d040 c25d ae40 e628 a740 8308 80bf
00000240: 56e8 ad3f 4d8b c940 7b96 5d40 23d3 a63f
00000250: 9811 cb40 20d1 213e 9f82 d93f e71b 0641
00000260: d02d 00c0 385f a33f 9e82 92bf 944f fa40
00000270: 2794 da3e f9df 9b3f 78d7 4d40 8994 8b40
00000280: 2d50 c6c0 36d3 cc3e 7e21 7c3f e55c 84bf
00000290: c786 03c0 2868 fac0 4556 e53f 7a82 cd40
000002a0: 970d cd40 8c5b 67c0 477f fc40 d743 55c1
000002b0: 5c2e a9c0 0147 e3be 7b5a 0abd ecbf 1341
000002c0: 060b 58c1 1c00 b1be fc15 3d41 beae c440
000002d0: 2ca4 0941 d554 7ec0 8026 b23f efb4 ccc0
000002e0: 291c 44c1 a10d 1e40 3eba ef40 22cf 3c40
000002f0: 3c49 3bc0 4865 4dbf de5b 93c0 c7c3 70c1
00000300: e2be 92bf 783d 8bbc 613a 03c0 18db 6a3d
00000310: 9668 91bf 8a70 8b40 208a 8440 cac4 d63f
00000320: 0256 7ac0 f84a ef3f 5886 db3f 6d6c afbe
00000330: 3473 353f 3abb 8dc0 f35b ebbf b9fd 56bd
00000340: 5c92 82c0 560d 65bf a469 6e40 30ee 0ec0
00000350: d74c 8bc0 d04f 843e 6293 823f f630 863e
00000360: f0d1 c63f 75bf ecbe 1b43 ddbf cbac ddbf
00000370: d4b1 98bf 900d b23d 69ad df3f 1db7 f43f
00000380: 7a1f 1ec1 da72 8bc1 2b14 7140 9f16 cf3f
00000390: 50b9 03c1 623c 3340 3232 d2be 6831 dcbf
000003a0: 1dbc 45c0 4c03 e73f 9c79 f83f 4969 54c0
000003b0: c431 8040 498f a93e 66a6 b6bd a5fe 9bbf
000003c0: 0b74 e83f 73cb e7be 0877 7b40 fe0d 4240
000003d0: 8439 9dbe 7a17 d340 6d3c 6bc0 ddb1 4340
000003e0: 4656 153f 83f9 5940 15b7 4ec0 9374 20c1
000003f0: f1bb e0c0 ed30 903f bf3e 2cbf ca37 aebe
0.30462998 -0.024116099 -1.0211818 -1.7217488 7.3699894 -2.7426834 -0.9384977 1.25728
1.4079943 -0.96345836 -3.8301694 -3.1315765 -0.8503038 0.30496687 -2.0088117 -2.7175598
-1.0949879 3.528253 -1.6424378 -0.94453675 2.51574 -0.3196533 -0.7860863 0.45479488
3.4234152 0.4614378 -5.6124215 0.16396414 2.3478248 -3.4380918 -2.6079817 -0.44626036
4.6420183 -1.1773682 0.84453356 5.562658 -6.033612 2.404241 -0.6793512 -38.599274
1.2150851 -29.777964 7.6262097 5.391211 1.3554614 -0.15644804 0.026966393 -7.978243
1.5627427 0.580721 -1.7182809 -50.655663 6.8940496 -1.3644089 1.4442387 0.39157805
0.18779184 -1.2353803 -19.967571 -2.8086073 3.086892 9.162165 -1.5043086 -4.952894
2.6869564 -0.07842158 -1.1292102 -0.6264787 -0.8315841 -9.219952 5.3549094 2.0760179
-0.65129405 -2.8861601 1.742955 1.830463 -2.1557436 0.3050308 -2.3647199 1.3687353
-6.2119107 -8.611122 -16.454681 2.7247934 -2.3020926 -0.30113393 2.738399 -9.337008
3.4299538 4.877528 -1.671617 0.8163383 0.58126754 -1.9853677 -1.0756394 1.9859737
1.4082438 6.182575 -12.448893 0.43959725 11.658561 5.8193336 -0.05867212 -1.7021658
1.472726 1.3092594 -7.8121257 9.27767 4.219736 -0.22341698 0.13122103 -2.453488
3.3237538 0.78215104 -5.3029366 3.3099267 -11.912583 -1.558157 -1.7556124 5.53425
6.217079 0.05564021 -8.977902 -0.73637176 8.8878765 0.9241442 -9.227017 3.8623881
-0.79767334 -0.047425393 -0.13395321 1.3426021 4.3936377 11.405352 4.3135524 7.6689544
10.141237 6.7313643 4.986534 0.9699132 6.517461 5.448945 5.2237425 -1.0002598
1.3586528 6.2982545 3.4623096 1.3033184 6.3458977 0.15802431 1.6992987 8.381812
-2.0027962 1.2763433 -1.1446111 7.822214 0.42691156 1.2177726 3.2162762 4.3618817
-6.197287 0.4000489 0.98488605 -1.0340849 -2.0551012 -7.8252144 1.7916952 6.4221773
6.407909 -3.6149626 7.890537 -13.329062 -5.286909 -0.4439011 -0.033777695 9.234356
-13.502691 -0.34570396 11.817867 6.146331 8.602581 -3.9739277 1.3917999 -6.3970866
-12.256875 2.4695818 7.4914846 2.9501424 -2.9263449 -0.8023267 -4.6049643 -15.047797
-1.1464503 -0.016997084 -2.0504382 0.05733785 -1.1360042 4.3574877 4.141861 1.6778805
-3.9114995 1.8694754 1.7150373 -0.3426241 0.7087891 -4.429105 -1.8387436 -0.052488063
-4.080366 -0.89473474 3.7251978 -2.2332878 -4.35313 0.25842142 1.0201228 0.2620923
1.5532818 -0.4623982 -1.7286104 -1.7318357 -1.1929269 0.08693993 1.7474796 1.9118382
-9.882685 -17.43108 3.766856 1.6178778 -8.232742 2.8005605 -0.4105392 -1.7202578
-3.0896065 1.8047881 1.9412112 -3.318926 4.006075 0.3311713 -0.08918457 -1.2187086
1.8160414 -0.45272407 3.92914 3.032104 -0.30707943 6.596616 -3.675563 3.057731
0.5833477 3.405854 -3.2299244 -10.0284605 -7.022942 1.1264931 -0.6728324 -0.3402694

join_features_NN.0.bias f4 [32]
00000000: 8c66 813f c8b4 db3f 301a 0840 c69e d5bf
00000010: 1163 19c0 df05 3440 8e2c ef3f 51c6 1cbf
00000020: a81c 8ebf 18df 03bf 86f3 8d40 ef4f b33e
00000030: 0791 2b40 7873 69c0 caed f6bf fd14 c9be
00000040: a460 893f 5c2b 683e 3b57 a0bf 4063 31c0
00000050: 49ba 5f3f 1faf 0fbe 26f6 7f40 76fa 2fbe
00000060: cd12 aec0 ed35 2bc0 4fb3 41bf 3d5b 0c40
00000070: dc3e 4f3e 4307 b13f 30f9 863f 8eb3 ac3f
1.010942 1.7164545 2.1265984 -1.6689079 -2.3966715 2.8128583 1.8685472 -0.61240107
-1.1102495 -0.5151229 4.435977 0.35021922 2.6807268 -3.6476727 -1.9291317 -0.39273825
1.0732617 0.2267279 -1.2526621 -2.7716827 0.87393624 -0.14031647 3.9993987 -0.17185387
-5.439795 -2.6751664 -0.7566423 2.1930687 0.20238823 1.3830341 1.0544796 1.3492296

join_features_NN.2.weight f4 [32, 32]
00000000: 2269 4540 b963 77c0 a53f 4ebe 2e51 6fbf
00000010: 4cba 243e e708 043f 5394 01bf eb8d 53bd
00000020: 0fab f440 643a fa3e 006f 4340 2b72 4fc0
00000030: b148 793f 8a1e 4fc0 8399 893f 6387 7c40
00000040: ef4f e83f e770 19c0 346a b9c0 8b75 a240
00000050: 647b 60bc f8f2 b3be 4776 9140 d056 0fbe
00000060: 99ec 3ebf e324 973e 2b74 11c0 28f3 5fc0
00000070: be13 2ec0 1ed5 26c1 734a ac40 67ef 6040
00000080: 1bc2 1ebe 2328 c1c0 3d18 78c0 c1df 523e
00000090: 7c23 e83f b868 013d 444e 46c0 7782 4cbe
000000a0: 0f67 98c0 1904 f43e 6004 f540 508b f240
000000b0: b518 0ac1 cc67 08c0 41d7 8d3f 2a1b 60c0
000000c0: d737 b6bf c418 0440 84cc 6f40 1427 d6bf
000000d0: 4e21 22c1 46de d540 dec5 c03f 14f9 03c1
000000e0: 23d1 c840 13a3 d2c0 0dbf be40 61a4 67c0
000000f0: 5519 37bf 26a6 953f 3a29 b03f 2fdb 1341
00000100: 3056 1dc0 2af4 1dbf 9877 49bf f415 a9bf
00000110: 29f8 90bf 5527 02c1 d790 3040 b1b5 8a3c
00000120: 52e9 0d40 5800 ecc0 10b5 ca3f d6fd ea3d
00000130: 6bf1 68bf 6a4c 68c0 5f5b 7ac0 61ca 9640
00000140: 475a dd40 5d62 90bf a585 fb40 7f15 c3bf
00000150: 13aa eec0 0d18 4140 5f95 f53f 9f66 c3c0
00000160: 4af2 e33f ffb5 c63f b126 33c1 33e4 fd3f
00000170: d6b1 5840 4f54 9940 83a1 9fbe 1385 21bf
00000180: 32a5 21c1 9914 35bf 2709 50c0 2604 8abf
00000190: 40ca febf aa23 c4bd ef8c ddbf a78e bfbd
000001a0: d46a b740 6a81 f83f ba75 6340 6377 6340
000001b0: c99e 9cc0 402a 8bc0 f310 5ac0 58f6 20c0
000001c0: 0775 ef3f c99a 0240 3cef 9f40 763a e340
000001d0: 0c66 d6c0 c9f5 aa40 ebed acc0 a992 e1bf
000001e0: 6992 fac0 c455 6740 9f62 26bf 2c70 2b40
000001f0: 3911 97c0 ac90 7bbe aa12 803f e03c b9c0
00000200: bb62 5fc1 6df3 0f40 a150 943f 8a7f 3940
00000210: f2c7 19c0 bf5e 87be 8838 9240 96bf d53d
00000220: 41c5 5540 c33f 19c0 5a82 ebbf 66d9 f440
00000230: 8175 7140 948c 9640 e0a2 22c0 6604 f440
00000240: 84af e140 4b03 e8bf 6ab1 173d 73a7 0341
00000250: b09f a3c0 9f2a df40 3f86 3940 2bec abc0
00000260: 959b f23d 9e4e 6cbe 906b 9340 fb10 ae3e
00000270: eef2 3240 c008 e9c0 f699 7ac0 b632 8ac0
00000280: b536 1f40 a47e 94c0 117a f4bf 70e3 2dc0
00000290: 7670 eac0 8064 9340 87aa a33e bf13 b23d
000002a0: 549b 0b41 ac8a 8b40 af74 ba40 bbb5 b240
000002b0: 910a babf 3c27 2c3f 2031 46c0 c8fb 1b3f
000002c0: e7ea a1c0 92c2 8bc0 c95c eb40 6822 5440
000002d0: d463 2540 dc81 fdbf f8a0 8d40 fd88 7cc0
000002e0: 998f 6cc1 2786 89c0 ce69 af3f c3ad 8540
000002f0: e1c3 55c0 5529 14c0 79ed b640 7915 c640
00000300: 18c1 edc0 aced a8c0 93e0 67bf 8084 c9bf
00000310: 867c cec0 8b8d c1c0 c285 1dc1 79cc c03c
00000320: 3795 54c0 6253 4fc1 e808 32c1 ac53 87c0
00000330: a2d5 b9bf 268a f03f e2d7 18c1 2f38 e9c0
00000340: b2cf 89bf acfa f7c0 f38b 57c0 5338 e9c0
00000350: 5f48 c440 fe9e 2c40 b7f8 9140 3267 b2bf
00000360: 3cc3 1341 488a 4040 541a a43f 01b1 83c0
00000370: e460 af3e 3e02 ce40 fb4d 1cbe 4fbc ac40
00000380: 6dad f7c0 8a01 79c0 57a2 18c1 446c 01c0
00000390: 9957 14c0 111b 3dbe 4143 5b40 eaef ffbd
000003a0: c029 77c0 5db3 05c1 2ff2 3540 f738 13bf
000003b0: 7744 15c0 32ea 8dc0 86f0 ecbf 86f9 b2c0
000003c0: 0583 f5bf 7648 47c1 2417 99c0 8fdb c640
000003d0: a2bc 58c1 82b7 f4c0 fc8f 86c0 f909 73c0
000003e0: b6b0 77c0 9357 e7c0 db4b 1cc0 ccef 1340
000003f0: 826a 55c0 88a8 b740 bafe 7fc1 f986 84be
3.0845418 -3.8654616 -0.20141466 -0.93483245 0.16086692 0.51576084 -0.5061695 -0.051649015
7.645881 0.48872674 3.05365 -3.2413433 0.97376543 -3.236239 1.0749973 3.9457633
1.8149394 -2.397516 -5.7942142 5.0768485 -0.013701294 -0.35146308 4.545688 -0.1399796
-0.7457977 0.2952033 -2.2727153 -3.499216 -2.719955 -10.427031 5.384088 3.514612
-0.15503733 -6.0361495 -3.8764794 0.20593168 1.8135829 0.03159401 -3.098527 -0.19971643
-4.7625804 0.47659376 7.656784 7.579506 -8.631032 -2.1313353 1.1081315 -3.501658
-1.4235791 2.0640116 3.7468576 -1.6730676 -10.133131 6.683383 1.5060384 -8.24831
6.2755294 -6.5824065 5.9608216 -3.619408 -0.7152303 1.169133 1.3762581 9.241012
-2.4583855 -0.6170069 -0.7869811 -1.3209825 -1.1325732 -8.134603 2.7588403 0.01693234
2.2173657 -7.375042 1.5836506 0.114741966 -0.90993375 -3.629664 -3.9118268 4.7122045
6.91727 -1.1280018 7.860064 -1.5240935 -7.458261 3.017093 1.918621 -6.106277
1.7808316 1.5524291 -11.196946 1.9835266 3.3858542 4.7915416 -0.3117791 -0.6309368
-10.102831 -0.70734555 -3.2505586 -1.0782516 -1.9905472 -0.09577115 -1.7308635 -0.09353381
5.7317905 1.9414494 3.5540605 3.5541618 -4.894383 -4.3489075 -3.4072845 -2.5150356
1.8707589 2.0406973 4.9979534 7.1008863 -6.699957 5.342503 -5.4040427 -1.7622882
-7.8303723 3.6146097 -0.64994234 2.6787214 -4.7208524 -0.24566907 1.0005696 -5.788681
-13.961604 2.2492325 1.1587106 2.8984094 -2.4028287 -0.26439473 4.569401 0.10436933
3.3401644 -2.3945167 -1.8399155 7.651538 3.7727969 4.7046604 -2.541191 7.625537
7.0526752 -1.8126005 0.03703443 8.228381 -5.113243 6.973953 2.8988187 -5.372579
0.11846081 -0.23076865 4.60688 0.3399733 2.7960773 -7.282318 -3.915647 -4.3186903
2.487714 -4.640459 -1.9099752 -2.7170067 -7.326228 4.606018 0.3196604 0.086951725
8.725422 4.3606777 5.8267436 5.584684 -1.4534475 0.67247367 -3.0967484 0.6093106
-5.0599246 -4.3675013 7.3550763 3.3146 2.584218 -1.9805255 4.4258995 -3.945861
-14.785058 -4.297626 1.3704164 4.177461 -3.3400805 -2.3150227 5.7164884 6.190121
-7.429821 -5.2790127 -0.9057705 -1.5743561 -6.4527006 -6.048528 -9.845156 0.023535
-3.3216074 -12.957857 -11.127174 -4.228964 -1.451832 1.879216 -9.552706 -7.2881083
-1.0766509 -7.7493496 -3.3679168 -7.2881255 6.1338344 2.697204 4.5616107 -1.3937743
9.235165 3.00844 1.2820535 -4.115357 0.3425361 6.4377737 -0.15264122 5.397987
-7.73992 -3.890719 -9.539634 -2.022233 -2.3178465 -0.18467356 3.4259799 -0.12496932
-3.8619232 -8.35629 2.8429067 -0.57508796 -2.3323038 -4.4348383 -1.8510902 -5.5929594
-1.9180609 -12.455191 -4.784075 6.2143016 -13.546053 -7.647401 -4.205076 -3.7974837
-3.8701606 -7.22944 -2.4421299 2.311511 -3.3346257 5.7393227 -15.999689 -0.25884226

join_features_NN.2.bias f4 [32]
00000000: dc71 ff40 444d 5d40 3e86 84c0 b35c 2dc1
00000010: f249 4c41 5ee3 ab3f df59 ddbf abc8 05c1
00000020: d138 7d40 9b9e 7c3f 699e 3bc1 7de1 8a40
00000030: a5dc c440 97dd eb3f 33d3 d53f b984 8abf
00000040: 29c7 863f e9bc ba40 5771 8140 9adb e040
00000050: a80e 773f 8897 64bf c944 3cc0 d4b3 e53f
00000060: 4d5c 4e40 bb8e 023f 091d 2340 1ff6 9dbf
00000070: 29e7 8a40 d8a4 7a40 61b6 203f 9c03 93c0
7.982649 3.457841 -4.141387 -10.835132 12.768053 1.3428762 -1.7293051 -8.361491
3.9565928 0.9867951 -11.726174 4.3400254 6.151934 1.8426999 1.6705078 -1.0821754
1.0529529 5.8355603 4.0450854 7.026807 0.9650674 -0.8929372 -2.9416983 1.7945504
3.2243836 0.5099904 2.5486472 -1.2340735 4.340718 3.9163113 0.6277829 -4.5941906

cons_representation_NN.0.weight f4 [32, 64]
00000000: 0f88 cd40 71ce 8dc0 1138 aa40 8bef 77c1
00000010: 679c b13e f472 b5c0 fad4 773e 1ccd d6c0
00000020: 71fe bd40 0647 ca3f 5c05 b240 3a4c 3240
00000030: a670 3d40 f31e 48bf a85e f03f 7472 08be
00000040: 2383 99bf ab61 873f 1d9e 49c0 2038 fb40
00000050: 8873 84c0 8aa1 3c3f 431f 4dc0 885d 36c0
00000060: 44fa d4bd bb0a 3540 62a7 0c3f 73e4 b7c0
00000070: 0b68 8740 9247 cd3f b948 e1be c08a 2bc0
00000080: 6b30 f7bd 5c89 d8bd 94ed 5d3c 53ac cf40
00000090: 2f0d 1f41 d3db 0341 30af 333d 98b7 fabc
000000a0: 1439 19bd d91e c1bc 493b 56bc 6285 94bd
000000b0: 08b1 debd f7a9 cd3f 3c66 a3bd d5f8 6440
000000c0: 5229 f6bd 8b34 2b41 aac3 0741 d473 90bc
000000d0: f4a8 883d 90f5 f23c 5600 d03d 5bf0 39bd
000000e0: 946d 2fbe 29ee b8bf 9495 35bd 8ff4 7640
000000f0: 0ad3 953f 448b 4a40 d143 a1bd 80fe beba
00000100: 7aed 06be 52e3 c63c 09c3 dabc 14c5 91bb
00000110: ed32 2bbe 84ea 72bd 1d7f 6dbb b015 68be
00000120: c01c 35bd 60d0 b2bd c2ea 66bd 3849 65bd
00000130: 8118 48be 4ebc bebd c571 febd f837 18bd
00000140: 97be 793c ef36 863b 2f83 07bd fd0b 11be
00000150: fd0f d9bd 44e8 05bd 96e8 06be 54e0 a8bd
00000160: 8e09 05bd 2af6 01be 15a9 10be 23cd bdbd
00000170: 6bf3 11bd 53ee 57be a90a 02be 2737 54be
00000180: c37b 41bd 26fa ee3d 2020 1c3c 5729 7cbe
00000190: c5e3 ddbc d3dd e7bd 1a30 80bd 3832 87bd
000001a0: 3bb6 273d 54e3 fbbd 7658 3b3b d37d 443d
000001b0: 12e7 a7bd 708e bfbc 5098 a5bd 722e 6bbd
000001c0: 0e5f 87bd 3470 8bbd b749 09be 72ab 263d
000001d0: 4a10 f8bd abc2 7ebb 1ea6 843d 0dee 69bd
000001e0: 5247 dfbd 1cff b6bd 9201 c5bd 4b10 2fbe
000001f0: 2625 883c 3aac c3bd b0c4 ed3d 5090 cabc
00000200: 41f5 ef3b 4a6f b23f 05bf f540 b7f0 a03f
00000210: 76a6 1b3f dae9 28c1 a8d9 0d40 374d bd40
00000220: 6f4f 0ec1 688a 45bd 6254 ab3f e25f 31c0
00000230: 8592 9bc0 e50b d2bc e482 d2c0 4bc4 5540
00000240: 0202 cdc0 b9ed 2ec0 3aa4 e33f ce94 ecc0
00000250: 4268 1040 7d39 f0bf cfcc 04c1 4e12 9c40
00000260: 8a00 87c0 1d1a eabf 83c1 3d40 a021 a040
00000270: 9eec 29c0 cc53 09c1 d86b b63f 9e80 6240
00000280: 6a79 473c 98fb f7bd 5ff9 a3bd 61ac 8240
00000290: c754 3141 4b2c d5bf 0200 d4bd ec75 22bd
000002a0: 2562 8e3d 6e8e aa3e fef9 393c cdf7 04be
000002b0: 4c2f 2fbe 98d1 5440 a1a5 a3bc 81b7 c740
000002c0: 6c19 223d 5548 28c0 9a86 7ac0 4877 dd40
000002d0: 63d5 e7bd bf85 3cbd 8039 c0ba 52dd 18bd
000002e0: 13be a3bd 8cd0 1141 28de 1a3d 3c70 c240
000002f0: 769c c4be 98fb 803f 8173 b3bb c4c7 523d
00000300: 618d b840 d316 bbc0 e9bf 4640 8093 f83f
00000310: 9c1e 81bf a7d1 bd40 9e3a 8fc0 1d27 24bf
00000320: fd66 5d40 e700 2b40 f716 a53f c876 48bf
00000330: cb4c 9340 8aea 49c1 9373 6cc1 1d09 55c0
00000340: 9043 0641 e682 1540 ca27 82c0 2cd5 c240
00000350: 0315 6ac0 ebe5 67c0 54f9 b4c0 4373 8340
00000360: 22db 3740 ecc6 34c1 c7a0 5dc0 187c 32bf
00000370: ca5c 5dbf dbe6 b040 52b5 0041 21f3 b1bf
00000380: f1f8 f7bd f814 a9bc e0a9 86bb 9f6b 56c0
00000390: 4986 1dc0 3b15 c5c0 a0f3 7cbc f4f0 f93d
000003a0: ecb2 64be 5925 20be 88f0 7dbd 1e41 e6bd
000003b0: 3b82 803d c468 1e3f 236e 533d 86e0 efbf
000003c0: e624 b63d a570 cec0 ca87 81c1 12ef 03bf
000003d0: 0275 4abd e230 b73d 6c1a efbd f9d6 993d
000003e0: 98a4 c0bd 2996 4c3e ebcb e0bd 8590 3040
000003f0: 68f7 9bbe 87cf 95c0 ae99 bfbd c4d0 943d
6.4228587 -4.4314504 5.319344 -15.495982 0.34689638 -5.6702824 0.24202338 -6.712538
5.9373097 1.5802925 5.563154 2.7859025 2.9600005 -0.78172225 1.8778887 -0.1332491
-1.1993145 1.0576681 -3.1502755 7.850601 -4.139103 0.7368399 -3.205033 -2.8494587
-0.10399297 2.82878 0.54942906 -5.746637 4.2314506 1.6037467 -0.44000795 -2.6803436
-0.12069782 -0.10573074 0.013545413 6.4897857 9.940719 8.241168 0.043868244 -0.030605122
-0.03740795 -0.02357428 -0.013075658 -0.07252003 -0.1087361 1.6067494 -0.07978484 3.5776875
-0.120196 10.700328 8.48527 -0.017633356 0.0667285 0.029658109 0.10156314 -0.045395236
-0.17131644 -1.4447681 -0.044332102 3.8586767 1.1705029 3.16475 -0.07874263 -0.0014571697
-0.13176528 0.024278317 -0.026704328 -0.0044485424 -0.16718645 -0.059305683 -0.0036239095 -0.22664523
-0.04421687 -0.087311506 -0.056376226 -0.05597803 -0.19540597 -0.0931326 -0.124240436 -0.03716275
0.015243194 0.004095904 -0.03308409 -0.1416473 -0.10598753 -0.03269221 -0.13174662 -0.08245912
-0.032479815 -0.1269156 -0.14127 -0.09267642 -0.035632532 -0.21087007 -0.12699379 -0.20724164
-0.04723717 0.11668806 0.009529144 -0.24625145 -0.027086148 -0.113216065 -0.06259175 -0.06601375
0.040945273 -0.12299219 0.0028586662 0.047971558 -0.0819837 -0.02338335 -0.08085692 -0.05741734
-0.06609927 -0.068085104 -0.13407026 0.040690847 -0.12112482 -0.0038873355 0.06476997 -0.05711179
-0.10902275 -0.08935377 -0.0961944 -0.17096059 0.016619276 -0.09554334 0.11609781 -0.024727017
0.0073229377 1.3940213 7.679568 1.257346 0.60800874 -10.557093 2.2164097 5.9156756
-8.894393 -0.048227698 1.3385127 -2.7714772 -4.8616357 -0.025640437 -6.578478 3.3401058
-6.406495 -2.7332594 1.7784493 -7.3931646 2.2563634 -1.8767544 -8.300002 4.8772345
-4.218816 -1.8289219 2.964936 5.0041046 -2.655067 -8.582958 1.4251661 3.5391002
0.012174943 -0.121085346 -0.08006548 4.0835423 11.083198 -1.6654142 -0.10351564 -0.03966324
0.06952313 0.3331179 0.011351107 -0.12985153 -0.17107886 3.3252926 -0.019976439 6.2411504
0.039575025 -2.6294148 -3.9144654 6.9208107 -0.11319997 -0.046025988 -0.0014665574 -0.037320442
-0.07995238 9.113415 0.03780952 6.0762005 -0.3840062 1.007678 -0.0054764156 0.051460043
5.767258 -5.846536 3.1054633 1.9420013 -1.0087466 5.9318423 -4.4759054 -0.6412218
3.459411 2.67193 1.2897633 -0.78306246 4.603124 -12.6197605 -14.778216 -3.3286812
8.391495 2.3361144 -4.067357 6.088522 -3.6575325 -3.623408 -5.6554356 4.10782
2.8727498 -11.298565 -3.462938 -0.697206 -0.8646971 5.5281806 8.044268 -1.3902322
-0.12108029 -0.020639881 -0.004109606 -3.3503187 -2.461321 -6.1588416 -0.015438944 0.12204161
-0.22333878 -0.15639247 -0.061996967 -0.11242889 0.062748395 0.6187861 0.051618706 -1.8740394
0.088937566 -6.4512506 -16.191303 -0.5153667 -0.049427994 0.089448705 -0.116749614 0.07511706
-0.09406394 0.19979157 -0.10976394 2.7588208 -0.30462193 -4.681583 -0.09355484 0.072663814

cons_representation_NN.0.bias f4 [32]
00000000: f38f c93f cbcf 8abe 93a5 d1c0 ecbf f8bf
00000010: 5f8c b4c0 5895 b9c0 2902 cec0 328d a2c1
00000020: b37d 9bbf 85c7 a440 cb92 35c0 fda4 ab40
00000030: 9c4c 2f3f 92b8 8fbe ebd6 adc0 9c96 bbbf
00000040: f599 6341 224b afc0 05b1 5840 ff88 c7bf
00000050: 1aa2 0ec1 476d aebe 5060 2d3f bba3 823f
00000060: 77fc cbc0 62d2 1bc0 c0c2 e7c0 a197 c13f
00000070: f367 45c1 8fb5 62c1 d03c e740 93a6 82c0
1.5747055 -0.27111658 -6.5514617 -1.943357 -5.642135 -5.7994804 -6.4377637 -20.318943
-1.2147735 5.1493554 -2.8370845 5.36389 0.6847627 -0.28070503 -5.432485 -1.4655337
14.225087 -5.4779215 3.3858044 -1.5588683 -8.914576 -0.34067747 0.67725086 1.0206217
-6.3745685 -2.4347157 -7.242523 1.5124398 -12.337878 -14.169326 7.2261734 -4.082834

vars_representation_NN.0.weight f4 [32, 64]
00000000: bb95 1ac0 4ea2 0d3e dd06 c1bf 83fc 84bf
00000010: f778 83bf 9c25 623d 5f79 213f 25b8 88bf
00000020: 646d 3d3f 9d81 06bf 2461 41bf c5de 5dbe
00000030: 3b3f 93bf e4cc e33e f8a7 21bf 79af d0be
00000040: ce75 133f 6035 03be 2930 b6bf 7910 ba3e
00000050: 88ac 1c3f 0575 1e3e cc77 a4bf 41ac e9be
00000060: 600c eebf 2805 c63e c26c 01bf 16f4 08c0
00000070: a815 f6be 8bf7 11bf f1af debf c3ee 1abf
00000080: 4cc4 6bbe 6652 efc0 8870 0dc1 7535 08c1
00000090: c7ea 39be f13e c53f b699 8b3d e22b 4140
000000a0: eac6 08bf 2334 8c40 555c 32c1 731c 8f3d
000000b0: e3d4 55be 3cc3 473e f091 86bd 4da4 f4c0
000000c0: 16fd f5bd 5f67 643e fcc4 58c0 245d f73f
000000d0: 1f9f 1fc1 ae40 f7c0 f287 8ac0 a476 723e
000000e0: dae1 ddbf 736b 1ebf 3802 72c0 986a 96c0
000000f0: d102 f83e 4ddd a3bf 083a eabd 6129 e0be
00000100: ef69 9dbf e2a3 1fbe 36a0 51bf a030 913e
00000110: 8959 9bbd 737b acbf 6ad7 13be 910d 40be
00000120: dd6d 0dc0 0104 d3be 6e39 99bf b205 9fbd
00000130: 5c2c 02c0 a06c e3bf a0d9 013c 3edd dcbe
00000140: 42af 2ebe 2976 b8be 34f5 b9be aca8 84be
00000150: 7b8f 37be c6b2 1e3e 21d7 adbf 96a7 db3b
00000160: ea02 54bc 9a09 46bf 3363 98bf e595 19c0
00000170: abb1 99bf b472 1abd 79b6 5ebe 98fe 96bf
00000180: 1fe0 453d 3310 ae3f 948b d0be 3617 66be
00000190: 3ac9 8abe e27a 94be bf93 a33b baa8 e3be
000001a0: eb08 2c3d 419b 16c0 1c57 27bf fc6a 63bd
000001b0: 1967 0d3d f178 963c a0de 63bd d230 0f3e
000001c0: 2781 19be f1fa 8dbd 20ce 62bf a6d1 58c0
000001d0: 3ab8 8c3c 0031 00c0 e335 94bf 8d3f acbc
000001e0: be32 55be ccc5 a5be d8de 03bf ab1d 3ac0
000001f0: 25d9 3f3e 96cb 20bf 9c86 243d cdd4 ef3c
00000200: 3969 b1bf 38f6 623d 76b8 1cbf a0e1 a6bc
00000210: 09c5 efbe 835d e6bf d78b 76bf 204b 57bf
00000220: c9df 8cbf 1003 5cbe 3b0c dcbe b52f 173f
00000230: e4aa 67bf 6d95 7dbe be48 8b3f eada 50bf
00000240: 293e 58be fab1 333e 1b41 ecbf 02e8 5a3e
00000250: b75e 253f c508 92bf 6b57 acbe 10dc 20be
00000260: 1f49 f7bd 7988 353f af9c d03e 664f 2dc0
00000270: 6572 043f af7e 5dbf 45fd 453e bbac 84bc
00000280: 27e3 46be f6a2 b3bf 3401 a0bf 31d6 363d
00000290: 47a2 053f 6843 113e 6893 0d3e 9525 8a40
000002a0: c552 c83f 9e96 4840 1fcd 6ebf ab36 9ebe
000002b0: b53f 203f 78b6 183f b6f4 fbbd 95e3 a63d
000002c0: f946 29bf df75 1fbf 7307 b03f 5781 e53f
000002d0: a8f7 eabf ecf6 2cbf af41 d33f 4e63 21bf
000002e0: 6c75 663d 7249 4fbf ccaa 15bf e032 e0be
000002f0: acc0 563e 494a 603f 704a 83bc 6d0d 983d
00000300: e080 03bf 4978 16bd 0627 cf3d 3b25 b7be
00000310: 54ce 36bf 46a1 a43c b305 2e3e 1ec6 a8bc
00000320: 0349 35be aa84 b33a 83ea 2ebf e2f6 93be
00000330: f156 aabe ae22 e33d 2db2 87bd 7f5a a9be
00000340: 2c4c 5bbd c350 a2bb ecb6 34bf 26bc 1ebf
00000350: 081f 343e 391f d8be 9de4 aabe 7db8 84be
00000360: c0ac 1bbd 29d1 b23d 4c25 233d c635 afbf
00000370: 9954 aabe 3cb8 09bf 17a2 d83b 15a8 a0bc
00000380: 21a9 d1bd 24cb 2cbd bf8c 093f 9a60 f13d
00000390: 6b67 103c b615 8a3d e0d2 f5bc f17d bc3f
000003a0: 7d5a e7bf 035f c33e 3ef5 ddbe 0862 5e3e
000003b0: 5ce0 69bf 2b7b 15bd 9c9b c33d 7d2e 6ebf
000003c0: b24a b2be ef00 c0bd 298a b4bc 3e26 48be
000003d0: 2a57 88bf d529 4fc0 2785 22be c9b7 263d
000003e0: 066c ffbe 3412 b9bd 5902 8bbe 866e 89bc
000003f0: e3f7 bfbe 118c 8cbf 2c73 5a3d c9f3 91bd
-2.4153888 0.13831446 -1.508022 -1.038956 -1.027129 0.05521165 0.6307582 -1.0681196
0.7399504 -0.52541524 -0.7553885 -0.21667011 -1.1503671 0.44492257 -0.63146925 -0.40758875
0.5760163 -0.1281333 -1.4233447 0.36340693 0.6120076 0.15474327 -1.2849059 -0.45639232
-1.8597527 0.3867581 -0.50556576 -2.1398978 -0.48063397 -0.57018346 -1.7397443 -0.6052057
-0.230241 -7.4788084 -8.839973 -8.513051 -0.18155967 1.5409833 0.068164274 3.0183034
-0.5342852 4.3813643 -11.147542 0.06987848 -0.20881991 0.1950807 -0.06570804 -7.6450562
-0.12011163 0.22305058 -3.387023 1.9325299 -9.976348 -7.7266455 -4.329095 0.2367807
-1.733455 -0.61882704 -3.7813854 -4.700512 0.4843965 -1.2801911 -0.1143685 -0.4378157
-1.2297953 -0.1558986 -0.8188509 0.2835741 -0.07585437 -1.3475174 -0.14437643 -0.18755175
-2.2098305 -0.41213992 -1.1970651 -0.07764758 -2.0339575 -1.7767525 0.007925421 -0.43137544
-0.17059043 -0.3602765 -0.36319888 -0.25909936 -0.17925827 0.15497884 -1.3581277 0.0067033274
-0.012940148 -0.773584 -1.1905273 -2.3997738 -1.2007345 -0.037707046 -0.21749295 -1.1796446
0.04830944 1.3598694 -0.4073149 -0.22469792 -0.2710665 -0.29000002 0.004991978 -0.44464666
0.042000692 -2.353226 -0.65367293 -0.05552195 0.03452215 0.018368216 -0.055632234 0.13983467
-0.14990674 -0.06932629 -0.8859577 -3.387796 0.01717769 -2.0029907 -1.1578945 -0.021026397
-0.20820138 -0.3237747 -0.5151191 -2.9080608 0.18735178 -0.6281065 0.040167436 0.029276276
-1.3860236 0.055410594 -0.61218965 -0.020371258 -0.46830013 -1.7997288 -0.9630713 -0.84099007
-1.1005794 -0.21485543 -0.4297808 0.5905717 -0.90495133 -0.24764033 1.0881574 -0.81584036
-0.21117462 0.17548361 -1.8457369 0.21377566 0.6459765 -1.1408926 -0.33660445 -0.15708947
-0.120744936 0.70911366 0.4074454 -2.707971 0.5173705 -0.8652143 0.19334896 -0.016195646
-0.19422589 -1.4034107 -1.2500367 0.044637863 0.5220074 0.1418587 0.13825762 4.3170877
1.5650259 3.134193 -0.9328174 -0.30901083 0.6259721 0.59653425 -0.12302534 0.081488766
-0.6612392 -0.6228923 1.3752273 1.7930096 -1.8356829 -0.6756427 1.650442 -0.6304215
0.056264326 -0.80971444 -0.5846374 -0.43788815 0.20971936 0.8761335 -0.016026706 0.07424436
-0.5136852 -0.036735807 0.10114865 -0.35770592 -0.7140858 0.020096432 0.16994362 -0.020602282
-0.17703633 0.0013696153 -0.68326586 -0.28899294 -0.33269456 0.11090599 -0.06625781 -0.33076856
-0.05353944 -0.004953475 -0.70591617 -0.6200584 0.17589962 -0.4221132 -0.33377543 -0.25922003
-0.038006544 0.087313004 0.03983049 -1.3688285 -0.33267668 -0.53796744 0.0066111195 -0.019611398
-0.10237337 -0.042185917 0.53730386 0.117860034 0.008813719 0.06742422 -0.03000778 1.4725934
-1.807449 0.38158426 -0.43351167 0.21717083 -0.9135797 -0.036494415 0.095511645 -0.93039685
-0.34822613 -0.09375178 -0.022038536 -0.19545838 -1.06516 -3.2369282 -0.15871106 0.040702615
-0.49887103 -0.09036675 -0.2715023 -0.016776334 -0.3749381 -1.0980245 0.053332493 -0.071265765

vars_representation_NN.0.bias f4 [32]
00000000: 2bd4 c9bf 2fe9 92bf 12dd ad3f 21fd abbe
00000010: 7abf a1bf fadd 32bf 55cf 17c0 14aa 45c0
00000020: 9a12 4fc0 c07e 27c0 a55e 05c0 9a83 41c0
00000030: a930 7dbf 26ee d3be c7ef 2040 b531 81be
00000040: aab4 1abf 6c23 74bf 86b9 f3be a3a8 debf
00000050: 871e 5dc0 c025 2abf 02c4 e83e 0312 c9c0
00000060: a8ef f2be d9c5 2abf f8ad 84c0 d046 0bbf
00000070: a789 66c0 2175 8ebf 8745 70c0 2dcc 90bf
-1.5767874 -1.1477412 1.358309 -0.3359156 -1.2636559 -0.6986996 -2.3720295 -3.0885057
-3.2355103 -2.6171112 -2.0839016 -3.0236573 -0.98902375 -0.4139263 2.5146348 -0.25233236
-0.6043192 -0.9536655 -0.4760248 -1.7395214 -3.4549882 -0.6646385 0.45462042 -6.2834487
-0.47448468 -0.6670814 -4.1462364 -0.54404926 -3.6021516 -1.1129495 -3.7542436 -1.131231

output_module.0.weight f4 [32, 32]
00000000: 820b e1bf b634 01bf a7b0 5abf 4f52 803d
00000010: d1a7 c9bf 363a e3bd 3981 08be babf 56bf
00000020: dc1c cebd acb6 08bf c362 4abd f483 83bf
00000030: bbbe bbbe c093 8fbc 2d94 1fbd 2ff8 cebf
00000040: 6cc0 cdbd 81e7 b2bf c0ab 103e ce2b 2ac0
00000050: 95c8 63be 572e 19bf 2468 5ebf d5be 3e3e
00000060: eb3c 7fbd 4fc3 693d 1bc2 32bf f37c c2bd
00000070: dde5 92bd fa42 3bbe 133b 58be 711c 523e
00000080: 7cac 41bf 594b 8dbe 351f 29bf e5b7 9d3e
00000090: 965d d0bf f25b 95bd 2481 ef3b 611c eabe
000000a0: 554e 5ebe 23a9 e0be 5b68 22bd c3fe 6bbd
000000b0: b1f6 19be 764b 7dbd 8d2e 10bb 30bf 42bd
000000c0: 0482 75be 525d 4bbf c3a5 eabd 2bd2 b2bf
000000d0: 60bf 81bf 7746 88be 9165 03c0 c462 09bf
000000e0: f801 dabd d7a5 b4bd bb15 2bbf 8bad 14be
000000f0: 8120 12be 7beb 6dbe c6a9 17bf a05e efbc
00000100: f011 32bf 6933 71be f09e 66bf e661 4dbd
00000110: 132b 7e3e da3c 13be c31b bbbf d861 5abf
00000120: 1bf9 abbf ba5e c0be ede4 0ebe 4096 563d
00000130: 2e3f e4bc 8a29 5e3c fae2 35be 1031 8cbe
00000140: 6d74 9dbf baef 46bf bcc9 603d d83c c1bf
00000150: 741d 1abe d975 62be 5add a6bd 15bf 843e
00000160: a999 59bc ae12 0f3d 0c5e 60bf 869b 9f3d
00000170: e224 b7bc 9414 1c3e 5b8a c0bf f941 29bc
00000180: 212c debe b077 1ebd 0404 52bd c5e7 d23b
00000190: e6d4 f13c 16a7 00bd d0d5 593d c35c 7dbf
000001a0: d259 41be 2e58 a8bc 65d1 32be a20a c7be
000001b0: caa9 7d3e 0b96 0ebd 4fff 80bd 2573 99be
000001c0: abdf 02bf c73f a03e aa6b f2bc 4fbf 3cbf
000001d0: 4053 5dbe 508c b7bc 7e14 68bf 9754 cebe
000001e0: 8723 113e 0167 1abc 141d 90bf e2ca 723d
000001f0: c1f4 b9bd 93e1 47be 2b13 d0be a9b5 61bc
00000200: 14f5 f4be 0566 833d 1c81 debe 9810 4cbe
00000210: 841f 9cbe 459e 85bd 7802 e6bd 135a 5cbe
00000220: 8b63 0ebf bf58 97bc 41a5 32bf 659c 1dbf
00000230: 4dd8 74bf 9bba cabd 5890 55bd 7068 60be
00000240: 1fe5 51be da18 e8be 829f 693d 6dcc bbbd
00000250: 85ca 92bc 5c0b 28be f101 ddbd 0bd5 a2be
00000260: d818 1abd b06c 86ba 80ab 97be d9ff 15bc
00000270: f75c e5bd b8c4 f3bb 2d4c febe 3f90 b13c
00000280: 6c68 99bf 0665 42bf 3e83 07bf 0b81 5dbe
00000290: f605 093f a538 783e 4670 05bf 56ac 42bf
000002a0: 397e c8be 01de 90bc 7a58 39bf 2457 e3be
000002b0: 7811 babf 6a4a 223b 1350 85be c96e c0be
000002c0: a0ce d7bf 753b 463e ca27 ca3c d2ce 61c0
000002d0: 8cfe 9f3d cb20 71bf 956c e9be 876d 5cbf
000002e0: 0e71 ce3d 8bf5 b63c 8953 35bf f53a 15bd
000002f0: 465a 18be cc6c 793f 565f bebf 6c6c e8bd
00000300: 723d d2be 5739 b9be 36f1 10bd 41cb debc
00000310: 9520 2cbf aa3d c6bd 1d5f cebe 6cda 34bf
00000320: 03fb 79bf a41d 4fbe 4655 7abf 1b63 f23d
00000330: 49ab abbf 9f8e 7d3e 50d8 0cbd 3c84 5bbf
00000340: 7636 21bf 370d 0abf 7ea0 01bd 05e7 8cbf
00000350: 7485 d7bc 5b3c 03bf 5668 b4bf 3bf6 0abf
00000360: 0919 b83d 6509 a5bc 3896 d3bf 9b60 0dbe
00000370: f348 80bd af4a 36bf d70f 1ebe a93f 833e
00000380: 337e 1bbf 8b88 3b3f c986 b7be 8421 3fbe
00000390: b222 a13e a372 9e3d 4ba9 4e3e fe1f 1bc1
000003a0: f8df 34bf 6be5 b3bf 8abf f8bd cb1a f23d
000003b0: 417b 48bf 64e6 a3bd 07a4 bfbf d4d7 dfbb
000003c0: 55be a6bf 442f 1abf 05bd d23e 4bf3 29c0
000003d0: ff9f 12be d6a9 6fbe f47d 79bf f247 f1bd
000003e0: 59e0 383e dcca 9abd f8a0 6fbf 6860 1f3e
000003f0: 3314 95be 7e39 ae3e f55e 71bf 0aba 5b3e
-1.7581637 -0.50471056 -0.854258 0.06265699 -1.5754339 -0.11095087 -0.13330545 -0.838863
-0.10064098 -0.53403735 -0.049410593 -1.0274644 -0.36668953 -0.017526507 -0.03895967 -1.616949
-0.10046467 -1.3976899 0.14128017 -2.6589236 -0.22244485 -0.59836334 -0.86877656 0.18627484
-0.062313955 0.057071026 -0.6982743 -0.094964884 -0.07172749 -0.18287268 -0.21116285 0.20518662
-0.75653815 -0.27596548 -0.66063243 0.30804363 -1.627856 -0.07292928 0.007309096 -0.45724776
-0.21709569 -0.4387904 -0.039650302 -0.057616007 -0.15035512 -0.061839543 -0.0022000403 -0.04754561
-0.23975378 -0.7943927 -0.11457398 -1.3970388 -1.0136528 -0.2661626 -2.0530741 -0.5366633
-0.10644907 -0.08820694 -0.66830033 -0.14519326 -0.14270212 -0.2323436 -0.5924343 -0.029219925
-0.6955862 -0.23554768 -0.9008627 -0.05014219 0.24821119 -0.14378682 -1.4617847 -0.8530555
-1.3435396 -0.3757227 -0.13954516 0.052389383 -0.027862158 0.013559708 -0.17762366 -0.27381182
-1.2301155 -0.77709544 0.05487989 -1.5096693 -0.15050298 -0.22115268 -0.08147688 0.25927034
-0.013281264 0.034929924 -0.87643504 0.077933356 -0.022356454 0.15242225 -1.5042223 -0.0103306705
-0.43393043 -0.03868836 -0.05127336 0.0064363205 0.029520463 -0.031409346 0.053182423 -0.9896967
-0.1888192 -0.02054986 -0.1746269 -0.388753 0.247718 -0.03481106 -0.06298696 -0.2997066
-0.5112254 0.31298658 -0.029592354 -0.73729414 -0.21613789 -0.022405773 -0.9065627 -0.40298912
0.14173709 -0.009423972 -1.1258874 0.059275515 -0.09079886 -0.19519643 -0.40639624 -0.013776221
-0.4784323 0.06415943 -0.43457878 -0.19928205 -0.30492795 -0.06524328 -0.112309396 -0.21518736
-0.5562064 -0.018474935 -0.6978341 -0.61566764 -0.9564255 -0.098988734 -0.05213961 -0.2191484
-0.20497559 -0.4533146 0.057036884 -0.091698505 -0.017918834 -0.16410583 -0.10791386 -0.31803164
-0.03762135 -0.001025578 -0.29623032 -0.009155237 -0.11199372 -0.007439222 -0.49667493 0.021675227
-1.1984992 -0.759354 -0.52934635 -0.21631257 0.5352472 0.24240358 -0.5212444 -0.76044214
-0.391588 -0.017683985 -0.7240063 -0.4440242 -1.4536581 0.0024763593 -0.26037654 -0.37584522
-1.6859932 0.19358619 0.024677176 -3.5282483 0.07812223 -0.94190663 -0.45590654 -0.86104625
0.10080157 0.02233388 -0.7083059 -0.03643318 -0.14878187 0.97431636 -1.4872844 -0.11348805
-0.41062504 -0.3617656 -0.035386287 -0.027196528 -0.67237216 -0.0967973 -0.4030694 -0.70645785
-0.9764864 -0.20226151 -0.97786367 0.11835309 -1.3411647 0.24761437 -0.03438598 -0.8574865
-0.62973726 -0.53926414 -0.031647198 -1.1008002 -0.026308753 -0.5126397 -1.4094341 -0.5428197
0.0898915 -0.020146081 -1.6530218 -0.13806383 -0.06263914 -0.7120771 -0.1543573 0.25634506
-0.6073944 0.73255223 -0.3584502 -0.18665129 0.31471783 0.07736709 0.20181768 -9.695311
-0.7065425 -1.4054388 -0.12145908 0.118215166 -0.7831307 -0.08002928 -1.4971932 -0.0068311486
-1.3026835 -0.6022837 0.41159835 -2.6554744 -0.14318846 -0.23404631 -0.97457814 -0.117813006
0.18054332 -0.075582236 -0.93604994 0.1556412 -0.29116973 0.34028238 -0.9428552 0.21457687

output_module.0.bias f4 [32]
00000000: 011d 7dbf bab8 d4bf e349 a9bf 8db5 cabf
00000010: e890 8dbf 6e86 d6bf 65e7 e1bf 1dbb 9540
00000020: 2d8b 41bf c30f 76bf e3c5 8a40 eb2d f3bf
00000030: 80ea 35bf f7a7 0140 1db6 8fbf 352d e9bf
00000040: 83e1 c1bf 2b83 87bf 3a36 12c0 38ea 3d41
00000050: 1afc eabf 168d 0dc0 ad9f 10c0 7001 ccbf
00000060: 59d2 d6be a180 7ebf 6407 2f40 a3a9 a4bf
00000070: b6ed 86bf 707e 92bf fec6 87bf f947 b1bf
-0.9887238 -1.6618874 -1.3225673 -1.5836655 -1.1059847 -1.6759775 -1.7648741 4.679091
-0.7560299 -0.961178 4.336656 -1.8998388 -0.71060944 2.0258768 -1.1227452 -1.8216921
-1.5146946 -1.0586904 -2.2845597 11.869682 -1.8358185 -2.2117362 -2.2597458 -1.5937939
-0.41957358 -0.9941502 2.734826 -1.2864269 -1.0541294 -1.1444836 -1.0607603 -1.3850089

output_module.2.weight f4 [32, 32]
00000000: bfff 2fbf 6a60 6c3d a83c 353b 1393 c6bc
00000010: 317e 12bd 79e8 f0bd 5865 1bbe a562 cdbe
00000020: eb31 343e d4dc 06be 1e07 40bd 0fad 593d
00000030: 1af6 953e ac22 34bf 183d 9ebe de99 96be
00000040: 11e1 2ebf 1587 13be b1d6 c23d 1fed 4fbf
00000050: 7fa3 babe bea2 8ebe 4e2d 1fbd 4c0f d1be
00000060: 0a36 11be c469 38bf 154f 05be b5af 453e
00000070: 8939 f0bd 71e9 15be 180d 97be 393d 053e
00000080: 390c a6be 2780 80bc 75db 39bd 34bd 4e3f
00000090: c43f b7bd 6e3f 163f 2b54 ee3e 8b9e 44bf
000000a0: 9d06 413d 60f4 20be ebd4 21be 6274 9e3f
000000b0: aba2 5bbe afb4 b3bf 8a5f bebf cafb 52bf
000000c0: 36fc f9be 4153 45bf 5231 b03d 1090 32bf
000000d0: f2a7 7ebf e3ee 42be 79db 943d c00f 12be
000000e0: 2475 8b3d 1cbf 85bf 3b7b 563e a3ec 073f
000000f0: 2ef8 133e 2825 f8be fd0d 17bf 7200 93bf
00000100: d27c ccbf 77fa 563e f9de 7c3d c452 17be
00000110: 3ffb 95be e912 993e 455d 9dbf be69 28bf
00000120: ccd1 d13e 1150 e7bd 9558 29bf 1fef 45be
00000130: d472 cd3a 84ff 81bf ae6c 3c3f fce8 21be
00000140: 0d63 fcbe aaa2 3abd ad5f 36be f59c fbbe
00000150: 9c6c 493f bd54 a4bf a320 49bd 50ba 053f
00000160: cab8 8b3f 80f9 63bf fb75 b3be 7b06 233f
00000170: bec8 a7be a951 593f 2b23 cebc 697e 9dbe
00000180: fe4c b6bf bf14 a43d f6bf 41bf c279 08bf
00000190: 18d1 eebd ca05 3abe 8087 80bf 1ff7 a2bd
000001a0: a141 24be e72f babc c37b 09c0 b942 9dbf
000001b0: ce42 b63d ad2a a7c0 1f0b 0abf 17f4 8fbf
000001c0: 21be 46bf 3220 13bf c5aa b33d fc7b 39c0
000001d0: 5f63 353d 9167 54bf c6ee f7be aaf5 5fbe
000001e0: c0d7 27bf c40b 19c0 a131 6ac0 d88d 2c3e
000001f0: 7f1b 023e ec4a 633f 47c3 873d bc40 97bd
00000200: 6181 ee3d 5247 c13c 14d8 71be f522 40be
00000210: dc8b 81be b0fa b1bd d54b 65bd ad86 29bf
00000220: b193 63be 74ad c6bd 21c9 6bbd 846c 823d
00000230: 7960 dfbe 6b08 37be f19f 11be aff7 713e
00000240: 02b7 5ebd 503e be3d 1cca bf3d bc00 86be
00000250: a275 35be 8d3d 36be f068 37be f8be 9cbd
00000260: 65da 743e 155f 49bd 817d 11bc c35b 1e3e
00000270: 6b72 71be c95b 10bc ef6c 343d 1ef3 57be
00000280: 200b 37bf adb5 af3d 8161 13be 1910 a2be
00000290: 734e afbc 87fe 80bf 6b32 5dbf 0087 40bf
000002a0: 65d1 713e 1abe 473e 39a2 cdbc c677 df3e
000002b0: 6446 963d 3396 b3be a3f8 06bf 2394 b93e
000002c0: 27f8 f5bf f005 28bf 04fb 00bf 4dce 54bf
000002d0: 1d58 f03d df6a e93b 75c7 833f 02af 1dbf
000002e0: 3785 7d3e fe61 503f d4c4 c7be 31a4 99be
000002f0: 98ed 573f 949d 50be 6c5f df3d d166 54bf
00000300: 9fdb 64bf 3a6d bebf e226 cabe b519 51bf
00000310: cf2b b8be 8e9d 3d3f 789b 88bf de66 11c0
00000320: 650e 4fbe c48c 2f3c 6e0c d9bf d149 26bf
00000330: 1d31 38bf b955 26c0 01c7 f63e b0a9 02bf
00000340: 4d83 d0be f408 2bbd 00f4 06be 2c7f 08bf
00000350: bf85 f3be 1325 20bf 69e0 bd3d a27f fcbf
00000360: ca54 4c3d 4bb6 4cc0 1473 77bf 8364 9fbe
00000370: 01db 52bf 8f70 23be 0917 debe b61a 6dbf
00000380: b962 253d 8bc5 efbf b10e b6be 04a6 193d
00000390: a16a de3c a3c8 35be 179e 6fbe d669 6dbf
000003a0: 996c 1bbe 3e76 df3d f701 f6bf 6db8 47bf
000003b0: f0cd de3c cda7 c8c0 93e3 16bf 69cd 81bf
000003c0: 355f e5bf 661b 0ebf bb4b 2dbe 4647 3ec0
000003d0: 02ce 5fbe e484 02be 7f13 0ebe 588d 223e
000003e0: 2055 873e 7018 d83e 86c5 80c0 6b2f e5be
000003f0: fa32 7ebf 9860 7ebe 1106 41be 7c8e 39bf
-0.6874961 0.057709135 0.0027654562 -0.024240052 -0.035764877 -0.11763091 -0.15175378 -0.40114322
0.17597167 -0.13170177 -0.046881787 0.053143557 0.29289323 -0.70365405 -0.30905986 -0.29414266
-0.68312174 -0.14406998 0.095136054 -0.81221193 -0.36452863 -0.27858537 -0.038861565 -0.40831983
-0.1418077 -0.72036386 -0.13018449 0.19305308 -0.11729724 -0.14639832 -0.29502177 0.13011636
-0.324312 -0.015686108 -0.045375306 0.8075745 -0.08947709 0.58690536 0.4654859 -0.7680442
0.047125448 -0.15718222 -0.15803878 1.2379267 -0.21448772 -1.4039515 -1.4872906 -0.8241545
-0.48825234 -0.7708016 0.08603157 -0.6975107 -0.99475014 -0.1903644 0.072684236 -0.1426382
0.06809452 -1.0448947 0.20945446 0.53095454 0.14450142 -0.48465848 -0.5900572 -1.1484511
-1.5975592 0.20993982 0.06173608 -0.14777666 -0.29293248 0.2989724 -1.2294089 -0.6578635
0.40980375 -0.11294568 -0.6615079 -0.19329499 0.001567448 -1.0156102 0.7360333 -0.15811533
-0.4929432 -0.045565285 -0.17809935 -0.49143186 0.7868135 -1.283836 -0.04910339 0.52237415
1.0915768 -0.8905258 -0.3505095 0.63681763 -0.32770342 0.8489023 -0.025163254 -0.30760506
-1.4242246 0.080117695 -0.75683534 -0.5331079 -0.11660975 -0.18166271 -1.0041351 -0.07957291
-0.1604066 -0.02272792 -2.1481788 -1.2285987 0.08899461 -5.2239594 -0.5392322 -1.1246365
-0.77633864 -0.57471 0.08772806 -2.8981924 0.04428422 -0.8297053 -0.48424357 -0.21871057
-0.65563583 -2.391343 -3.659279 0.16850984 0.12705801 0.88786197 0.06629043 -0.07385394
0.11645771 0.023593578 -0.23617584 -0.18763335 -0.25302017 -0.08690393 -0.055980522 -0.66221124
-0.22224309 -0.09701052 -0.05756486 0.06368354 -0.4362829 -0.17874305 -0.14221169 0.2362964
-0.05437375 0.09289229 0.09364721 -0.26172435 -0.17720655 -0.17796917 -0.17911124 -0.07653612
0.23911436 -0.049162943 -0.00888002 0.15464692 -0.23578803 -0.008810946 0.0440492 -0.21088836
-0.7150135 0.08579574 -0.14392664 -0.31652907 -0.021399712 -1.0077676 -0.86405057 -0.75205994
0.23615034 0.19506112 -0.025101768 0.43646067 0.07337645 -0.3507553 -0.5272314 0.36245832
-1.9216355 -0.6563406 -0.5038302 -0.8312729 0.11735556 0.0071233357 1.0295244 -0.61595166
0.24757849 0.81399524 -0.39017355 -0.3000808 0.84346914 -0.20372611 0.10906872 -0.82969385
-0.89397615 -1.4877083 -0.3948279 -0.8167985 -0.35970923 0.74068534 -1.0672445 -2.2719035
-0.20220335 0.0107147135 -1.6956918 -0.64956385 -0.7194994 -2.598982 0.48198703 -0.5104017
-0.40725175 -0.041756585 -0.13179016 -0.5331905 -0.47562978 -0.6255657 0.092713185 -1.972645
0.04988555 -3.1986263 -0.9665997 -0.31131372 -0.82365423 -0.15960906 -0.4337695 -0.9261888
0.040377352 -1.873216 -0.35558084 0.03751184 0.027150454 -0.17752318 -0.2340015 -0.9273962
-0.15178145 0.10911225 -1.921935 -0.78015786 0.027197808 -6.2704835 -0.58941 -1.0140811
-1.791968 -0.55510557 -0.1692342 -2.9731002 -0.2185593 -0.12746006 -0.13874625 0.15874231
0.26432133 0.42206144 -4.0241117 -0.4476274 -0.99296534 -0.24841535 -0.1884997 -0.7248304

output_module.2.bias f4 [32]
00000000: 9da1 b2bf d1d5 5dc0 d22c e6bf f686 a1bc
00000010: 4daa 6b40 744d 24c0 97b8 7abd de31 c7b6
00000020: 62d5 3ebf 2d45 9db6 b221 72b7 fbba 09c0
00000030: a214 12bb 7ceb 8bbf abbb 62bf bd8f 21bb
00000040: f9e1 41b9 5fa2 23bf b29d 9abb 6d33 91bf
00000050: f7ce 5ec0 039c f6be 078b abbf d9f5 4dbe
00000060: 5056 27b9 872c 84c0 a030 64bf 5c19 e1bf
00000070: 8358 99b5 5972 16bd 8379 0ac0 88f0 d7bf
-1.395557 -3.4661753 -1.7982428 -0.019717675 3.6822693 -2.5672274 -0.061211195 -5.9364675e-06
-0.74544346 -4.6870177e-06 -1.4432169e-05 -2.1520374 -0.002229013 -1.0931239 -0.8856761 -0.0024652325
-0.00018490096 -0.63919634 -0.004718506 -1.1343819 -3.4813821 -0.48165902 -1.3401803 -0.20113315
-0.00015958515 -4.1304355 -0.89136696 -1.7585864 -1.1425149e-06 -0.036730144 -2.1636665 -1.6870279
