code_RLSCG/save_models/Model_0.pt (torch, 43958 bytes, 16 tensors)

cons_embedding.0.weight f4 [32, 3]
-0.5676626 -0.6089593 -2.3574347 -3.0951731 -3.3707936 0.78977007 -0.011439145 0.44931045
-0.05694561 0.15277413 -0.1744828 -0.11348708 -6.1326747 -5.470767 2.4452481 -0.53673273
-0.22204182 0.13703568 -0.39140946 -0.25141457 0.20970349 1.9358612 -12.124228 2.9477766
-2.1181462 -1.6298746 3.3980935 -0.5355907 -0.36346388 -0.14616501 -0.3201572 0.45781526
-0.3200654 -0.2657733 -0.40336025 -0.54072374 -2.3088546 0.30105537 0.29288936 0.47584358
2.3397548 -6.1344147 0.09767882 -0.5390689 -0.4171738 -29.42884 -0.8209391 -1.4120941
-0.256052 -0.029047528 0.36015114 1.4625456 -2.391777 -5.524333 -0.49295142 -2.3844707
0.44575095 -0.44762284 -0.40015346 -0.29824966 2.6115696 5.50635 -0.51583385 2.0010753
-0.9150102 -8.564752 -0.29842788 -0.124436915 0.2951156 2.2314124 -5.0332003 -3.18397
-9.328075 3.100364 2.1525435 5.042764 -4.2888994 -1.7533628 0.053111892 -0.36119342
-0.53806394 1.42286 -1.8305769 -3.9249349 0.10806383 -0.09726043 -0.095009424 -0.26428604
0.2220236 -0.3419666 0.8468627 5.0176697 2.1143963 0.2158777 -0.5714239 -0.3745253
00000000: 5652 11bf c2e4 1bbf 36e0 16c0 5117 46c0
00000010: 15bb 57c0 5f2e 4a3f 406b 3bbc 050c e63e
00000020: cd3f 69bd d270 1c3e 9eab 32be ea6b e8bd
00000030: df3e c4c0 8610 afc0 f27e 1c40 5167 09bf
00000040: ee5e 63be 1553 0c3e d266 c8be 69b9 80be
00000050: 83bc 563e 4dca f73f d6fc 41c1 5fa8 3c40
00000060: b58f 07c0 bb9f d0bf 5d7a 5940 791c 09bf
00000070: f017 babe 48ac 15be a5eb a3be c366 ea3e
00000080: 9ddf a3be 7013 88be 3c85 cebe df6c 0abf
00000090: 46c4 13c0 ee23 9a3e 98f5 953e c5a1 f33e
000000a0: 8bbe 1540 204d c4c0 d50b c83d 6b00 0abf
000000b0: ce97 d5be 446e ebc1 1129 52bf 80bf b4bf
000000c0: 3f19 83be 15f5 edbc bb65 b83e b234 bb3f
000000d0: e012 19c0 56c7 b0c0 2164 fcbe 2b9b 18c0
000000e0: 7839 e43e d22e e5be eae0 ccbe 2eb4 98be
000000f0: f523 2740 0534 b040 b00d 04bf 9e11 0040
00000100: 1c3e 6abf 3909 09c1 8acb 98be c8d8 febd
00000110: 6419 973e 76cf 0e40 fa0f a1c0 2ac6 4bc0
00000120: cc3f 15c1 5d6c 4640 46c3 0940 535e a140
00000130: aa3e 89c0 316e e0bf db8b 593d 58ee b8be
00000140: 8fbe 09bf 4720 b63f 5850 eabf 2232 7bc0
00000150: 9250 dd3d 7a30 c7bd 4d94 c2bd 8050 87be
00000160: 285a 633e 3f16 afbe fecb 583f c090 a040
00000170: 4552 0740 0b0f 5d3e d648 12bf c8c1 bfbe

cons_embedding.0.bias f4 [32]
-0.013699565 -0.8134585 -0.45884618 -0.33244953 0.82376117 -0.14355631 -0.25173923 -1.5790064
0.2985528 -0.010377374 -0.48248336 -0.445343 -0.62832975 -0.3307328 -0.23644242 0.48899963
-0.3604396 -1.4798374 2.062439 -0.48686963 1.0963879 1.5249931 -0.29804212 0.66129655
0.55425686 -0.37057695 -0.2817058 -1.4381336 -0.5538226 -0.34219936 -2.3465269 -0.281235
00000000: 2474 60bc d13e 50bf e3ed eabe d336 aabe
00000010: 03e2 523f 6d00 13be f7e3 80be e21c cabf
00000020: eadb 983e dc05 2abc 0f08 f7be ff03 e4be
00000030: 38da 20bf cf55 a9be f61d 72be 295e fa3e
00000040: 8a8b b8be 506b bdbf 00ff 0340 fa46 f9be
00000050: 7056 8c3f f932 c33f fa98 98be bb4a 293f
00000060: c7e3 0d3f 43bc bdbe be3b 90be c314 b8bf
00000070: 51c7 0dbf c134 afbe 7f2d 16c0 09fe 8fbe

var_embedding.0.weight f4 [32, 9]
3.2515483 -1.4177696 -2.7745204 -6.948045 -10.025494 1.0945601 1.2668813 -1.1199248
4.1803083 -6.1338673 1.4860458 2.3407164 2.4527106 -14.992902 -0.5984245 -1.125579
3.6202135 -3.011617 0.12956655 -1.3399422 -16.191175 -8.061241 -2.8090665 -3.8271055
-0.8078648 5.4763556 -1.7625508 1.1226995 -1.9040097 2.446219 -27.623102 -8.617154
-2.9062603 -3.1905735 0.6981547 -1.4933548 0.14473608 -3.5914147 -4.983493 -32.032417
3.8665018 -0.42397958 -3.4390535 -6.9687715 3.5244324 2.0763242 -6.842247 8.231548
-2.037779 -35.83796 1.9579544 0.8425699 -0.077350184 2.9754925 -1.3816348 -2.4256914
6.012544 6.776384 -11.977115 -0.41644284 1.7591228 -3.8734787 1.6225969 0.55398613
-4.8887534 1.5526224 -18.219564 -10.489325 -3.0915544 3.221239 -3.9612439 -0.9094335
-1.2398266 -1.9006326 -11.363573 0.08613364 -11.955449 3.716427 0.48710108 -0.45640242
-3.4432225 0.04220867 -0.0024813414 -0.06589385 0.041822117 -0.07611489 -0.0023421447 0.042531013
-0.26073503 -0.17471048 1.8376842 -9.965354 2.5447252 1.8738067 11.591507 -3.9328825
-2.563283 -9.550023 -5.484481 -4.6059947 -0.5644582 -5.1453834 -1.5020834 -10.867848
-3.3170629 1.5639142 3.041688 -5.9758406 -0.6482104 -5.6298957 0.22213544 -5.500033
-10.2841835 2.0106406 -0.80552316 -3.8773017 -2.8736522 -0.7442474 0.0029908596 -0.64936405
-1.1268873 -0.39234844 -0.65078473 -0.45710975 0.1109832 -0.35928857 -3.449329 -0.9602503
-36.322865 -0.8030708 -1.6961781 1.5567695 -0.5828995 3.5034282 1.7101169 -6.046209
1.2681946 7.9939165 1.3997738 0.76202536 -0.80117226 -2.6912618 -6.2858977 0.28048953
-1.6920003 -1.3176081 5.116875 -14.264306 -5.9555993 0.013635967 -6.740321 1.1105558
-4.121642 2.0588136 0.48398042 4.871366 -0.56856304 -5.2719383 0.9424376 -2.2419548
2.5659802 -5.609204 -0.2489035 0.05549887 0.057679057 -0.0068761907 -0.074967384 -0.20547661
0.17282192 -0.3031868 0.07867991 -0.43978202 -3.7656572 5.0349646 -6.0401335 6.245804
-3.5132349 -3.1862168 4.037867 1.4622724 1.9297731 -3.4362965 -34.23025 0.6550473
-18.715223 -3.5282874 0.37239432 -2.2195115 1.4970862 -1.2108012 -0.3146642 -0.54059577
-2.7395756 -9.320324 -5.552303 -2.7969997 3.0256367 3.1324997 4.1920676 1.8713666
-5.241607 -7.1299467 -2.4714158 -2.6016529 1.2995034 0.288461 -0.40683517 0.2624219
-0.62492704 -11.935227 -17.047417 6.5896196 -3.7355316 -4.301576 -0.78002596 1.8510271
-5.0842476 4.60762 2.3589244 -1.5710653 7.093292 -6.79823 -6.6446357 2.036625
1.3355086 0.11864519 0.059207283 0.13069713 -0.11327585 0.16252379 -0.23282366 0.06415933
-0.22553062 -0.32884586 -10.7439 0.18085134 3.3408751 -2.4239612 3.55381 1.608633
2.6683023 2.2629778 -3.5281758 2.9390454 -5.6519585 -2.9619894 -0.2487195 -11.097782
2.443691 -1.2519218 3.2339659 -3.353758 0.040536735 -0.98507935 -0.8537541 0.753652
00000000: 5e19 5040 7979 b5bf be91 31c0 6256 dec0
00000010: 6c68 20c1 8c1a 8c3f 2b29 a23f b259 8fbf
00000020: 16c5 8540 a448 c4c0 c036 be3f 4cce 1540
00000030: 36f9 1c40 ede2 6fc1 5932 19bf f912 90bf
00000040: 94b1 6740 55be 40c0 18ad 043e 3a83 abbf
00000050: 8787 81c1 d8fa 00c1 bfc7 33c0 4cef 74c0
00000060: 3ad0 4ebf 4e3e af40 449b e1bf 9eb4 8f3f
00000070: 97b6 f3bf da8e 1c40 1dfc dcc1 dddf 09c1
00000080: 2b00 3ac0 5b32 4cc0 44ba 323f 4026 bfbf
00000090: b235 143e bdd9 65c0 c678 9fc0 3221 00c2
000000a0: c474 7740 da13 d9be 7419 5cc0 2d00 dfc0
000000b0: 4d90 6140 7fe2 0440 b0f3 dac0 6cb4 0341
000000c0: f96a 02c0 125a 0fc2 409e fa3f a9b2 573f
000000d0: c669 9ebd 786e 3e40 69d9 b0bf 873e 1bc0
000000e0: c366 c040 23d8 d840 43a2 3fc1 ff37 d5be
000000f0: f02a e13f 13e7 77c0 41b1 cf3f 09d2 0d3f
00000100: ab70 9cc0 55bc c63f abc1 91c1 46d4 27c1
00000110: 07dc 45c0 c828 4e40 0585 7dc0 a2d0 68bf
00000120: a3b2 9ebf ee47 f3bf 32d1 35c1 d566 b03d
00000130: 8549 3fc1 f1d9 6d40 5065 f93e 94ad e9be
00000140: c25d 5cc0 00e3 2c3d 009e 22bb 5bf3 86bd
00000150: ab4d 2b3d 20e2 9bbd ab7e 19bb 0035 2e3d
00000160: 107f 85be 4ee7 32be 3c39 eb3f 1772 1fc1
00000170: c7dc 2240 e6d8 ef3f d076 3941 59b4 7bc0
00000180: d40c 24c0 e5cc 18c1 de80 afc0 4f64 93c0
00000190: 5580 10bf fba6 a4c0 4544 c0bf b5e2 2dc1
000001a0: c24a 54c0 572e c83f 04ab 4240 163a bfc0
000001b0: 1ef1 25bf 1b28 b4c0 7977 633e 4500 b0c0
000001c0: 048c 24c1 56ae 0040 c436 4ebf b625 78c0
000001d0: ebe9 37c0 ff86 3ebf 4c02 443b b93c 26bf
000001e0: d83d 90bf e5e1 c8be d499 26bf 4a0a eabe
000001f0: 294b e33d acf4 b7be cec1 5cc0 f7d2 75bf
00000200: 9d4a 11c2 0c96 4dbf 5d1c d9bf 3944 c73f
00000210: e738 15bf 2b38 6040 1ce5 da3f 8b7a c1c0
00000220: 3354 a23f 2ace ff40 ca2b b33f 1814 433f
00000230: a019 4dbf a23d 2cc0 1326 c9c0 539c 8f3e
00000240: 7793 d8bf 62a7 a8bf 71bd a340 993a 64c1
00000250: 4594 bec0 6469 5f3c b6b0 d7c0 b126 8e3f
00000260: 7ee4 83c0 9ac3 0340 48cc f73e 3be2 9b40
00000270: 598d 11bf b8b3 a8c0 9743 713f 307c 0fc0
00000280: 0539 2440 997e b3c0 8fe0 7ebe c852 633d
00000290: e040 6c3d ab51 e1bb 8088 99bd 7668 52be
000002a0: 3bf8 303e 4d3b 9bbe ef22 a13d 1c2b e1be
000002b0: 8700 71c0 6e1e a140 c648 c1c0 a0dd c740
000002c0: d7d8 60c0 faea 4bc0 3536 8140 be2b bb3f
000002d0: ce02 f73f 48ec 5bc0 c7eb 08c2 2eb1 273f
000002e0: c7b8 95c1 76cf 61c0 78aa be3e 7a0c 0ec0
000002f0: 85a0 bf3f 89fb 9abf ab1b a1be 7c64 0abf
00000300: 3555 2fc0 0c20 15c1 77ac b1c0 0b02 33c0
00000310: 08a4 4140 e07a 4840 6b25 8640 f188 ef3f
00000320: 3fbb a7c0 8628 e4c0 ad2b 1ec0 7b81 26c0
00000330: 2156 a63f 29b1 933e b34c d0be 2a5c 863e
00000340: 38fb 1fbf b1f6 3ec1 1c61 88c1 2ade d240
00000350: f312 6fc0 83a6 89c0 c8af 47bf 75ee ec3f
00000360: 28b2 a2c0 9f71 9340 9ef8 1640 ab18 c9bf
00000370: 40fc e240 1a8b d9c0 dba0 d4c0 1058 0240
00000380: f2f1 aa3f 40fc f23d 5683 723d 78d5 053e
00000390: 2bfd e7bd a36c 263e 5369 6ebe f865 833d
000003a0: 80f1 66be 7c5e a8be 04e7 2bc1 1831 393e
000003b0: e6d0 5540 2e22 1bc0 9f71 6340 b0e7 cd3f
000003c0: 77c5 2a40 a1d4 1040 a2cd 61c0 5219 3c40
000003d0: d8dc b4c0 3c91 3dc0 53b0 7ebe 8490 31c1
000003e0: 6f65 1c40 f93e a0bf 4cf9 4e40 f9a3 56c0
000003f0: d909 263d 292e 7cbf a18f 5abf 56ef 403f

var_embedding.0.bias f4 [32]
-4.404456 1.8592665 -0.9870481 0.95136994 2.0891392 -1.7287834 -1.4577662 -0.23472318
0.31746444 -0.3046462 1.9912757 3.96945 -1.3732318 -0.11170518 -0.6939064 -0.08503812
1.0694367 -3.4066963 -0.27985558 -1.6464965 -0.782086 -1.4203119 -2.121222 1.6169604
-1.2214746 -0.33501256 0.74208313 -2.2886217 -0.80289894 -0.9600913 0.7780254 -0.2811565
00000000: 4ef1 8cc0 72fc ed3f 2faf 7cbf fb8c 733f
00000010: 75b4 0540 c648 ddbf 1598 babf 465b 70be
00000020: b38a a23e 96fa 9bbe 1fe2 fe3f 780b 7e40
00000030: 0fc6 afbf afc5 e4bd daa3 31bf 7728 aebd
00000040: 4de3 883f 5007 5ac0 3b49 8fbe 66c0 d2bf
00000050: ca36 48bf c8cc b5bf 1ac2 07c0 8ff8 ce3f
00000060: 4859 9cbf c486 abbe 29f9 3d3f c778 12c0
00000070: c98a 4dbf 8bc8 75bf ac2c 473f bff3 8fbe

join_features_NN.0.weight f4 [32, 64]
3.801758 1.3267635 -1.3412038 -0.03181215 1.5534816 -2.963301 1.0641145 -1.6967673
-4.9026127 1.173436 -1.008873 -0.459084 -1.485193 0.6035393 0.3251382 1.2636609
-1.2444274 -0.124048546 0.029579531 -0.095060915 -1.2132971 -2.0328143 0.48667204 -3.889924
-3.703016 1.23125 2.8018053 0.082508385 0.4583822 1.4491451 -5.3339996 -1.9907088
0.07546192 0.6706602 -3.304976 -1.4007407 -0.87998337 -6.1043696 -6.8309827 3.2896495
-7.856069 -0.03864725 1.3298572 -2.2550666 -3.0272257 -0.24125467 0.8260885 -15.071836
7.026636 2.2361617 0.061885975 -1.084427 -7.336613 1.7155865 -1.5192426 -2.6495805
-1.6799928 -0.06736879 -13.172389 -2.2779255 -0.7917343 -0.5545186 1.1373307 -0.6438693
-1.5493363 -1.0250728 -1.6973984 -0.0019179515 -0.5167928 -1.5634376 1.0478424 2.8970828
-1.6781076 -0.7065382 0.22712263 -1.9651116 -1.1382583 -9.83718 0.0138272075 -4.480851
-1.1061926 -1.2551966 -0.9015432 0.12208377 -4.724268 2.0323133 1.5516046 -3.0286417
-3.4118629 -0.019516746 -1.0609075 -2.9392698 -2.3286862 0.6964675 -4.20032 4.055556
-7.2152586 -1.889758 -9.332366 -1.1445358 -1.2481292 -0.43738303 -8.458462 -4.2946415
-3.6130788 -0.079086244 -4.674379 0.8757293 -0.2951582 -1.2031701 0.13530327 3.2988696
-7.663421 2.8254933 -0.0409239 -10.162316 -6.8402977 -5.5013413 -14.365789 -8.933653
-9.258896 0.06282596 0.053686194 -5.84358 -0.4648488 -6.3171983 1.684076 0.76977116
3.19215 -1.8362979 4.174948 0.019453963 0.03179402 5.5235248 2.8454366 0.15973929
-1.7019033 -1.7780589 1.3606813 -0.0049559404 -0.8623757 0.85943145 2.0798876 -1.0415229
1.5775652 -1.3663999 0.28660366 0.08556052 -2.0571191 -2.9079115 -2.9280665 -1.5343025
0.43111697 1.2971236 -2.7616637 2.260925 2.5300155 -1.4638965 -4.2943 1.327295
2.3127296 1.3976324 0.9179545 -6.638476 -2.479577 0.38626316 -3.7208307 2.4516494
-5.235276 0.017697483 -0.8304871 1.1178579 4.2778087 1.0178046 -10.684439 -0.59762734
-2.548378 1.4542899 0.09661032 -1.3351315 1.9290706 -1.8926461 2.016887 -4.0817246
-2.3250616 0.011609152 -0.7021443 -1.0849853 0.075041406 2.437857 -6.5551734 -0.45868737
-6.7711744 0.32257104 -0.31626496 -0.004208994 -4.612449 2.7460208 -0.11781268 -0.82681066
-0.0848353 0.04968595 0.10961083 -3.0718117 0.52293175 -6.767663 -0.90474385 -0.33064416
1.2100439 2.2458189 -1.3743263 0.11834339 -2.926974 -3.1610804 -0.8485176 -2.2630727
-0.51844746 -2.3944383 3.7684014 -2.3134468 -0.32925186 2.832831 0.79662746 -1.6577371
-0.86269444 -4.680815 -4.299309 0.46803787 -0.4374632 -0.8986174 2.1254928 -9.877952
-9.534644 -0.08322652 -0.01902209 5.146624 -7.292417 -0.13477501 1.2167107 -4.799385
3.366503 -1.101735 -0.01493437 -0.7120116 -5.2674146 2.4495025 -3.7012413 0.7816229
-2.3813584 -0.09268141 -1.5924059 -1.4129763 -2.1462624 2.4324107 -0.43520364 0.5303443
00000000: 0150 7340 63d3 a93f 91ac abbf 754d 02bd
00000010: 7cd8 c63f b9a6 3dc0 e734 883f ac2f d9bf
00000020: 34e2 9cc0 2733 963f c022 81bf 0f0d ebbe
00000030: ce1a bebf 8d81 1a3f 8478 a63e a4bf a13f
00000040: 6649 9fbf 2a0d febd c650 f23c 4caf c2bd
00000050: 524d 9bbf a119 02c0 142d f93e 84f4 78c0
00000060: 37fe 6cc0 9a99 9d3f c750 3340 28fa a83d
00000070: 12b1 ea3e 967d b93f 20b0 aac0 8ccf febf
00000080: c78b 9a3d 63b0 2b3f ba84 53c0 794b b3bf
00000090: 9746 61bf ff56 c3c0 6997 dac0 9e89 5240
000000a0: eb64 fbc0 944c 1ebd c338 aa3f 0353 10c0
000000b0: 11be 41c0 770b 77be 897a 533f 3e26 71c1
000000c0: 34da e040 461d 0f40 267c 7d3d 81ce 8abf
000000d0: 89c5 eac0 5798 db3f 8b76 c2bf ba92 29c0
000000e0: 010a d7bf a6f8 89bd 1bc2 52c1 88c9 11c0
000000f0: 19af 4abf eef4 0dbf 0d94 913f 9ed4 24bf
00000100: a750 c6bf 9635 83bf 5a44 d9bf c663 fbba
00000110: 884c 04bf b91e c8bf b31f 863f ce69 3940
00000120: 3bcc d6bf b0df 34bf d692 683e c788 fbbf
00000130: 73b2 91bf 1765 1dc1 838b 623c 2263 8fc0
00000140: b897 8dbf 48aa a0bf 89cb 66bf 0e07 fa3d
00000150: 342d 97c0 6c11 0240 fb9a c63f 44d5 41c0
00000160: f65b 5ac0 95e1 9fbc d1cb 87bf ff1c 3cc0
00000170: 3209 15c0 b24b 323f 0569 86c0 1dc7 8140
00000180: 66e3 e6c0 97e3 f1bf 5f51 15c1 2680 92bf
00000190: b3c2 9fbf abf0 dfbe dc55 07c1 b46d 89c0
000001a0: af3c 67c0 f8f7 a1bd 8394 95c0 cc2f 603f
000001b0: fa1e 97be 7a01 9abf f18c 0a3e ae20 5340
000001c0: bf3a f5c0 e2d4 3440 d29f 27bd d998 22c1
000001d0: b8e3 dac0 fd0a b0c0 46da 65c1 3ef0 0ec1
000001e0: 7024 14c1 e6aa 803d 0ee6 5b3d 9bfe bac0
000001f0: a900 eebe 7d26 cac0 cd8f d73f b90f 453f
00000200: 304c 4c40 cf0b ebbf 2d99 8540 eb5d 9f3c
00000210: 723a 023d b7c0 b040 a21b 3640 b292 233e
00000220: f8d7 d9bf 6f97 e3bf ce2a ae3f 7165 a2bb
00000230: a7c4 5cbf b303 5c3f e11c 0540 9f50 85bf
00000240: a8ed c93f 31e6 aebf b7bd 923e 5b3a af3d
00000250: d7a7 03c0 391b 3ac0 7165 3bc0 0664 c4bf
00000260: 5dbb dc3e 2508 a63f 19bf 30c0 ffb2 1040
00000270: c6eb 2140 f660 bbbf e86a 89c0 cde4 a93f
00000280: c303 1440 9ee5 b23f 11ff 6a3f 656e d4c0
00000290: 64b1 1ec0 49c4 c53e 1722 6ec0 d3e7 1c40
000002a0: 6287 a7c0 50fa 903c cd9a 54bf f815 8f3f
000002b0: cfe3 8840 6c47 823f 76f3 2ac1 1bfe 18bf
000002c0: a018 23c0 2c26 ba3f a2db c53d 97e5 aabf
000002d0: c9eb f63f 3a42 f2bf ad14 0140 7d9d 82c0
000002e0: cfcd 14c0 5034 3e3c bbbf 33bf cce0 8abf
000002f0: 4faf 993d d905 1c40 fbc3 d1c0 12d9 eabe
00000300: 76ad d8c0 0828 a53e 7bed a1be 9aeb 89bb
00000310: 2f99 93c0 cebe 2f40 c647 f1bd dda9 53bf
00000320: 21be adbd 7f83 4b3d a57b e03d 9098 44c0
00000330: dbde 053f b290 d8c0 4b9d 67bf 314a a9be
00000340: b8e2 9a3f 7fbb 0f40 ede9 afbf 055e f23d
00000350: 8b53 3bc0 244f 4ac0 7338 59bf 2fd6 10c0
00000360: f9b8 04bf 7a3e 19c0 7d2d 7140 830f 14c0
00000370: b393 a8be 1a4d 3540 c7ef 4b3f bb30 d4bf
00000380: 8bd9 5cbf 3dc9 95c0 f093 89c0 a9a2 ef3e
00000390: 2dfb dfbe ca0b 66bf 1308 0840 170c 1ec1
000003a0: e78d 18c1 aa72 aabd 37d4 9bbc 25b1 a440
000003b0: 7b5b e9c0 7602 0abe 2dbd 9b3f 9094 99c0
000003c0: c974 5740 a705 8dbf 4aaf 74bc 6446 36bf
000003d0: a98e a8c0 a6c4 1c40 23e1 6cc0 7018 483f
000003e0: 2d68 18c0 c0cf bdbd f5d3 cbbf 68dc b4bf
000003f0: 5d5c 09c0 9eac 1b40 03d3 debe a5c4 073f

join_features_NN.0.bias f4 [32]
-4.157274 -2.2923622 0.63300526 -4.428997 -0.24324527 -8.842156 2.4656377 -7.365686
-4.6644435 -8.12003 -8.842435 -1.5218526 -5.104193 -5.024088 -6.4775267 -4.868838
1.3488438 -0.5129216 -4.4539294 -7.259366 -1.7830973 -1.1416662 -3.8961585 -0.48169443
-2.1171126 -1.9446808 0.3278384 -5.0792212 -4.5362964 -4.824849 1.3057333 -0.45004117
00000000: 6308 85c0 10b6 12c0 a20c 223f 58ba 8dc0
00000010: 4a15 79be 7979 0dc1 02cd 1d40 b3b3 ebc0
00000020: 1f43 95c0 a5eb 01c1 9d7a 0dc1 11cc c2bf
00000030: 8d55 a3c0 54c5 a0c0 e647 cfc0 85cd 9bc0
00000040: eaa6 ac3f d44e 03bf 9786 8ec0 ba4c e8c0
00000050: 883c e4bf 1e22 92bf a95a 79c0 a7a0 f6be
00000060: c67e 07c0 4deb f8bf 6fda a73e fb88 a2c0
00000070: 5729 91c0 2a65 9ac0 4522 a73f cc6b e6be

join_features_NN.2.weight f4 [32, 32]
0.8292267 2.3570366 -1.7448498 0.5914415 0.044391688 1.4458266 -0.26061386 -0.17861708
-3.6090107 -0.54617697 1.1510723 -5.7961354 -1.389459 -0.90336746 -0.921172 1.5122392
-2.6650174 3.422253 -4.8775253 1.9036003 0.18216817 0.28796163 2.6763973 -0.56664085
2.90235 -0.78527206 1.4635712 -1.931541 -1.392434 -4.1901484 0.6233524 0.043739267
-0.20118366 -1.0408677 -1.9957436 -5.0577006 -0.06336413 1.415199 -0.037116956 -5.0415363
-1.4780087 -7.587495 -1.4487448 -2.5019553 0.7270576 -1.3095475 -2.9281664 -1.6634384
-0.22887409 -5.228409 -4.23911 0.15830815 -8.248751 -0.036242407 2.6066377 -0.89745605
-5.185981 0.5447263 -4.6045628 -3.4001386 -0.034447305 -2.0994852 2.6947553 0.0085416
-2.238229 3.9735684 -0.111390546 -1.2806929 0.20115593 -1.2364565 -0.72617275 0.6753198
3.6184187 -2.5298364 -0.6134374 -5.292564 -1.0608742 -1.2100999 -1.7437248 -2.8945003
-6.4775934 4.008221 0.63205117 -1.2884603 -5.167158 -1.1433086 -4.393252 -0.91435325
-0.6650028 -5.5669184 2.2276826 0.63030094 -2.3517263 -5.492093 0.47851562 0.08773291
-5.481205 -1.5074184 -4.970877 -6.344754 -0.14575922 -2.4603548 -4.441276 -3.6579707
-1.4705751 -3.178753 -2.5148013 -0.29621974 -5.001864 -0.62253964 -6.5222187 2.5519583
-9.429401 2.674281 0.23635492 1.298979 0.1935247 -1.8313856 -4.798781 -0.9218285
-0.42753786 3.1617794 1.6321883 -12.542972 0.18205008 -0.6476176 -5.122246 -0.023399264
-0.24706614 -0.73179805 -1.839278 -3.248145 -0.18300115 -0.31308606 -5.9860473 -3.6792095
-5.522488 2.3187628 -0.16131002 -2.9291751 1.0512664 2.42596 -3.693824 0.93978614
-1.702766 -2.6782105 1.3425698 0.76741976 1.7688997 -1.0345721 -7.888051 -10.878959
5.111187 1.6736665 -5.186594 -2.9864564 -0.62397605 -2.3258321 -0.7909435 0.048279636
0.40715998 5.1240735 0.25757125 -2.3708584 -0.22510388 -1.0122694 -0.886832 1.0452833
-0.9491701 1.1727717 -2.3328993 -0.4639755 2.5431163 -1.7321109 -2.7613962 -0.8920223
-0.11594184 -2.1545079 -5.6429644 -8.912006 -0.45226935 0.25455722 1.2174038 -3.922341
-2.1355622 1.2611089 0.076742165 -4.742171 -4.7149563 0.61023057 -2.7095146 -0.10112519
-0.9105261 -3.5552988 -3.9836137 0.41932184 0.108891785 -6.0331135 -2.8651066 1.2615682
-1.5326227 -5.566587 -2.9083524 -0.018130397 -0.74697965 -0.34556982 -0.20936468 -2.0534844
-3.4853766 1.6800944 0.86272746 -2.4320161 0.64442325 -2.7472165 -1.5460973 -1.4993476
-0.4696386 -0.8615973 -6.055337 -3.2805977 -2.1579216 -5.3745956 1.1692888 -0.022136852
-1.1146413 -2.9174795 -0.35837063 -2.8552163 -0.05876702 0.30730143 -0.9417248 -4.7289796
0.19691432 -0.5757874 1.9326934 -1.9671285 -2.8006046 -2.3296 0.53739595 -2.2727282
-1.0722693 0.34654513 -1.3036449 1.061912 1.6467557 -2.858045 -3.3319848 0.7575464
-3.2799988 0.5777574 -4.088517 1.1941619 1.8945656 0.029786944 0.9519929 -0.017435772
00000000: 3348 543f b0d9 1640 3d57 dfbf b668 173f
00000010: 0fd4 353d d910 b93f 2e6f 85be 65e7 36be
00000020: 08fa 66c0 41d2 0bbf 5656 933f f179 b9c0
00000030: cbd9 b1bf 1743 67bf eed1 6bbf 0e91 c13f
00000040: a58f 2ac0 3106 5b40 b014 9cc0 2da9 f33f
00000050: 4b8a 3a3e b56f 933e 184a 2b40 600f 11bf
00000060: 1ac0 3940 9707 49bf 4d56 bb3f bc3c f7bf
00000070: 473b b2bf b215 86c0 0694 1f3f f227 333d
00000080: 1703 4ebe 273b 85bf 8774 ffbf afd8 a1c0
00000090: 0ec5 81bd 3e25 b53f f307 18bd 4454 a1c0
000000a0: 642f bdbf c2cc f2c0 7870 b9bf 0920 20c0
000000b0: 7220 3a3f 419f a7bf 1467 3bc0 8deb d4bf
000000c0: f85d 6abe 204f a7c0 caa6 87c0 881b 223e
000000d0: e2fa 03c1 eb72 14bd 27d3 2640 aebf 65bf
000000e0: 8ef3 a5c0 2f73 0b3f 9458 93c0 df9b 59c0
000000f0: 9e18 0dbd f75d 06c0 df76 2c40 11f2 0b3c
00000100: 253f 0fc0 f24e 7e40 ba20 e4bd bfed a3bf
00000110: d2fb 4d3e 3544 9ebf 75e6 39bf c2e1 2c3f
00000120: 2c94 6740 d7e8 21c0 3c0a 1dbf af5c a9c0
00000130: baca 87bf 8ee4 9abf 6032 dfbf 7e3f 39c0
00000140: 7248 cfc0 5943 8040 1bce 213f 44ec a4bf
00000150: 5c59 a5c0 f057 92bf 8595 8cc0 0e13 6abf
00000160: a03d 2abf 3224 b2c0 5a92 0e40 675b 213f
00000170: af82 16c0 3abf afc0 0000 f53e 50ad b33d
00000180: 0866 afc0 16f3 c0bf 6d11 9fc0 3a08 cbc0
00000190: e841 15be 7476 1dc0 ef1e 8ec0 311c 6ac0
000001a0: ce3b bcbf b070 4bc0 81f2 20c0 1daa 97be
000001b0: 450f a0c0 c25e 1fbf 04b6 d0c0 4953 2340
000001c0: d4de 16c1 6b27 2b40 0607 723e f244 a63f
000001d0: 572b 463e d86a eabf 9d8f 99c0 f4fc 6bbf
000001e0: 3ee6 dabe 985a 4a40 8ceb d03f 03b0 48c1
000001f0: 566b 3a3e 44ca 25bf 70e9 a3c0 d0af bfbc
00000200: e8fe 7cbe 1e57 3bbf 766d ebbf 9ce1 4fc0
00000210: a764 3bbe d14c a0be b38d bfc0 2b78 6bc0
00000220: 39b8 b0c0 9c66 1440 742e 25be 9b77 3bc0
00000230: e68f 863f ee42 1b40 9d67 6cc0 d395 703f
00000240: 3cf4 d9bf cd67 2bc0 54d9 ab3f 9f75 443f
00000250: 4e6b e23f dc6c 84bf ea6a fcc0 3710 2ec1
00000260: d88e a340 b43a d63f 94f8 a5c0 1a22 3fc0
00000270: e5bc 1fbf 6fda 14c0 467b 4abf dec0 453d
00000280: 4677 d03e 69f8 a340 61e0 833e 25bc 17c0
00000290: a281 66be 0b92 81bf 6c07 63bf d8cb 853f
000002a0: d0fc 72bf 621d 963f 394e 15c0 328e edbe
000002b0: 6bc2 2240 cfb5 ddbf b7ba 30c0 935b 64bf
000002c0: ea72 edbd 75e3 09c0 2a93 b4c0 9497 0ec1
000002d0: d98f e7be 5355 823e e3d3 9b3f a307 7bc0
000002e0: 0dad 08c0 046c a13f ff2a 9d3d ddbf 97c0
000002f0: ece0 96c0 1238 1c3f b068 2dc0 b91a cfbd
00000300: 3d18 69bf 048a 63c0 87f3 7ec0 5ab1 d63e
00000310: a802 df3d 440f c1c0 e85d 37c0 117b a13f
00000320: fb2c c4bf 7b21 b2c0 7222 3ac0 3386 94bc
00000330: 0f3a 3fbf 87ee b0be b263 56be 4a6c 03c0
00000340: 6910 5fc0 550d d73f b5db 5c3f 27a6 1bc0
00000350: ecf8 243f 65d2 2fc0 84e6 c5bf 9fea bfbf
00000360: 7874 f0be a491 5cbf 52c5 c1c0 50f5 51c0
00000370: 631b 0ac0 b0fc abc0 41ab 953f 5858 b5bc
00000380: 91ac 8ebf fcb7 3ac0 5b7c b7be ddbb 36c0
00000390: b0b5 70bd 9d56 9d3e e014 71bf cd53 97c0
000003a0: e8a3 493e ce66 13bf 7f62 f73f deca fbbf
000003b0: 1b3d 33c0 2b18 15c0 c892 093f 6174 11c0
000003c0: 1f40 89bf 5d6e b13e d6dd a6bf bbec 873f
000003d0: e4c8 d23f 36ea 36c0 3d3f 55c0 90ee 413f
000003e0: 80eb 51c0 e9e7 133f 22d5 82c0 4cda 983f
000003f0: 2081 f23f c003 f43c cfb5 733f 77d5 8ebc

join_features_NN.2.bias f4 [32]
-12.650947 -8.817133 -3.5528994 -3.2504277 -9.549517 -2.0547874 -1.9196801 -8.774858
-6.6676216 -10.166996 -7.2884774 -11.871683 -11.184621 -8.864103 -5.3179026 -11.555632
-6.01881 -0.30693245 -4.136964 -9.165734 -12.746634 -10.463088 -10.391705 -4.8589673
-7.3363085 -4.9449544 -1.9436537 -14.893277 -1.7701207 -12.630641 -11.151008 -12.052237
00000000: 476a 4ac1 fa12 0dc1 b462 63c0 0207 50c0
00000010: d2ca 18c1 a381 03c0 14b8 f5bf d265 0cc1
00000020: 285d d5c0 04ac 22c1 353b e9c0 6af2 3dc1
00000030: 35f4 32c1 5ed3 0dc1 422c aac0 dee3 38c1
00000040: 179a c0c0 4026 9dbe 0262 84c0 d9a6 12c1
00000050: 36f2 4bc1 cf68 27c1 6c44 26c1 a97c 9bc0
00000060: 0ac3 eac0 113d 9ec0 a5c9 f8bf dd4a 6ec1
00000070: 5193 e2bf 1b17 4ac1 876a 32c1 f6d5 40c1

cons_representation_NN.0.weight f4 [32, 64]
-2.0469084 -0.8137469 -1.358685 0.7237123 0.37092462 0.19227599 0.86388016 -0.14605415
-0.46300206 0.5457409 -2.0839846 0.5060504 0.66626656 -0.66433305 -1.166163 -3.5459738
-1.3096961 0.2898828 -0.2945633 -2.106074 0.9250351 -1.9605572 -1.4078292 0.8661901
-1.0437055 0.10304176 1.5597879 -0.20471089 -0.2081463 -0.15019262 0.9707924 0.06481367
-0.13562535 1.3689439 0.07909757 0.118324205 1.446515 0.002917922 -0.005027756 -1.1466935
0.21885274 -0.087311506 -0.045122653 -0.05597803 1.0496581 -0.25678855 0.02047798 1.6865656
0.091931686 0.6296809 2.0846334 -0.06818037 -0.6490814 -4.0926147 -0.11262504 0.15840267
-0.23546545 -1.5449861 -0.07630284 -1.1534716 0.10600962 -0.08522853 -5.8768487 -0.058001295
-0.18192299 -0.02535835 -0.013516855 -0.112517126 0.012502648 -0.10813362 -0.8433471 0.021953903
0.048355762 -0.24173243 -0.029395437 -0.13779551 -0.24056935 -0.21114667 -0.15759818 -0.047128595
-0.2033911 -0.41866237 -0.14592637 -0.02270335 -0.6563334 -0.1501625 -0.23663759 -0.18018632
-0.2688901 -0.08329291 -0.2737048 -0.22686835 -0.43612742 -0.029997187 -0.11318105 -0.32221532
-0.16046844 -0.50805676 -0.028239116 -0.06275213 -0.4760833 -0.047372345 0.050851613 -0.065240175
-0.37470224 0.013302356 -0.040825304 -0.10588436 -0.17658435 -0.070512064 -0.105066046 0.077015676
-0.0080314055 -0.2655942 -0.7106892 -0.11513081 -0.20962794 -0.09249407 -0.1003681 -0.4724242
-0.3709055 -0.23401313 0.08102277 -0.112306565 -0.09691271 0.093255624 -0.1310475 0.119721115
2.1955328 -0.009017724 -2.1231124 0.83061093 -0.37999037 0.5110366 -4.3823876 1.3399564
-0.737599 -2.1140418 -0.59843713 1.7975181 1.9251468 0.03648542 -0.92646265 0.1186657
-0.8136387 -5.651568 0.7882931 0.6625597 -0.06334619 0.5069697 -0.7648106 -1.2453083
0.2141326 -3.1292038 -3.256865 -1.038499 0.24473532 -1.2068245 0.28184542 0.68076134
-4.667631 -2.4708765 0.05342938 -0.080031425 -0.22343439 0.011472378 0.085754365 -1.7628194
0.89621526 0.071449205 0.11084087 0.026630536 -0.523724 -6.6884966 0.02510202 -4.9244814
-0.04345505 -2.386957 0.62342227 0.046624392 -5.2032743 0.19638912 0.12977459 -0.72621375
-6.3473387 -3.7409656 -0.07169992 -3.1914606 -0.106775105 -0.0987587 1.8893669 0.0058310926
-0.12233056 -0.09988859 -0.004109606 -0.12462753 -0.19062254 -0.04468817 -0.2225885 0.05851558
-0.23203409 -0.17830876 -0.0064941198 -0.16018875 -0.06013968 0.0139210215 0.015585732 -0.09492574
-0.03343671 -0.02424773 -0.105400935 -0.10694863 -0.07421657 -0.05202479 -0.14164932 -0.016718656
-0.079059586 0.0048048305 -0.16515288 -0.13782097 -0.22388023 0.004951631 -0.19881807 -0.022620145
-0.073042594 -0.1444317 -0.027803019 -0.03954041 -0.284655 -0.139346 0.11525391 -0.061704583
-0.33293563 -0.11630061 0.009497674 -0.124079704 -0.11185761 -0.015790226 -0.07199611 -0.09555916
-0.03987378 -0.15529566 -0.36335608 0.06209743 -0.19337314 0.021883743 -0.005533821 0.036515683
-0.24529615 -0.073119015 -0.12450391 -0.2062194 0.07496096 0.0042482466 -0.29248646 -0.026220575
00000000: 8c00 03c0 b851 50bf 64e9 adbf 3645 393f
00000010: d5e9 bd3e ffe3 443e 4027 5d3f 388f 15be
00000020: 9b0e edbe adb5 0b3f 0160 05c0 858c 013f
00000030: 7290 2a3f bb11 2abf d444 95bf 3cf1 62c0
00000040: 1fa4 a7bf 856b 943e 00d1 96be ebc9 06c0
00000050: 1acf 6c3f 8af3 fabf bf33 b4bf a2be 5d3f
00000060: 2498 85bf 8f07 d33d 21a7 c73f bb9f 51be
00000070: 4e24 55be 18cc 19be da85 783f 08bd 843d
00000080: 5fe1 0abe 8e39 af3f e8fd a13d f653 f23d
00000090: 6727 b93f 9c3a 3f3b e0bf a4bb dac6 92bf
000000a0: ef1a 603e 60d0 b2bd 88d2 38bd 3849 65bd
000000b0: 325b 863f ca79 83be 70c1 a73c 62e1 d73f
000000c0: ae46 bc3d c432 213f a26a 0540 26a2 8bbd
000000d0: 332a 26bf b3f6 82c0 f5a7 e6bd 4f34 223e
000000e0: db1d 71be 1bc2 c5bf aa44 9cbd f5a4 93bf
000000f0: 921b d93d 4c8c aebd 250f bcc0 c492 6dbd
00000100: 054a 3abe 50bc cfbc cd75 5dbc 616f e6bd
00000110: e8d7 4c3c 2975 ddbd 98e5 57bf acd8 b33c
00000120: b110 463d b588 77be b3ce f0bc 441a 0dbe
00000130: d057 76be d536 58be 6b61 21be ea09 41bd
00000140: c245 50be ea5a d6be b96d 15be 60fc b9bc
00000150: 7705 28bf 33c4 19be 2051 72be c382 38be
00000160: f7ab 89be 7995 aabd 0923 8cbe 2d50 68be
00000170: 184c dfbe a9bc f5bc 77cb e7bd 68f9 a4be
00000180: d751 24be 0210 02bf b855 e7bc 3084 80bd
00000190: 31c1 f3be 8109 42bd c849 503d a49c 85bd
000001a0: f9d8 bfbe 20f2 593c 6f38 27bd e6d9 d8bd
000001b0: 87d2 34be a168 90bd de2c d7bd 65ba 9d3d
000001c0: 2896 03bc f7fb 87be baef 35bf b4c9 ebbd
000001d0: b5a8 56be 886d bdbd ca8d cdbd 96e1 f1be
000001e0: 53e7 bdbe 23a1 6fbe 44ef a53d fc00 e6bd
000001f0: 2c7a c6bd cefc be3d 5131 06be 5830 f53d
00000200: 9c83 0c40 13bf 13bc 13e1 07c0 eba2 543f
00000210: 198e c2be 4bd3 023f 853c 8cc0 b183 ab3f
00000220: 4ad3 3cbf 764c 07c0 2d33 19bf 1315 e63f
00000230: 366b f63f bc71 153d a82c 6dbf 0107 f33d
00000240: a04a 50bf a5d9 b4c0 94cd 493f 839d 293f
00000250: a6bb 81bd c4c8 013f a1ca 43bf 4366 9fbf
00000260: 9445 5b3e e044 48c0 7a70 50c0 89ed 84bf
00000270: e59b 7a3e 3a79 9abf 0b4e 903e 6046 2e3f
00000280: 3c5d 95c0 d722 1ec0 c4d8 5a3d 84e7 a3bd
00000290: fccb 64be a4f6 3b3c fc9f af3d 11a4 e1bf
000002a0: 5d6e 653f f653 923d 8a00 e33d 4828 da3c
000002b0: c712 06bf 2a08 d6c0 c0a2 cd3c 5a95 9dc0
000002c0: ecfd 31bd e7c3 18c0 9a98 1f3f 38f9 3e3d
000002d0: 3981 a6c0 3b1a 493e a1e3 043e 25e9 39bf
000002e0: 661d cbc0 fb6b 6fc0 68d7 92bd e440 4cc0
000002f0: e8ac dabd 0042 cabd c6d6 f13f c012 bf3b
00000300: 7288 fabd 6492 ccbd e0a9 86bb b83c ffbd
00000310: 8e32 43be f10a 37bd 3dee 63be 08ae 6f3d
00000320: 589a 6dbe 9296 36be a0cc d4bb 8508 24be
00000330: 0655 76bd ff14 643c 4c5b 7f3c 6d68 c2bd
00000340: eef4 08bd 2da3 c6bc 72dc d7bd e207 dbbd
00000350: dbfe 97bd f217 55bd 850c 11be 90f5 88bc
00000360: fee9 a1bd d771 9d3b d61d 29be f120 0dbe
00000370: dc40 65be 4b41 a23b f796 4bbe e24d b9bc
00000380: 5b97 95bd e7e5 13be 28c3 e3bc 20f5 21bd
00000390: 4dbe 91be b8b0 0ebe 3e0a ec3d f2bd 7cbd
000003a0: 8a76 aabe 042f eebd 229c 1b3c 801d febd
000003b0: 9a15 e5bd 815a 81bc b272 93bd 85b4 c3bd
000003c0: b052 23bd d305 1fbe cf09 babe e059 7e3d
000003d0: 9c03 46be 8945 b33c 0e55 b5bb 7891 153d
000003e0: ea2e 7bbe 6cbf 95bd e8fb febd 2e2b 53be
000003f0: 2285 993d e034 8b3b c9c0 95be 88cc d6bc

cons_representation_NN.0.bias f4 [32]
3.5770102 -0.5139601 -2.684286 -0.29624987 -2.3957345 -0.08150688 -3.0928347 -1.0068735
-4.1527367 -4.292012 -4.9354906 -4.0085073 -3.9106452 2.4240448 -4.168774 -0.071138896
-0.59680897 -0.3859493 1.6310519 -0.31447732 0.038355768 -0.48613745 0.7871871 -0.15836337
2.2460487 -3.952166 -3.2631466 -1.5144359 -4.9621053 -5.130941 -2.8506632 4.1990843
00000000: bced 6440 e492 03bf 58cb 2bc0 10ae 97be
00000010: b753 19c0 14ed a6bd 01f1 45c0 3be1 80bf
00000020: 38e3 84c0 2a58 89c0 8aef 9dc0 b145 80c0
00000030: 0348 7ac0 8d23 1b40 9966 85c0 45b1 91bd
00000040: 79c8 18bf 269b c5be 4fc6 d03f 2c03 a1be
00000050: f01a 1d3d 02e7 f8be 1885 493f 022a 22be
00000060: 43bf 0f40 4af0 7cc0 65d7 50c0 09d9 c1bf
00000070: 91c9 9ec0 ab30 a4c0 4471 36c0 e65e 8640

vars_representation_NN.0.weight f4 [32, 64]
-2.608255 -2.5947108 3.8078556 0.89929634 0.56556714 -9.242749 0.47816902 -6.6074133
0.06862107 -1.6086879 1.0944818 -1.9601969 -1.7064118 -1.1210134 -3.0067122 -1.1814088
-7.0620856 0.989473 3.4467206 -4.0839467 -3.383947 -0.13577402 -2.0902834 -1.822033
-1.921898 -8.993107 -3.6406522 -1.1739548 -0.40713474 -2.9534724 -4.4753866 1.1674309
-8.633791 -4.7773333 -0.024364034 -1.1704707 -13.085085 -6.415531 -4.1084375 -9.743008
-16.324118 -0.099671036 -2.2688608 -11.539822 -4.640097 -0.11170159 -6.205266 -32.41418
-26.395342 -4.8021154 -0.08048689 1.3913733 17.15178 -6.528621 0.2625121 4.9497375
1.2074716 -0.123322666 -12.015204 5.1606793 -0.13817859 8.030901 -10.268608 -0.09844194
-3.145261 -0.37614173 -3.0813348 -0.6434145 0.28606567 -1.623785 1.1168787 -3.8456724
-6.78365 -2.2116475 -2.0825074 -6.9182525 -2.8980107 0.9656003 2.9255564 -1.5666531
0.51201135 0.17014986 -2.5412426 -4.226303 -0.009010544 -0.8785854 -4.143937 0.008572743
-6.71451 -0.7681222 -1.7779602 0.5102577 1.029816 1.4796207 0.7136484 -0.0006277141
7.2757564 -31.767609 -5.2550745 -2.4814951 -1.27803 -2.0407596 -23.136019 -4.006189
-8.816496 0.008108839 -3.1871471 -23.957806 -1.9747757 0.032625813 -8.153273 1.062085
-2.7517405 -7.9819655 0.029034255 6.8098245 -26.264767 -13.426667 -6.9181995 1.5079516
-22.41435 0.022146568 -18.463942 -5.486547 -0.8054917 -6.1400223 -16.512424 -0.07748755
0.022055967 0.9397647 -1.0389594 -1.2546101 -1.7600365 -5.053791 2.3397424 2.7117012
3.0600722 -1.2032955 1.2919142 -2.3504322 -1.3588514 0.5249199 -5.5746427 1.6375922
-2.5352862 2.2091062 1.4707154 0.86938864 -3.5482244 -3.0832968 0.67501235 2.5673687
-0.7060084 -2.5162735 2.8540971 -0.44527313 2.5269144 -8.294775 -0.12671955 -0.023770431
-10.719598 -5.8313313 -15.286508 9.326191 -23.689196 0.3803296 -5.7342677 -0.17002223
-3.5886226 -0.003765121 1.4565338 -10.688324 -2.7605906 -0.06487869 -11.8275585 -7.164843
8.220214 1.1852005 -0.034358457 5.108828 -3.3206189 1.2190412 -19.25981 -13.366343
-5.230992 0.06425527 -13.732725 -7.723268 0.215032 0.77906656 -0.95202744 -0.9743334
-3.2948134 -3.2111862 2.1267695 0.8824366 -4.3731136 -3.1146743 -3.5100262 -10.647017
3.6123319 0.68856317 -1.8745612 -2.8404412 -2.3337317 -6.8910117 -3.4435177 1.8538697
-13.178225 0.07459265 -6.730214 0.79212177 -6.50828 -3.3687758 -4.7289386 1.069732
-3.892592 2.4484005 -1.8402872 1.9391282 -2.2309117 2.441079 -8.467833 1.6347355
14.230977 -3.5274825 -16.66713 -11.862287 6.2977247 6.36618 1.1960858 3.1385307
-9.4189825 -0.072863534 -13.314555 -0.47065282 -0.8667083 -0.09301366 -6.923534 8.278578
-15.958303 -8.51902 -0.08775629 -1.4516125 19.09824 -8.785753 -0.49794224 -13.231668
-2.1915267 -0.09192259 2.8194087 0.3338415 -4.40762 -3.3250823 -16.658123 -5.4584126
00000000: a6ed 26c0 be0f 26c0 e8b3 7340 4938 663f
00000010: 02c9 103f 4de2 13c1 92d2 f43e ee6f d3c0
00000020: 3489 8c3d 7ce9 cdbf fb17 8c3f bbe7 fabf
00000030: b46b dabf 5e7d 8fbf f96d 40c0 6738 97bf
00000040: 9bfc e1c0 1a4e 7d3f 1297 5c40 b1af 82c0
00000050: 9692 58c0 5808 0bbe 34c7 05c0 6138 e9bf
00000060: c100 f6bf c4e3 0fc1 7200 69c0 2744 96bf
00000070: f773 d0be b105 3dc0 5e36 8fc0 606e 953f
00000080: 0224 0ac1 eadf 98c0 1597 c7bc fcd1 95bf
00000090: 825c 51c1 084c cdc0 5278 83c0 5ce3 1bc1
000000a0: cb97 82c1 5420 ccbd 0435 11c0 1ca3 38c1
000000b0: ad7b 94c0 cec3 e4bd 8a91 c6c0 1fa8 01c2
000000c0: a929 d3c1 eeaa 99c0 50d6 a4bd 8518 b23f
000000d0: d836 8941 77ea d0c0 fc67 863e 4064 9e40
000000e0: 6e8e 9a3f 9890 fcbd 473e 40c1 4924 a540
000000f0: b07e 0dbe 927e 0041 384c 24c1 ee9b c9bd
00000100: f54b 49c0 a695 c0be 9734 45c0 d0b6 24bf
00000110: 3377 923e 30d8 cfbf e2f5 8e3f 7f1f 76c0
00000120: a913 d9c0 a28b 0dc0 cd47 05c0 5362 ddc0
00000130: 0279 39c0 9531 773f 513c 3b40 1788 c8bf
00000140: 2d13 033f c43b 2e3e b8a3 22c0 e03d 87c0
00000150: f6a0 13bc f9ea 60bf 229b 84c0 b174 0c3c
00000160: 44dd d6c0 a8a3 44bf 3394 e3bf 40a0 023f
00000170: 03d1 833f 3664 bd3f a9b1 363f 2e8d 24ba
00000180: ffd2 e840 1024 fec1 9229 a8c0 d1d0 1ec0
00000190: 7d96 a3bf ce9b 02c0 9116 b9c1 b332 80c0
000001a0: 5e10 0dc1 f0da 043c 38fa 4bc0 96a9 bfc1
000001b0: 73c5 fcbf a5a2 053d ce73 02c1 67f2 873f
000001c0: 841c 30c0 436c ffc0 3fd9 ed3c 15ea d940
000001d0: 3e1e d2c1 a1d3 56c1 e461 ddc0 8f04 c13f
000001e0: 9750 b3c1 b86c b53c 27b6 93c1 cb91 afc0
000001f0: b434 4ebf 107b c4c0 7219 84c1 cbb1 9ebd
00000200: b7ae b43c 6b94 703f 9ffc 84bf 1097 a0bf
00000210: e048 e1bf a8b8 a1c0 57be 1540 838c 2d40
00000220: 39d8 4340 9605 9abf 725d a53f 7b6d 16c0
00000230: d8ee adbf 2761 063f 7963 b2c0 9f9c d13f
00000240: 2142 22c0 ff61 0d40 6740 bc3f 4190 5e3f
00000250: 1c16 63c0 bc54 45c0 9ccd 2c3f c54f 2440
00000260: f7bc 34bf a00a 21c0 87a9 3640 d7fa e3be
00000270: f7b8 2140 66b7 04c1 c5c2 01be 35ba c2bc
00000280: 7983 2bc1 449a bac0 8995 74c1 1438 1541
00000290: 7983 bdc1 90ba c23e 1f7f b7c0 4f1a 2ebe
000002a0: feab 65c0 40c0 76bb b36f ba3f 6003 2bc1
000002b0: 84ad 30c0 1edf 84bd ae3d 3dc1 6546 e5c0
000002c0: ff85 0341 a6b4 973f 74bb 0cbd 857b a340
000002d0: 0585 54c0 8b09 9c3f 1714 9ac1 8adc 55c1
000002e0: 4964 a7c0 4498 833d 3eb9 5bc1 0325 f7c0
000002f0: 5931 5c3e e870 473f 12b8 73bf ea6d 79bf
00000300: 39de 52c0 1384 4dc0 fe1c 0840 5de7 613f
00000310: 8cf0 8bc0 d356 47c0 45a4 60c0 2e5a 2ac1
00000320: 7230 6740 ad45 303f 9ff1 efbf cac9 35c0
00000330: dc5b 15c0 2b83 dcc0 9862 5cc0 9a4b ed3f
00000340: 02da 52c1 08c4 983d ea5d d7c0 7ec8 4a3f
00000350: d443 d0c0 069a 57c0 7753 97c0 faec 883f
00000360: 3a20 79c0 98b2 1c40 888e ebbf 5a35 f83f
00000370: 42c7 0ec0 a33a 1c40 3e7c 07c1 033f d13f
00000380: 15b2 6341 46c2 61c0 4856 85c1 edcb 3dc1
00000390: f686 c940 bfb7 cb40 5719 993f b0dd 4840
000003a0: 27b4 16c1 7a39 95bd 6b08 55c1 68f9 f0be
000003b0: 98e0 5dbf f27d bebd 978d ddc0 0e75 0441
000003c0: 3655 7fc1 e84d 08c1 92b9 b3bd 70ce b9bf
000003d0: 32c9 9841 7292 0cc1 49f2 febe eab4 53c1
000003e0: f941 0cc0 e941 bcbd 3171 3440 46ed aa3e
000003f0: 390b 8dc0 26ce 54c0 d643 85c1 51ab aec0

vars_representation_NN.0.bias f4 [32]
0.7633666 -6.749133 -9.945231 -8.843237 -0.64783406 -8.1586895 0.60083646 -10.736262
-0.398241 -6.5386024 2.3595047 -3.5853262 -4.130379 4.2322183 3.9481328 0.89576906
-3.0285592 -0.7600998 -4.331152 0.3083673 2.3785176 -1.4889233 -0.057162043 -1.1780697
0.6165185 1.7653358 -1.730297 -1.4140811 -3.4905818 -2.0648625 0.6034874 -2.4282217
00000000: fe6b 433f e6f8 d7c0 ab1f 1fc1 e67d 0dc1
00000010: 74d8 25bf fe89 02c1 6bd0 193f bbc7 2bc1
00000020: 3fe6 cbbe 3b3c d1c0 2002 1740 fc75 65c0
00000030: 112c 84c0 556e 8740 35ae 7c40 1f51 653f
00000040: ead3 41c0 e795 42bf cc98 8ac0 52e2 9d3e
00000050: a239 1840 0a95 bebf bf22 6abd fdca 96bf
00000060: 28d4 1d3f 86f6 e13f 5f7a ddbf 9c00 b5bf
00000070: b165 5fc0 b526 04c0 267e 1a3f fc67 1bc0

output_module.0.weight f4 [32, 32]
-0.09247444 -4.324951 0.9342662 4.6781087 -4.2295647 -4.821619 2.649316 -1.579263
-0.03932659 -4.7315254 -3.3833485 0.12992041 6.21847 -5.2727118 0.4865498 1.4900557
-2.7585056 -4.851699 -6.115634 -1.1492108 -0.610328 -3.0750418 -7.4094596 0.10250782
-5.130149 2.2231777 -0.6610209 -12.087437 -3.2489026 -1.578851 1.0930516 -4.6561427
0.6063399 5.310286 -5.0125346 -0.68417144 -8.981282 0.59793645 -0.4368594 -1.4224678
0.0078453645 -4.1549673 3.442034 -6.810406 -2.8206997 -1.8473016 0.1302633 3.1341684
-6.3967986 -2.3463552 -4.898401 2.725263 0.23697838 -2.2455864 -0.47489312 -3.6510978
0.795296 0.4621322 0.5020882 -12.568548 -7.2300606 2.2950628 -6.3909903 -3.697164
0.9240355 1.6744487 -2.3719213 1.1956136 -2.390037 -3.7684014 -0.5132155 -1.8216192
-0.14310189 -2.2675447 -2.9147823 -1.6406318 -8.0616255 1.4149437 -5.07478 4.7318606
-8.3527355 1.3840244 -3.4476535 -0.12383733 -0.374487 0.93864274 -0.53952485 -4.828924
0.5216373 -2.6948156 0.52181846 1.9899241 -3.5849848 -0.41913855 -2.29593 -3.370511
-1.2355287 -1.6351525 -3.6881466 1.0493515 -7.865194 -3.5424488 0.89188766 -6.038599
0.01804071 0.8879931 0.7687584 1.3526425 1.4852314 -7.2947893 1.7047454 4.062267
3.699338 1.7556106 -2.8065615 -0.23479588 0.26102048 2.0418673 -4.040055 -3.3533704
-3.6161575 -7.937585 -1.8579915 -1.4916184 -10.094162 -0.7547416 -6.304874 -1.4976884
2.5033247 -2.8427396 -5.1478305 -4.1845236 -1.9805028 -4.644825 -2.2294283 1.6698984
-0.045548465 0.61383355 2.6170082 -6.3915424 -3.2802052 -5.0603924 -1.1782964 0.702305
0.1955122 2.5624936 -1.6295071 -0.85813755 2.971089 -2.5487049 -4.015702 1.0607759
3.5229368 -3.1916406 2.009927 -6.4504113 1.6721996 0.26345152 -4.2242026 1.3537837
-1.1799792 -6.5258317 -2.0298867 -3.193655 1.742526 -4.8058405 1.0465703 -0.6228051
-0.05169178 -5.9134088 4.968299 -1.1672312 -5.369886 -0.87310326 0.5752117 3.22847
0.020263035 3.167512 0.41422883 -1.8603312 4.715409 -5.079058 -8.80038 2.2200255
-0.008889063 -6.643069 0.6597869 -5.299723 0.8987914 -0.7078164 3.126961 -4.7719507
-1.7412083 -1.436018 -2.3914263 0.9620276 0.5553559 3.392352 -10.719615 -0.4535616
-0.02011453 -2.1999817 2.9331377 -1.8857769 3.2161787 5.0742598 3.1383576 -7.605906
-9.19878 -1.3252977 -2.2981055 -3.4347086 1.5533792 4.6975474 -4.5175977 -7.2251506
-0.26938614 -2.7523372 -0.3786115 -2.3051174 -1.246093 -4.1898656 1.2343575 0.6661275
-3.0415998 -3.2327337 -1.0091401 -2.163945 -1.8933314 1.2591602 -0.20674299 -2.616898
-0.0057968427 -0.8721393 -1.0173112 -0.23729289 -5.155363 -1.4214079 1.1262816 1.5961009
0.9805052 -1.1412086 -0.86661184 -0.7160624 -0.8585968 1.7588549 -7.61085 -0.19491854
-3.1117904 -6.7787914 -0.623222 0.6103163 -1.7578849 -1.920992 0.79934496 0.04076103
00000000: 3d63 bdbd 0066 8ac0 122c 6f3f 11b3 9540
00000010: 9858 87c0 b44a 9ac0 658e 2940 4a25 cabf
00000020: eb14 21bd a868 97c0 c888 58c0 db09 053e
00000030: b5fd c640 0eba a8c0 0e1d f93e 25ba be3f
00000040: 5b8b 30c0 1e41 9bc0 46b3 c3c0 5719 93bf
00000050: 753e 1cbf 7ccd 44c0 4b1a edc0 9fef d13d
00000060: 2e2a a4c0 8b48 0e40 aa38 29bf 2466 41c1
00000070: 05ee 4fc0 ca17 cabf 1de9 8b3f 1fff 94c0
00000080: 1739 1b3f dded a940 af66 a0c0 dc25 2fbf
00000090: 55b3 0fc1 5d12 193f 09ac dfbe 6d13 b6bf
000000a0: d889 003c 7ef5 84c0 494a 5c40 d9ee d9c0
000000b0: 5886 34c0 6174 ecbf be63 053e 3796 4840
000000c0: 93b2 ccc0 af2a 16c0 b3bf 9cc0 b66a 2e40
000000d0: 76aa 723e b0b7 0fc0 3125 f3be 96ab 69c0
000000e0: 8598 4b3f 979c ec3e da88 003f c618 49c1
000000f0: a85c e7c0 4fe2 1240 fe82 ccc0 569e 6cc0
00000100: 978d 6c3f 5654 d63f 8fcd 17c0 de09 993f
00000110: 5ef6 18c0 7d2d 71c0 1762 03bf d12a e9bf
00000120: 4d89 12be 741f 11c0 cb8b 3ac0 3900 d2bf
00000130: 6bfc 00c1 e01c b53f 9964 a2c0 676b 9740
00000140: cea4 05c1 b627 b13f 5ba6 5cc0 6d9e fdbd
00000150: c3bc bfbe e44a 703f 4d1e 0abf 8c86 9ac0
00000160: 068a 053f dc77 2cc0 e595 053f d5b5 fe3f
00000170: 6470 65c0 5499 d6be 84f0 12c0 74b6 57c0
00000180: ce25 9ebf ad4c d1bf 980a 6cc0 2651 863f
00000190: abaf fbc0 7bb7 62c0 c052 643f 343c c1c0
000001a0: 1cca 933c 8453 633f 5acd 443f 6423 ad3f
000001b0: 101c be3f ea6e e9c0 1935 da3f 17fe 8140
000001c0: f4c1 6c40 d9b7 e03f b49e 33c0 556e 70be
000001d0: 7aa4 853e f4ad 0240 2148 81c0 9f9d 56c0
000001e0: 206f 67c0 b200 fec0 aad2 edbf 5aed bebf
000001f0: b081 21c1 bf36 41bf 87c1 c9c0 41b4 bfbf
00000200: 7936 2040 72ef 35c0 07bb a4c0 9ee7 85c0
00000210: 1e81 fdbf 68a2 94c0 f4ae 0ec0 3bbf d53f
00000220: 0791 3abd 3224 1d3f 107d 2740 8487 ccc0
00000230: e2ee 51c0 bcee a1c0 6bd2 96bf 43ca 333f
00000240: 5a34 483e e5ff 2340 b093 d0bf e7ae 5bbf
00000250: 5226 3e40 fb1d 23c0 a180 80c0 81c7 873f
00000260: cc77 6140 d743 4cc0 a5a2 0040 c569 cec0
00000270: a30a d63f 1ee3 863e ab2c 87c0 c948 ad3f
00000280: 8f09 97bf 9dd3 d0c0 aae9 01c0 d864 4cc0
00000290: 180b df3f 72c9 99c0 04f6 853f 2870 1fbf
000002a0: c3ba 53bd a53a bdc0 4efc 9e40 d567 95bf
000002b0: 1bd6 abc0 b283 5fbf 1341 133f 419f 4e40
000002c0: aafe a53c 84b8 4a40 cd15 d43e 551f eebf
000002d0: a1e4 9640 a587 a2c0 5bce 0cc1 e614 0e40
000002e0: 6fa3 11bc 0594 d4c0 cbe7 283f 5597 a9c0
000002f0: 3117 663f 7533 35bf 2120 4840 d2b3 98c0
00000300: eadf debf 70cf b7bf 210d 19c0 7147 763f
00000310: ce2b 0e3f 4c1c 5940 8b83 2bc1 3a39 e8be
00000320: 3ac7 a4bc 80cc 0cc0 87b8 3b40 2361 f1bf
00000330: dfd5 4d40 5660 a240 dada 4840 9563 f3c0
00000340: 342e 13c1 5ba3 a9bf 2914 13c0 44d2 5bc0
00000350: 21d5 c63f 4f52 9640 2990 90c0 6f34 e7c0
00000360: fbec 89be 4b26 30c0 5ed9 c1be 0b87 13c0
00000370: fa7f 9fbf 6113 86c0 6dff 9d3f 5587 2a3f
00000380: 92a9 42c0 1ce5 4ec0 812b 81bf 137e 0ac0
00000390: af58 f2bf 292c a13f 6fb4 53be 427b 27c0
000003a0: 71f3 bdbb 8544 5fbf 4137 82bf e8fc 72be
000003b0: bcf8 a4c0 b2f0 b5bf ff29 903f 094d cc3f
000003c0: 6402 7b3f 2013 92bf 46da 5dbf de4f 37bf
000003d0: 00cd 5bbf 2822 e13f 158c f3c0 ba98 47be
000003e0: 9327 47c0 dceb d8c0 7a8b 1fbf b03d 1c3f
000003f0: 5f02 e1bf 11e3 f5bf dfa1 4c3f 0af5 263d

output_module.0.bias f4 [32]
5.2200117 3.339028 4.805567 0.16429378 4.2206507 -2.4327574 -0.39070898 0.5096561
4.468331 5.7855763 8.979593 2.9517322 -3.3736258 -1.7899926 0.2290973 4.71386
1.6847612 15.823944 -0.35042444 3.163132 0.10561042 7.679112 -4.84257 1.5852962
0.3585274 -0.60586536 0.1840956 5.4632235 0.88195807 1.6244229 6.266006 -0.2930525
00000000: 560a a740 a2b2 5540 34c7 9940 a13c 283e
00000010: 920f 8740 4cb2 1bc0 020b c8be d278 023f
00000020: 91fc 8e40 7123 b940 6aac 0f41 2ee9 3c40
00000030: 7ce9 57c0 7a1e e5bf 7c98 6a3e f1d7 9640
00000040: 41a6 d73f e02e 7d41 d56a b3be c170 4a40
00000050: 474a d83d 49bb f540 55f6 9ac0 fcea ca3f
00000060: e790 b73e fe19 1bbf 8f83 3c3e bad2 ae40
00000070: 01c8 613f 17ed cf3f 1f83 c840 fa0a 96be

output_module.2.weight f4 [20, 32]
-0.11771369 -0.3385341 0.08167848 -0.24676414 -0.18092167 -0.5171663 -0.5537026 -0.21116069
-1.1509216 -0.8863138 0.17217818 0.0021646426 0.32846245 0.2969364 -0.35290214 0.72858316
0.059836306 -0.5686824 -0.10830937 0.17121702 -0.37325582 0.7564158 0.58976346 -0.4791006
0.15810288 0.3119918 0.14524388 1.0068718 -0.01475719 -0.0954799 0.9194209 -0.17009474
-0.31536204 -2.1445448 0.23639147 0.19876146 -0.6519974 0.8863963 -0.32375142 0.18824285
-0.27241397 -0.61199754 1.3259882 0.15779659 -0.2867835 0.035172574 -0.0638669 -0.04109043
-0.7426772 -1.6866857 0.9528441 0.3147353 0.19784401 0.22171633 -0.27276617 -0.6376674
-0.21517234 -0.39184105 -0.5433536 -0.2681269 -0.741481 1.2968765 0.19343553 -0.0019440348
-0.6016681 0.8256914 0.43844157 0.11289589 0.0796261 0.0018875552 0.10150005 -1.0160481
0.03202868 0.25386873 -0.10655917 -0.47805312 0.007385004 0.13350196 -0.2904207 -0.017171388
0.04592209 -0.7984765 -0.109391816 0.21652135 -0.37182266 -0.013191754 -0.042848192 0.4885021
0.66225404 -0.016404755 -0.25723815 -0.10264329 0.08114327 -0.03829578 -0.009002335 0.015878659
0.04813246 -1.1523225 -0.15206568 0.13948135 -0.026671423 -0.012912934 0.07715409 0.1348384
-0.08633286 0.19666985 -0.041968316 -1.7261466 -0.03093349 -0.029498246 0.18516695 -0.01695026
0.045232564 -0.34645694 -0.021309495 0.15523766 0.27164352 -0.011607585 0.13750008 0.083042994
0.063602224 -1.1716589 -0.12845662 -0.022157082 -0.33197248 -0.03867023 -0.028457507 -0.06044414
0.2620405 0.4441862 0.26444197 0.14533389 0.0015780546 0.037496537 0.038680002 -0.20904416
0.19887246 -0.091820665 -0.0095457025 -1.4494264 0.028762272 0.12463487 0.042786427 -0.01161119
0.12631592 -0.29173756 -0.010813949 -0.09692927 0.1249561 0.015014816 -0.018019186 0.1114951
0.0486794 0.19007461 -0.012207179 -0.018036932 0.009932711 0.002390393 0.009263505 0.45895538
0.13953444 0.115672365 0.01855628 -0.070315845 -0.023339884 0.010669095 0.048918698 0.006435201
0.1452924 -0.04195189 -0.028314061 0.07722963 0.09075443 0.30372858 0.0748729 -0.0073601687
0.044974808 -0.27477533 -0.010932247 0.11556444 0.12752979 -0.03112802 -0.13613355 0.067546405
0.007262494 -0.3346818 0.003768173 -0.020237084 0.0014107231 -0.023491506 0.004392162 -0.030088568
-0.020610886 0.54057837 -0.11775315 0.068369046 0.0030271863 0.026746552 0.08916154 0.25050518
-0.12509423 0.028073043 -0.08660448 -0.63831735 0.10647608 0.16462587 -0.12721962 -0.024884377
-0.0039190343 -0.6644662 -0.08467846 -0.017175484 0.050625585 0.023319015 0.043241136 0.036149133
0.0778204 0.5813844 0.061950583 -0.09909437 0.0006766376 -0.021246832 0.002343547 0.06678792
-0.09165897 -0.89451444 -0.74245656 0.050586212 0.034661476 0.0029396042 0.03453616 -0.13783576
0.3111793 0.31609672 -0.12421036 0.50895846 -0.03090922 0.8115963 -0.26860678 -0.0072837723
0.024526214 -0.783399 -0.08481989 0.13498867 -0.23243293 -0.094020136 -0.12893853 0.24679483
0.18850185 -0.023465924 -0.07234322 -0.09833431 0.10459578 -0.029319715 -0.0011528032 -0.19120626
00000000: e013 f1bd 5754 adbe 0c47 a73d bdaf 7cbe
00000010: 8843 39be 0365 04bf 74bf 0dbf 823a 58be
00000020: 6651 93bf 76e5 62bf 7a4f 303e addc 0d3b
00000030: 3b2c a83e 0c08 983e 97af b4be 6d84 3a3f
00000040: ea16 753d 2b95 11bf 4ed1 ddbd 8453 2f3e
00000050: 631b bfbe 77a4 413f bdfa 163f ad4c f5be
00000060: b9e5 213e 64bd 9f3e d0ba 143e 2de1 803f
00000070: 24c8 71bc f78a c3bd 2b5f 6b3f 512d 2ebe
00000080: 2277 a1be 3940 09c0 9b10 723e 2088 4b3e
00000090: 4de9 26bf deea 623f bfc2 a5be bcc2 403e
000000a0: d879 8bbe dfab 1cbf fbb9 a93f 6e95 213e
000000b0: 49d5 92be 1e11 103d a6cc 82bd 704e 28bd
000000c0: 1820 3ebf 51e5 d7bf 97ed 733f fc24 a13e
000000d0: 9f97 4a3e 9b09 633e 02a8 8bbe 2c3e 23bf
000000e0: 2356 5cbe 649f c8be 3919 0bbf ee47 89be
000000f0: b3d1 3dbf 0d00 a63f f713 463e fcce feba
00000100: ec06 1abf 8360 533f 6a7b e03e f635 e73d
00000110: 0213 a33d d867 f73a 42df cf3d dd0d 82bf
00000120: 8130 033d 15fb 813e b23b dabd 61c3 f4be
00000130: e7fd f13b bdb4 083e 06b2 94be 03ab 8cbc
00000140: cd18 3c3d f568 4cbf d108 e0bd c6b7 5d3e
00000150: 8a5f bebe 3a22 58bc 9681 2fbd f21c fa3e
00000160: 7b89 293f 4463 86bc b8b4 83be a536 d2bd
00000170: 712e a63d 09dc 1cbd 887e 13bc f613 823c
00000180: 8b26 453d 4e7f 93bf 1bb7 1bbe 33d4 0e3e
00000190: 077e dabc c590 53bc f702 9e3d 1413 0a3e
000001a0: 48cf b0bd d263 493e f8e6 2bbd 5ff2 dcbf
000001b0: 3b68 fdbc 4ea6 f1bc 689c 3d3e 46db 8abc
000001c0: c845 393d ce62 b1be 4091 aebc 9ff6 1e3e
000001d0: dc14 8b3e bd2d 3ebc d2cc 0c3e 7212 aa3d
000001e0: e241 823d ebf8 95bf 228a 03be c582 b5bc
000001f0: 4cf8 a9be ad64 1ebd b81f e9bc 4694 77bd
00000200: 2c2a 863e 606c e33e f064 873e 68d2 143e
00000210: bad6 ce3a f895 193d ec6e 1e3d ac0f 56be
00000220: 39a5 4b3e 790c bcbd 9465 1cbc ce86 b9bf
00000230: db9e eb3c 9140 ff3d d240 2f3d dc3c 3ebc
00000240: f658 013e a05e 95be fd2c 31bc da82 c6bd
00000250: fce8 ff3d b400 763c f99c 93bc 8b57 e43d
00000260: 0d64 473d eba2 423e 9f00 48bc 30c2 93bc
00000270: cfbc 223c 24a8 1c3b f5c5 173c 33fc ea3e
00000280: 1ee2 0e3e a2e5 ec3d 5703 983c c101 90bd
00000290: 4933 bfbc 6ecd 2e3c f95e 483d 61de d23b
000002a0: 88c7 143e bfd5 2bbd e4f2 e7bc 912a 9e3d
000002b0: 75dd b93d 5082 9b3e f756 993d 922d f1bb
000002c0: 8137 383d 5aaf 8cbe 2b1d 33bc 0dad ec3d
000002d0: 2b97 023e 3000 ffbc 9866 0bbe c555 8a3d
000002e0: 37fa ed3b 6a5b abbe 74f3 763b 3ec8 a5bc
000002f0: 03e8 b83a 4271 c0bc 20ec 8f3b 4d7c f6bc
00000300: 29d8 a8bc 5863 0a3f 9028 f1bd 1205 8c3d
00000310: c263 463b 961b db3c 539a b63d 3742 803e
00000320: b418 00be 70f9 e53c b15d b1bd c468 23bf
00000330: 2210 da3d af93 283e dc45 02be 52da cbbc
00000340: 3e6b 80bb 751a 2abf e76b adbd 9ab3 8cbc
00000350: c65c 4f3d 8507 bf3c 9e1d 313d 1d11 143d
00000360: 4d60 9f3d 9cd5 143f e5bf 7d3d fdf1 cabd
00000370: 6160 313a d60d aebc 3296 193b 1bc8 883d
00000380: b3b7 bbbd e6fe 64bf a211 3ebf 7d33 4f3d
00000390: 31f9 0d3d 60a6 403b ca75 0d3d d124 0dbe
000003a0: e552 9f3e 6ed7 a13e 0062 febd 1a4b 023f
000003b0: 5535 fdbc c6c4 4f3f d486 89be b6ac eebb
000003c0: 33eb c83c d68c 48bf 0db6 adbd 783a 0a3e
000003d0: e602 6ebe a18d c0bd 7608 04be c9b7 7c3e
000003e0: a106 413e 9c3b c0bc af28 94bd 8063 c9bd
000003f0: 5036 d63d e62f f0bc a819 97ba 93cb 43be

output_module.2.bias f4 [20]
-5.11988 16.182959 0.13394938 -8.583861 -8.733122 -10.017471 -1.6903473 1.0355871
-8.44104 -10.65659 -1.3017029 -9.44885 1.9476916 -10.765991 -10.103525 -11.085769
-12.279346 -10.820995 -10.375386 -13.563097
00000000: 0fd6 a3c0 b376 8141 072a 093e 7f57 09c1
00000010: deba 0bc1 9047 20c1 4d5d d8bf 1e8e 843f
00000020: 800e 07c1 6581 2ac1 339e a6bf 7d2e 17c1
00000030: f54d f93f 8041 2cc1 0aa8 21c1 4f5f 31c1
00000040: 3478 44c1 cc22 2dc1 9501 26c1 7202 59c1
