code_RLSCG/save_models/Model_0_past.pt (torch, 43366 bytes, 16 tensors)

cons_embedding.0.weight f4 [32, 3]
00000000: ce40 28c1 64dd 21c0 db8e f1bf 257c 30c0
00000010: 8784 41c0 cade 52c0 8e9e 66c0 1e41 0c40
00000020: 6d3a 25c0 d270 1c3e 9eab 32be ea6b e8bd
00000030: 12cc 2ec0 50a7 cec0 3fdd 163d 60ef 92c1
00000040: 0ea7 653f 5b7c ccbf d266 c8be 69b9 80be
00000050: 83bc 563e 946a ae40 4c05 20c0 ee31 283f
00000060: f83c e5bd d690 463d 5f14 033f 791c 09bf
00000070: f017 babe 48ac 15be 9dcd 7140 b020 1b41
00000080: f968 b93d 7013 88be 3c85 cebe df6c 0abf
00000090: 61ee 2cc1 cf05 043f 09ed 8c3e 8d56 41bd
000000a0: 8f16 90c0 3c90 9dc0 d50b c83d 6b00 0abf
000000b0: ce97 d5be 70fd 68c0 fec4 2ebf 45b1 b6bd
000000c0: 8c37 85be 0c0d e7bc 4407 a93e 0764 ebbe
000000d0: 2c47 1ebf 4060 8fbf fc57 913f c210 8dc0
000000e0: 0e38 d4be d22e e5be eae0 ccbe 2eb4 98be
000000f0: 41de 333f de4b 43bf 1464 0ac0 28f8 54c0
00000100: 63ae 68bf ca14 47c1 74a0 20bf 30d7 0bbf
00000110: 70d2 4a3f 50e5 413e 6631 8cc0 c7fa aec0
00000120: 121c b1bd d013 d9be 28d7 3c3f fd42 bf40
00000130: 886f d7bf be18 4cbf db8b 593d 58ee b8be
00000140: 8fbe 09bf 9ddc 203f 8095 8abf b4ab a8c0
00000150: 9250 dd3d 7a30 c7bd 4d94 c2bd 8050 87be
00000160: 285a 633e 3f16 afbe 628f 573f 6376 af3f
00000170: c440 06be 0b0f 5d3e d648 12bf c8c1 bfbe
-10.515821 -2.5291376 -1.8871721 -2.7575772 -3.0237138 -3.294848 -3.6034274 2.1914744
-2.581691 0.15277413 -0.1744828 -0.11348708 -2.7312055 -6.457924 0.03683209 -18.366882
0.8970803 -1.597545 -0.39140946 -0.25141457 0.20970349 5.45051 -2.5003233 0.65701187
-0.111932695 0.04847797 0.5120296 -0.5355907 -0.36346388 -0.14616501 3.7781746 9.69548
0.09053225 -0.2657733 -0.40336025 -0.54072374 -10.808198 0.51571363 0.27524593 -0.047201682
-4.5027537 -4.9238567 0.09767882 -0.5390689 -0.4171738 -3.6404686 -0.68269336 -0.0892053
-0.2601894 -0.028204463 0.33013356 -0.45974752 -0.6182735 -1.1201248 1.1354976 -4.4082956
-0.41449016 -0.44762284 -0.40015346 -0.29824966 0.7026101 -0.7628764 -2.1623583 -3.3276463
-0.90891093 -12.442575 -0.6274483 -0.54625225 0.7922735 0.18935132 -4.38103 -5.4681125
-0.08647932 -0.42397928 0.737658 5.9769273 -1.6830912 -0.79725254 0.053111892 -0.36119342
-0.53806394 0.6283663 -1.0826874 -5.27096 0.10806383 -0.09726043 -0.095009424 -0.26428604
0.2220236 -0.3419666 0.8420316 1.3708004 -0.13110644 0.2158777 -0.5714239 -0.3745253

cons_embedding.0.bias f4 [32]
00000000: bb64 a7ba 51d8 203e f207 0dc0 d336 aabe
00000010: 2be3 3f40 03cc 65bf f7e3 80be 0a01 56bf
00000020: 028c 0fbf dc05 2abc 020a 3cbf ff03 e4be
00000030: ee80 0b40 823d 4dba f61d 72be 5b1b 98bc
00000040: 01ea c7be c208 58bb 5b99 97bf fa46 f9be
00000050: 357c 35bf c8e1 393d b98d 4bbf eed0 57be
00000060: 9fa3 3ebf 33da 0cc0 be3b 90be e8b1 24bf
00000070: 51c7 0dbf c134 afbe 184f 0ec0 09fe 8fbe
-0.0012771109 0.15707518 -2.20361 -0.33244953 2.9982402 -0.8976442 -0.25173923 -0.83595335
-0.5607301 -0.010377374 -0.7345277 -0.445343 2.1797442 -0.0007829295 -0.23644242 -0.018567732
-0.39045718 -0.0032964204 -1.1843675 -0.48686963 -0.7089265 0.045381337 -0.79513127 -0.21075794
-0.74468416 -2.2008178 -0.2817058 -0.64333963 -0.5538226 -0.34219936 -2.2235775 -0.281235

var_embedding.0.weight f4 [32, 9]
00000000: 0e4a 88bf 1fdc f1bf 2886 d740 ec43 8ec0
00000010: f3e7 4540 13ef 0b3e 270b f640 302c 5ac0
00000020: bed7 42bf 4f09 4840 e95a bdc0 0d4f 0d41
00000030: 13c2 86c1 ecc1 4cc2 f8e1 4940 55b4 8ec0
00000040: d78e bcc0 27f0 c840 eb2f 9bc0 dc31 56c0
00000050: 298e 9140 66e9 dbc1 6ee3 2ac2 3a64 1f40
00000060: 650c 0440 6357 5340 fc9e cd40 250c 00c1
00000070: ba62 48c0 5e07 733e 9578 b3be 9f73 b8c1
00000080: dd97 2540 a154 a03e cac3 cc40 c31b bfc0
00000090: 0bac 3bc0 f0c6 0ac0 d36c 1ac0 2f91 2941
000000a0: 4d39 dbc1 8727 d0bf 75e7 20c0 398a 64bf
000000b0: adcc 8640 b2b3 253f 9a76 3bc1 8166 d140
000000c0: 1999 5940 e198 fec1 91da 60c0 243e 3b3e
000000d0: 184c 1a40 48ef bcc0 67c4 5140 856c c03e
000000e0: 8ecf 8a40 9e9f acc1 6cd0 60c2 c844 04c0
000000f0: 0d1f 0840 b534 4d40 0efd 2741 282f 34c0
00000100: 8f0d 44bf 9a29 04c2 f636 88c1 cb69 a740
00000110: 2e0c e040 63d8 aa3e 7105 24c0 621e afbe
00000120: 8f17 a2c0 1060 9340 ee21 d340 eed9 fcc1
00000130: 3056 bdc0 bd70 dbbe fee7 bb3f 3396 04c0
00000140: 9854 bdc0 00e3 2c3d 009e 22bb 5bf3 86bd
00000150: ab4d 2b3d 20e2 9bbd ab7e 19bb 0035 2e3d
00000160: 107f 85be 4ee7 32be 247b c13e 66f3 b6bf
00000170: 1372 92bf c218 f340 c590 eec0 9128 253e
00000180: e020 a33c 5fc1 a540 8595 ea40 995e 19c0
00000190: e472 5ec0 f3fe 9bbe e066 7fc0 c416 05c1
000001a0: ce75 e8bf 106d 3240 3ce8 ac3e 79ec ab3f
000001b0: 9f6e 15bf d789 59c0 f994 0ac1 3ad0 a83f
000001c0: b269 5ec1 e6bc bdbf 34a5 1ac0 ffa0 25c0
000001d0: 7747 0b40 7a9a abc0 347d b740 8b04 28c1
000001e0: 04c6 88bf 9a1a e13f 8e84 1dc0 9b29 dd3f
000001f0: b1ec 05c0 bc61 8c40 c8a5 4abe 2ebf 1ebe
00000200: ef27 a9be 5d21 f33d 16ee 23be 16c9 63be
00000210: 83a4 44be 33be 233e 053f 143e 1d49 8b3f
00000220: fa15 c93f b6fb d4c1 cf41 d8c2 ed89 5941
00000230: 971a a63d 7bfd 563f 20c1 273f 0e17 4a40
00000240: 095d cb3f 70b9 0541 36cb 7cc0 8f54 4dc1
00000250: 2165 3ac0 1640 663f dcf4 3dc0 8085 2ac0
00000260: cb0e 0840 9e03 ef3f d180 82c1 20e4 0341
00000270: 1c2b 9a3f 5b01 d6c0 e45b 98bf dfee b2bf
00000280: cb32 36c1 eec2 b43f 73c7 aec0 b912 ee40
00000290: 33bc a240 0969 c93e 93f9 40c2 f35d 37c0
000002a0: b069 40bf 108c 1ac0 d4d6 d53f 908c e5bd
000002b0: b3ae 24be 4785 823c d84e 31be 2b4a 9d3d
000002c0: 0b10 863d b86f 7dbe 7653 633d 8248 c83d
000002d0: 1202 493f b2ab 37c0 ae4d 9540 7d36 0dc2
000002e0: 79d2 0840 3baa 59c0 a4e8 14c0 27da c6bf
000002f0: 3edc f3be 4cdc 2ec1 815d 633f c2d5 68c0
00000300: f19d 19c2 d78d e040 2027 e23f 0969 b8bf
00000310: f2ef 53bf 1532 1141 9fcf 643e 8bf8 19bf
00000320: 48fb 38bf 0a6a 953d 5283 2ebf 9e3b e5be
00000330: 9ecb 703e f987 b7be a406 77bf 7d8b eebf
00000340: cb70 a440 97bc 1541 0eb0 763f 15c6 7f41
00000350: 404d 6bbf 0a6d 853f 935d 2dc0 ae59 2140
00000360: 2bc2 3c40 82e8 e13f 19d5 9ec0 60b4 96c1
00000370: c552 01c2 84e3 5740 d7e7 b0c0 8a49 ea3f
00000380: d122 45c0 2cb8 c83d 5683 723d d666 e13d
00000390: 2bfd e7bd a36c 263e 5369 6ebe c443 323d
000003a0: 80f1 66be 7c5e a8be 3139 98c0 dd15 a440
000003b0: 3356 6e40 c107 0041 a03f 4ec2 cc90 593f
000003c0: 9b3d b23f 678b 273d fbdc 95c0 145b 9b3d
000003d0: ae7c 7fbe 210d 89bf 8b67 bdbf 5887 10bf
000003e0: 9a29 14bf 9efa 9fbd d1c2 d03d be36 04bf
000003f0: 5e99 c7c0 4986 c7bf 8023 52c1 946f 1cc0
-1.06476 -1.8895301 6.7351265 -4.4457912 3.092282 0.13665418 7.6888614 -3.408947
-0.76110446 3.1255682 -5.9173474 8.8317995 -16.844763 -51.189377 3.154417 -4.459513
-5.8924365 6.2793155 -4.8495994 -3.3467932 4.5486035 -27.488964 -42.7221 2.4904923
2.0632565 3.3022087 6.4256573 -8.002965 -3.1310258 0.23733279 -0.35052934 -23.056456
2.587394 0.31314567 6.3989 -5.972139 -2.9323757 -2.1683922 -2.412892 10.597945
-27.402979 -1.6262063 -2.514127 -0.8927341 4.212485 0.6472732 -11.716455 6.5437627
3.3999693 -31.824648 -3.5133402 0.18285424 2.4108944 -5.904209 3.2776124 0.37582794
4.3378363 -21.577938 -56.203537 -2.066698 2.1268952 3.206342 10.499281 -2.8153782
-0.7658319 -33.040627 -17.026836 5.231664 7.001487 0.33368215 -2.562832 -0.34202868
-5.065376 4.6054764 6.597892 -31.606411 -5.916771 -0.4285945 1.4680173 -2.0716674
-5.9165764 0.04220867 -0.0024813414 -0.06589385 0.041822117 -0.07611489 -0.0023421447 0.042531013
-0.26073503 -0.17471048 0.3778926 -1.4293029 -1.1441063 7.596772 -7.455172 0.16128756
0.019913137 5.179855 7.330752 -2.3963988 -3.4757624 -0.30467948 -3.990654 -8.318058
-1.8160951 2.7879066 0.3377093 1.3431541 -0.5837192 -3.399038 -8.66137 1.3188546
-13.9008045 -1.4823272 -2.4163332 -2.5879514 2.1762369 -5.362607 5.7340336 -10.501109
-1.068543 1.7586243 -2.4612155 1.7278322 -2.0925715 4.3869305 -0.19789803 -0.15502617
-0.3303828 0.11871598 -0.16008791 -0.22244677 -0.19203381 0.15990524 0.14477165 1.0881687
1.5709832 -26.622906 -108.12853 13.596173 0.0811054 0.8398053 0.6552906 3.1576571
1.5887767 8.357773 -3.949903 -12.833144 -2.9124224 0.8994154 -2.96807 -2.6643982
2.125903 1.8672979 -16.312899 8.243195 1.2044406 -6.6876655 -1.1903043 -1.3979148
-11.387401 1.4121988 -5.461847 7.4397855 5.0854735 0.39337948 -48.243725 -2.8651092
-0.75161266 -2.4147987 1.6706185 -0.11208451 -0.16082267 0.015932692 -0.17315233 0.07680162
0.06546029 -0.24749649 0.055499516 0.09779455 0.78518784 -2.8698545 4.6657324 -35.30321
2.1378462 -3.401015 -2.3266993 -1.5535325 -0.4762897 -10.928783 0.8881455 -3.6380467
-38.40424 7.0173144 1.766819 -1.4407054 -0.82788 9.074727 0.22344826 -0.6014487
-0.72258425 0.07295616 -0.6816913 -0.44772047 0.23515174 -0.35845926 -0.9649451 -1.8636318
5.1387687 9.358542 0.9636239 15.98586 -0.9191475 1.0423901 -2.7088363 2.5210986
2.949351 1.7649081 -4.963513 -18.838074 -32.33083 3.3732615 -5.528301 1.8303692
-3.08025 0.09800753 0.059207283 0.110059425 -0.11327585 0.16252379 -0.23282366 0.043521658
-0.22553062 -0.32884586 -4.7569814 5.127669 3.7240112 8.001893 -51.562134 0.8498657
1.392505 0.04090443 -4.683225 0.07585731 -0.24949905 -1.0707132 -1.4797224 -0.5645652
-0.5787598 -0.07811473 0.10193408 -0.5164603 -6.2374716 -1.5587856 -13.133667 -2.4443102

var_embedding.0.bias f4 [32]
00000000: bf05 02c0 7605 14c0 3834 54bf fb4f 0140
00000010: 49dd 8340 5205 823f 8206 01c1 09d1 6ebf
00000020: 996a eebf 96fa 9bbe 38f1 37c0 7b3a fbbf
00000030: 53da 3dc0 2951 5440 fb73 89be 9a75 8e3f
00000040: fd52 4ec0 03b3 b540 9a5f e93f 6b89 27be
00000050: 7729 1040 5197 e6bf 8268 f3be 26b0 bdc0
00000060: e143 80c0 c517 b6be d30c 1dbf 789f 1ebe
00000070: 223e 973e 6bdd 49be da85 14be 0bad 6ac0
-2.0316007 -2.3128333 -0.8289218 2.0205066 4.1207623 1.0157874 -8.064089 -0.9328771
-1.8626281 -0.3046462 -2.8740978 -1.9627222 -2.9664505 3.3174536 -0.268463 1.1129639
-3.2238152 5.678102 1.82323 -0.16361015 2.2525308 -1.8014928 -0.4754067 -5.9277525
-4.008286 -0.3556501 -0.61347693 -0.1549052 0.2953959 -0.1971337 -0.14504185 -3.6668117

join_features_NN.0.weight f4 [32, 64]
00000000: 621b 54c0 13f7 acbf adb9 acbf 5f58 cb3d
00000010: 88c4 d4c0 bf04 12c0 2a8e 08bf 74d9 dbbf
00000020: b739 0dc0 7952 a43c 263f e1c0 5354 0dc0
00000030: db36 55c0 4e14 29c0 56dc ccbe 3656 1cbe
00000040: 789c 29c0 bac1 26be ab53 c0be 97d2 4ebf
00000050: 1e42 42be f3e8 9ac0 a89a e83e c74e adbd
00000060: 0e85 5ac0 46f9 febe ef39 febf 34f2 11c0
00000070: a63a 3cc0 d7f9 0f3c 6054 1bc0 7f55 17bf
00000080: 61fe d6c0 e524 1bc0 0169 9240 c7ac 6ac1
00000090: f8cb 32c0 d396 61bf b269 e0be 6915 5540
000000a0: 403d e9c0 944c 1ebd 157d 3dc1 4623 853f
000000b0: bee3 10c0 7f51 f8c0 73cf 953d c0ce 02c1
000000c0: 57ab 9840 97b3 10c1 c5c1 2fc1 63b0 ce3d
000000d0: 24be af40 6a54 3bc0 2a19 3dbe 9ca5 7fc0
000000e0: 4ff2 0c40 c980 12bd 5a02 9ac0 8fc9 393e
000000f0: fa87 6a40 bedc bf3e c6e7 b63f 246b 1f3f
00000100: 1563 acbf 2468 b3bf 2a0b 13c0 199a e2bc
00000110: 8e9d 25bf bfc5 d5bf fbde 46bf 56a9 61c0
00000120: 9a5c 53c0 9045 96bd c3cf 81bf 57fd 53bf
00000130: 6afd 41c0 4cfd bebd aedc 9cbf 5341 24be
00000140: f9c4 15c0 2619 ffbd 5cf6 87bb ed93 c2be
00000150: 2ad1 a6be 9559 cbbf 1324 29c0 84ba 38c0
00000160: 02cc ccbf 63b8 a6bf 5cce 10c0 63eb edbf
00000170: 9c7c c2be f45b 1bc0 a4d8 46c0 052e 7abf
00000180: 7aca d0bf 1e03 c1be 4eca 49c0 ef73 d2c0
00000190: a795 bfbf 4961 2ac0 2fe6 a93e 4e29 6fc0
000001a0: 900d 40c0 f8f7 a1bd 73d7 85c0 c46f 86c0
000001b0: e84c 92bf 06d8 4ebf e984 e33d 5cbe 4ec0
000001c0: 908d 01c1 480c 57c0 7b0b 92c0 3ebc 883d
000001d0: 5f11 b6c0 2a48 4fbf 498b 10bf b365 abbf
000001e0: 1b22 23c0 e6aa 803d f9c4 48bf fea9 6cbe
000001f0: 9638 5cc0 cd6c 89be c573 52be bfdb 62c0
00000200: 2a31 30c0 824e 7e3f 2118 4940 7694 593d
00000210: 6ba5 46c0 547a 803f c873 ddbf a2fe 9bc0
00000220: 6679 44bf 7bd4 9abd 4023 81c0 d072 5ac0
00000230: 6411 e6bc 807d 98bf 0485 02c0 c184 0c3e
00000240: dfae 4540 8737 9fbc 48f5 38bd b1d5 673e
00000250: 67a1 3cbf 5f26 8e3f d485 4640 22d1 483e
00000260: e861 0fc0 c9f8 97bf 37f7 13c0 769b a33f
00000270: 8c04 66c0 496c c4bf d183 a53f 24ac 13c0
00000280: 9ac3 00c1 b0da a1bf 034c 42c1 d47f 1a40
00000290: 8f94 5ac0 dbb3 b4c0 c3d6 a1c0 f9e9 95c0
000002a0: fc04 1ec0 50fa 903c 5ef8 7640 358a 423f
000002b0: b8f6 e83f 04c8 d83e 605c f23c cc98 15c1
000002c0: 9561 1ec0 9205 30c0 9bef 21c1 001c a9bc
000002d0: 4157 cbc0 a3d4 01c0 6ae3 7e3e 972b 2c40
000002e0: d88b 9b3f 5034 3e3c beb9 ccbf 4c64 26bd
000002f0: f3fd 3cc1 fe70 b33d 507d 32c1 0d88 fcbf
00000300: 2f47 673e 6d8b 14c0 5dc2 633f 3815 2f3e
00000310: 36ed 94c0 a603 7bc0 236c b6b9 2763 bec0
00000320: 2482 923c a6fc 063e 6d6d afc0 ba1d 0e3f
00000330: be0d 3dc0 82c8 d33f ce3c d53f 5256 1abf
00000340: 171c 63bf 960a 61be ab23 c2be 468e 0ebe
00000350: cd66 c4be 6958 2ec0 14a8 51bf 596c b340
00000360: 515c b9c0 3073 92c0 6061 f93f 901d 4d3f
00000370: 9b29 55bd 8843 44bf 9308 d33f c894 b13e
00000380: 4eda 16c0 1a40 a4c0 bd48 dcc0 4db1 edc0
00000390: ec0c 85c0 d405 5d40 c2a8 8bc0 29cb 88c0
000003a0: 0874 2fc1 aa72 aabd 7e50 4bc1 f940 673f
000003b0: 38ca 2cc0 252a 2ec1 d04e a2bc 9267 8bc0
000003c0: 1a10 c8bf f119 10c1 28a0 efbf 933a 8fbd
000003d0: ecdb ac40 1c56 04c0 7022 25bf 2990 3cc0
000003e0: 2d75 3dc0 c0cf bdbd feec 0b3f 83b4 143d
000003f0: f4f3 acbf 06b5 bd3c 253b 9dc0 48c7 cc3f
-3.3141713 -1.3512901 -1.3494164 0.09928965 -6.6489906 -2.2815397 -0.53341925 -1.7175736
-2.2066476 0.020058857 -7.0389585 -2.2082717 -3.331473 -2.6418643 -0.40011853 -0.15267262
-2.650175 -0.16284838 -0.37563834 -0.80790085 -0.18970534 -4.840936 0.45430493 -0.08462291
-3.414371 -0.49799556 -1.986143 -2.280408 -2.9410796 0.008787594 -2.4270248 -0.5911483
-6.718552 -2.4241269 4.575318 -14.667182 -2.7936993 -0.88120764 -0.4383064 3.3294318
-7.288727 -0.03864725 -11.843038 1.040139 -2.2639003 -7.7599483 0.073149584 -8.175476
4.7709155 -9.043845 -10.984807 0.10092237 5.4919605 -2.9270272 -0.1846663 -3.994483
2.2022893 -0.03576735 -4.812787 0.18143295 3.6645494 0.374731 1.4289482 0.6227286
-1.3467737 -1.4016156 -2.2975564 -0.02766137 -0.64693534 -1.6700972 -0.7768399 -3.5259604
-3.302527 -0.07337487 -1.0141529 -0.8280844 -3.0310922 -0.09325656 -1.2254846 -0.16040544
-2.3401473 -0.124559686 -0.0041492414 -0.38003483 -0.32581455 -1.5886713 -2.6428268 -2.886384
-1.5999758 -1.302502 -2.2625952 -1.8587459 -0.37985694 -2.4274874 -3.1069727 -0.9772647
-1.6311791 -0.3769769 -3.1529727 -6.576652 -1.4967545 -2.6621878 0.3318343 -3.736896
-3.0008278 -0.079086244 -4.18255 -4.2011433 -1.142972 -0.80798376 0.11109335 -3.2303686
-8.097061 -3.3601246 -4.5639014 0.06676529 -5.6896205 -0.8096949 -0.5646253 -1.3390411
-2.5489566 0.06282596 -0.78425556 -0.23111722 -3.4409537 -0.2684082 -0.20551975 -3.5446622
-2.7530007 0.99338543 3.1420977 0.0531201 -3.1038463 1.0037332 -1.7300959 -4.874833
-0.7674774 -0.07560059 -4.035553 -3.4132576 -0.028084464 -1.19133 -2.0393686 0.13722517
3.0887983 -0.019435657 -0.045155793 0.2264011 -0.7368378 1.110546 3.1019182 0.19611028
-2.2403507 -1.1872798 -2.3119638 1.2781818 -3.5940275 -1.5345546 1.2930852 -2.3073816
-8.047754 -1.2644863 -12.143558 2.414052 -3.4153173 -5.646955 -5.057466 -4.684811
-2.4690542 0.017697483 3.8589091 0.7599214 1.8200293 0.423401 0.029585063 -9.349804
-2.474706 -2.75034 -10.120997 -0.020643234 -6.354401 -2.0286033 0.24891439 2.6901605
1.2152052 0.011609152 -1.5994184 -0.040622994 -11.811999 0.08761786 -11.155594 -1.9729019
0.22585748 -2.3210099 0.8896845 0.17097938 -4.6539564 -3.9220977 -0.00034794313 -5.9496036
0.017884322 0.13182315 -5.4821076 0.5551411 -2.9539638 1.6545565 1.6659181 -0.60287964
-0.88714737 -0.21976694 -0.37917838 -0.1392146 -0.3835968 -2.7241461 -0.8189709 5.606976
-5.792519 -4.576561 1.9482841 0.80123234 -0.05204163 -0.76665545 1.6486992 0.34683824
-2.3570743 -5.132825 -6.883879 -7.427893 -4.1578274 3.4534807 -4.3643503 -4.2748
-10.965828 -0.08322652 -12.707151 0.90333515 -2.6998425 -10.885289 -0.019812971 -4.356393
-1.5629914 -9.006333 -1.8720751 -0.06993594 5.401846 -2.0677557 -0.6450567 -2.9462988
-2.9602768 -0.09268141 0.54658496 0.036304962 -1.3511949 0.023157608 -4.91347 1.5998316

join_features_NN.0.bias f4 [32]
00000000: f983 84c0 513a edbe 51a9 50c0 af22 9dc0
00000010: 94ca 8cc0 8e96 a140 07cf 2ec1 ad1b 4440
00000020: eb61 c0c0 586f d6be 5fc3 e73f 2e77 9cc0
00000030: 0004 40c0 55d1 a2bf 1f5b 11c1 25ca c4c0
00000040: b2c1 00c1 de3d 54c0 1fb8 33c0 cac5 2340
00000050: 4419 61c0 57fb 7240 eb86 9cc0 2ade fabd
00000060: 86cd 3bc0 bf7b 67c0 2153 d2c0 53de afc0
00000070: 4dc0 99c0 732b bdc0 9593 75c0 8644 78be
-4.14111 -0.46333554 -3.2603343 -4.910484 -4.399729 5.0496283 -10.925544 3.0641892
-6.011953 -0.41881824 1.8106498 -4.8895483 -3.0002441 -1.2720133 -9.084746 -6.149676
-8.047289 -3.316276 -2.8081129 2.558947 -3.517167 3.7965906 -4.8914695 -0.12249406
-2.9344192 -3.6169279 -6.5726476 -5.495889 -4.804724 -5.911554 -3.8371327 -0.2424489

join_features_NN.2.weight f4 [32, 32]
00000000: ed3c a33f bb12 e83f 524c cd3f 3dd6 ce3e
00000010: 56a9 c4bc 4e55 39c0 6390 1b40 a0c5 d63f
00000020: 43c8 283f 90ef 12bd 4afa 7f3f 8166 0cbe
00000030: 22dd b53e 9f58 d73f 22fe 0ac0 2560 b13f
00000040: 1b09 6740 3eff 903f a43c 22bf 4313 1040
00000050: 499b 8ebe 7df0 1cc0 6b43 c7bf ff94 91bf
00000060: bf95 bdc0 bae4 0640 d36a 3f40 180c 11c0
00000070: 7a0e 1040 491c 7cbe fe45 9ebe 537a 88bd
00000080: 6fb9 cb3c 61c2 87bf 3b5a 0640 28f3 95c0
00000090: c2df adbf 4d1c a83e 7e1c e2be 8e3d f13d
000000a0: f2b8 fabf 49eb 6fbe 2a6d 72c0 279a a2bf
000000b0: 2ceb 0440 3c70 dcbf f919 c5bf b542 993f
000000c0: 7d30 c5bf f312 3abf 5426 54bf 6e92 fcbc
000000d0: bbca 65bd d140 37bf 519a d5bf aab2 24c1
000000e0: ffde ca3f b68c 083f 9bd1 41bf 59b2 d0bf
000000f0: 3c3d dfbf 255e 40bf f365 e6bd 2fc5 133c
00000100: 4514 38c0 bbff c9bd 6978 173e 3a7b fdbf
00000110: ecdc 9f3c 1ae3 843e 90d9 5fbf 18fd ce3d
00000120: fa5f a1bf c68b b7bd 92d2 a4bf 6df3 c3be
00000130: ab01 5abf 3cb1 97bf ac53 3ac0 4efa cbbf
00000140: a57a 47c0 5aaf b8bf 8852 c13e 455c 57bf
00000150: cf10 683e 25ee 2fc0 2358 43bf 5b18 47c0
00000160: 5c3d 1dbf 9045 57bf 8d5c dfbf a980 b9be
00000170: 0eac 5fbf 6615 8dbf 50de 3ec0 1571 713d
00000180: 7904 80c0 55d2 a8bf 7d34 51c0 6040 3e40
00000190: e2d6 83c0 0b85 92bf 1d34 843f e8d1 e8bf
000001a0: f239 22bf fa6c 113e f7bd 65c0 68d7 32bf
000001b0: 9bf3 11c0 87eb 9e3f acd6 b73e 07fc b3bf
000001c0: 20f6 adc0 4ca5 91bf 53eb d03f 30db 35bf
000001d0: 0d20 243f 506c 383f d32f c13f 3c66 0f3f
000001e0: bd48 e3c0 dbac 253e 0c63 9040 85ae 1940
000001f0: 3526 ea3e 002c 23c0 e1d6 8bbf 3def b8bd
00000200: 946b 14c0 26d3 95bf 8c1f 7ebf 30ae 33c0
00000210: 2637 c3bc ea16 34c0 9327 4cbf 255d 74bf
00000220: e0b4 3f3e 08f6 de3d 59f4 cabf ee4b f23d
00000230: 36b9 90c0 2fde 79bd 2cb2 763d d5cf 1dc0
00000240: 3d26 2bbe 113e c4bf 1e48 5d3c b66d 32c0
00000250: 0f04 3fbf 6266 04c0 c278 4cbf 9a7a 23c0
00000260: 68f1 07c0 4705 91bf 5e52 c7bf 8961 55bf
00000270: f18d 58bf df05 07c0 ea23 febd fb3f 2d3c
00000280: ca85 fbbf 0c5c 05bf 51cd 80c0 527c d5bf
00000290: f1d8 2bc0 2562 0bc0 42fc 6b40 ce79 b0c0
000002a0: 16bd 883e e9c1 1bbe 5852 15bf 5623 67bf
000002b0: 3063 a0c0 b4d9 6fc0 291a bcbd 73e7 6cbe
000002c0: 5c94 d2bf 5dbd 7c3e a04f 33be 3cbb 30c0
000002d0: 5f00 81bf f35b b9bf 3602 18be f029 46c0
000002e0: f0cf fa3f 93d8 27c0 8267 bcbf df3e 2bbf
000002f0: 0d5d ad3f 6995 6bbf a9c8 343f c4cb 2fbd
00000300: 7da4 18bf e2f8 e1bf 3760 61c0 58cb 58c0
00000310: 8105 72be 3a68 e83f 0a29 43c0 2d9a 44c0
00000320: 8523 39bf 9a8c 023d be45 3ebf 0093 b23f
00000330: fa81 37c1 9699 aec0 df3c cac0 b8a5 7abf
00000340: 11b9 2840 d4fd 8cbf 16e2 a5bf bcb1 8dc0
00000350: 0ef1 d53c 28d1 98c0 4bcc fabf 9e97 92c0
00000360: 70b4 b9c0 cc3a d03e 9514 e6bf 7939 ed3e
00000370: 9682 2dc0 5727 79bf 748e f4bf 7aa9 473d
00000380: 5487 3d40 9aed de3e a919 a4c0 267e 2bc0
00000390: c3e5 39c0 a31e 453f 0fd3 0140 cfb9 dcbf
000003a0: 7e3b a23f 4864 b2bd b849 dd3f f250 ca3e
000003b0: c34b 2fc0 9862 99c0 ebf2 db3e addc cebf
000003c0: e552 0e3d 9b1e d7bf ffc8 32bf 28ac 2a40
000003d0: c416 64c0 c3b2 7c3f 368a 713f 2dff c4bf
000003e0: 9cf0 adbf d91d 0b40 cb53 5ec0 b3f0 0bc0
000003f0: 5bc2 14c0 ac47 3a3f 9a94 1e40 a598 ca3d
1.2752968 1.8130716 1.6038916 0.40397826 -0.024006527 -2.8958316 2.4306877 1.677906
0.65930575 -0.035872996 0.99991286 -0.13710977 0.35520273 1.682392 -2.171761 1.3857466
3.6099308 1.1327894 -0.6337378 2.2511756 -0.27852848 -2.4521782 -1.5567449 -1.1373595
-5.9245296 2.1077104 2.990895 -2.2663631 2.2508836 -0.24620165 -0.30912775 -0.066639565
0.024868695 -1.0606195 2.0992572 -4.685932 -1.358391 0.32834092 -0.44162363 0.11779319
-1.9587691 -0.23429598 -3.7879128 -1.2703294 2.0768538 -1.7221751 -1.5398551 1.1973482
-1.5405422 -0.72685164 -0.82870984 -0.030831542 -0.056101542 -0.71583277 -1.6687719 -10.293619
1.5849303 0.5333971 -0.7571046 -1.6304427 -1.7440562 -0.75143653 -0.11249914 0.00901918
-2.8762372 -0.0986323 0.14792027 -1.9803231 0.019514523 0.25954515 -0.8744135 0.101068676
-1.2607415 -0.089622065 -1.2876761 -0.38271657 -0.85158795 -1.1850963 -2.911357 -1.5935762
-3.1168606 -1.4428513 0.3775828 -0.8412517 0.22662662 -2.7489102 -0.7630636 -3.1108615
-0.6142175 -0.8409052 -1.7450119 -0.36230972 -0.8737191 -1.1022155 -2.9823189 0.058945734
-4.000546 -1.3189188 -3.2688286 2.9726791 -4.119981 -1.1446851 1.0328404 -1.8189058
-0.6336967 0.14201728 -3.5897195 -0.69859934 -2.2804935 1.2415627 0.3590597 -1.4061288
-5.4362946 -1.137857 1.6321815 -0.7103758 0.64111406 0.7204027 1.509272 0.5601537
-7.102629 0.1617922 4.5120907 2.4012768 0.45732275 -2.5495605 -1.0924951 -0.09030006
-2.319066 -1.1705062 -0.99266887 -2.8075066 -0.023830008 -2.8138986 -0.79747885 -0.9545463
0.18721342 0.108867705 -1.5855819 0.11830889 -4.5226088 -0.061002906 0.06022851 -2.46581
-0.16713805 -1.5331441 0.013505964 -2.7879462 -0.7461557 -2.068749 -0.7987176 -2.554358
-2.1241093 -1.1329736 -1.5572011 -0.8335195 -0.84591585 -2.1097333 -0.12409194 0.010574336
-1.9650204 -0.5209358 -4.025063 -1.6678565 -2.685116 -2.1778653 3.6872716 -5.5148687
0.2670676 -0.1521069 -0.5832877 -0.90288293 -5.012108 -3.7476625 -0.09184677 -0.23135166
-1.6451526 0.24681611 -0.17510843 -2.7614279 -1.0078238 -1.4481186 -0.14844593 -3.0963097
1.9594707 -2.6225936 -1.4719088 -0.6689281 1.3544022 -0.92024857 0.70618683 -0.042918935
-0.5962599 -1.7654078 -3.5214975 -3.387411 -0.23634912 1.8156807 -3.0493798 -3.0719101
-0.72319824 0.03187237 -0.7432517 1.3951111 -11.469233 -5.4562483 -6.3199306 -0.97909117
2.6362956 -1.1014962 -1.2959621 -4.427946 0.02611592 -4.775532 -1.9593595 -4.581008
-5.803276 0.40669858 -1.7975031 0.4633291 -2.7110953 -0.9732565 -1.9105973 0.04874561
2.9613848 0.4354065 -5.1281323 -2.6795745 -2.9046485 0.7699987 2.028507 -1.7244204
1.2674406 -0.087105334 1.7288122 0.3951488 -2.7389991 -4.7932854 0.4295877 -1.6161095
0.034747023 -1.6806215 -0.69837946 2.6667576 -3.5638895 0.9871027 0.9435152 -1.5390373
-1.3589053 2.1736968 -3.4738643 -2.186566 -2.3243625 0.7276561 2.47782 0.09892396

join_features_NN.2.bias f4 [32]
00000000: cb4d 79c1 35e7 ecbe 5cef ccc0 813c 89c1
00000010: 29aa cfc0 6934 28be 6c5d 09c1 e532 a4c1
00000020: 0c91 7ac0 c69c bcc0 e738 59c1 a8fc 16c1
00000030: 5974 0ac1 9d0d 5cc1 4430 a3c0 d452 85c0
00000040: 400f 0bbf 4a3d b2c0 043d 7ec1 7841 11bf
00000050: 1b7a 6ec1 53bf c9c0 9ebc e0be c0d6 efbe
00000060: f32f b8bf cc87 99c0 765f a9bf 8b2a f2c0
00000070: a1f8 84be 5f1d 45c1 f2dd f1bf 6c1d 5dc1
-15.581492 -0.46270147 -6.4042187 -17.154543 -6.4895215 -0.16426243 -8.585308 -20.52485
-3.915103 -5.8941374 -13.576392 -9.436684 -8.653405 -13.753324 -5.099642 -4.166361
-0.54320145 -5.5699816 -15.889896 -0.5674052 -14.904811 -6.304605 -0.43893903 -0.4684353
-1.4389633 -4.797827 -1.3232257 -7.567693 -0.2597094 -12.319671 -1.8895857 -13.819683

cons_representation_NN.0.weight f4 [32, 64]
00000000: 8f55 47bf 516f 22c0 3f26 98be b36a 0abf
00000010: 6e07 19bf a1c7 2fbc c49a babf 61c8 5abf
00000020: 8bcf c6bf 1346 92be 48c9 5abe 30ad 84bf
00000030: 3124 8b3e 47c4 3abf 6ca8 7b3f 064a 9bbe
00000040: 500d e4be dce6 51c0 de4b e2be 5510 ce3e
00000050: 3e7f 49bf 5cf9 5fbf 0a4c 97be cb02 b23d
00000060: af1c 913f 0239 d13e 42dd 67bf 1161 d23e
00000070: 7925 05c0 071d 0ac0 b89c d8be 9be5 6bbe
00000080: 7a6e 1ec0 8068 c53f a027 6ac0 f653 f23d
00000090: df6c ed3e d817 6ec0 e0bf a4bb 34c2 80c0
000000a0: 6a33 f13c 60d0 b2bd 3b23 dbc0 3849 65bd
000000b0: 6f96 a2c0 79cb 2640 70c1 a73c 7e52 01bf
000000c0: d02b b83d 4e8a e13e 0432 b13e 26a2 8bbd
000000d0: 8b64 1b3f 834e f23f 195a 6abe 66f2 8740
000000e0: f6a5 e2be 00f5 2bc0 aa44 9cbd 8aff 8ebf
000000f0: 921b d93d 4c8c aebd d80d afbe c492 6dbd
00000100: e68e b8be 297a 4ebf 5865 7d3e b5cb 9ebe
00000110: cb61 19bf b646 c9bf 21b5 8dbd ba20 1abf
00000120: 88ab 773d 38c0 a6bd 226a f2bd 6e3e 01bf
00000130: 1449 95bf 1262 253d 0591 95bf d9b0 893e
00000140: 874a d3be c9d9 01c0 26d7 ce3d e638 2cbf
00000150: 9918 8bbe 7cdd a53e 65b3 0f3f 3855 323c
00000160: 45e5 3abf 4f04 9fbc 8d0f dcbe c3cc 8bbf
00000170: ba32 1ebf 3057 50be ec50 d8be 1740 8abe
00000180: d7b0 6dbd f891 6ac0 8c59 eebf 3084 80bd
00000190: 3a8a eebf 6251 85bf c849 503d d4ae 13c0
000001a0: e32f babb 20f2 593c 14a2 9cbf e6d9 d8bd
000001b0: 1126 15c0 0304 ccbc de2c d7bd aad6 08c0
000001c0: 8732 95bc e885 643e 1460 ddbd b4c9 ebbd
000001d0: 216b 7fbe 9375 ddbd 4c6d 12c0 6506 8d3d
000001e0: 65a2 c9bf ad1f 043e 44ef a53d 420e 1abf
000001f0: 2c7a c6bd cefc be3d 83c4 04c0 5830 f53d
00000200: d0a4 8f3a fa46 7abe 48f5 0bbc 7684 f6bc
00000210: 7870 3ebe f87b 4fbc 52c4 84be b232 eabd
00000220: 875d 313b 0d86 18bb 022c fabd 2c0c f8bd
00000230: f603 1fbe 4227 19be 0e1b c7bd 14ba 0e3d
00000240: f1e2 68bc 00b6 78bc 241b 91bc 653b 7b3b
00000250: b84c 6fbd 1971 10be 6268 93bd 907f d43c
00000260: 2b0e 2dbe f2a5 313d 1d2d 08bb c12f 2abe
00000270: 800e bfbd bc77 bcbd 4488 443d 64c3 6a3c
00000280: 7998 29be 4cb5 1dbe d4d3 edbc 84e7 a3bd
00000290: 1ab5 3dbe e3ea 66be fc9f af3d a3aa e9bd
000002a0: ed60 60bd f653 923d 01a4 19be 4828 da3c
000002b0: 1c3e bdbe 95db 12be c0a2 cd3c 3c3f e6bd
000002c0: 9994 36bd ccc9 60bd 7ab5 f5bd 38f9 3e3d
000002d0: ea12 ce3c d45e 77be a939 28be d378 c6bd
000002e0: 6089 e0ba 04ba e6bd 68d7 92bd 2ae4 80be
000002f0: e8ac dabd 0042 cabd 8fa4 1fbe c012 bf3b
00000300: 2bd0 07be 3e64 c2bd e0a9 86bb ef04 4abe
00000310: c7ea 4cbe f366 38bd 5b06 a1bd 5bdc 32bd
00000320: 041b 4cbe 834d 96be 43b5 a9bd 67fa 19be
00000330: 6de3 f63c 6e56 763b 6660 713b 1a9a debd
00000340: 6515 13bd 3c09 89bc e8b8 4bbd 68f4 4ebe
00000350: a0fb aa3c 7121 9c3c c980 1fbe fedd fe3d
00000360: a6a9 93be a09c 503d d755 42be 022a 15bd
00000370: 2084 31be 034c c73c 708d 7cbd f1e9 13bd
00000380: de78 1bbe cf63 82be b4b9 c4bd 20f5 21bd
00000390: ac66 abbe 5346 3ebe 3e0a ec3d 48bf 92be
000003a0: 5490 5bbd 042f eebd 751e cebd 801d febd
000003b0: 3f29 42be 9d58 06bd b272 93bd 19df 92bd
000003c0: b052 23bd 727d 61be 6429 c0be e059 7e3d
000003d0: a0a1 37be a95b 92bd 1ad2 1fbe 841b 153d
000003e0: 4b51 94be bdc7 aabd e8fb febd 871a 94be
000003f0: 2285 993d e034 8b3b 400e 6abe 88cc d6bc
-0.7786493 -2.5380442 -0.2971668 -0.5406906 -0.5977696 -0.010728748 -1.4578481 -0.85462004
-1.5532087 -0.28569087 -0.21365845 -1.0365353 0.2717605 -0.72955745 0.98303866 -0.30329913
-0.44541407 -3.2797155 -0.44198507 0.40246835 -0.7870978 -0.8748987 -0.295502 0.08691939
1.1336879 0.40863806 -0.9057199 0.4108968 -2.0804121 -2.1580217 -0.42307067 -0.23036806
-2.475493 1.5422516 -3.6586685 0.118324205 0.46372125 -3.7202053 -0.005027756 -4.0237064
0.029443461 -0.087311506 -6.8480506 -0.05597803 -5.0808635 2.606169 0.02047798 -0.505165
0.089927316 0.4405083 0.3460847 -0.06818037 0.6070029 1.893021 -0.22885932 4.2483397
-0.44267243 -2.6868286 -0.07630284 -1.1171734 0.10600962 -0.08522853 -0.3419025 -0.058001295
-0.36046523 -0.8065515 0.24745691 -0.3101479 -0.59914845 -1.5724704 -0.06919313 -0.60206187
0.06046632 -0.081421316 -0.118366495 -0.50485885 -1.1662927 0.04037673 -1.1684881 0.26892737
-0.41267797 -2.0289176 0.1009963 -0.6727432 -0.27167204 0.32395542 0.5613311 0.010884576
-0.7300609 -0.019411234 -0.42980614 -1.0921863 -0.6179615 -0.2034576 -0.42249238 -0.27002022
-0.058029976 -3.6651592 -1.8621078 -0.06275213 -1.8635933 -1.0415461 0.050851613 -2.3075457
-0.005681978 0.013302356 -1.2236962 -0.10588436 -2.3304484 -0.024904257 -0.105066046 -2.138102
-0.01821257 0.22316706 -0.10809341 -0.11513081 -0.2494321 -0.10813441 -2.287921 0.06885985
-1.5752684 0.12902708 0.08102277 -0.60178006 -0.09691271 0.093255624 -2.0744941 0.119721115
0.0010959152 -0.24441138 -0.008542366 -0.03009246 -0.18597591 -0.012663834 -0.2593103 -0.114354506
0.0027063803 -0.002327326 -0.12215425 -0.121116966 -0.15528855 -0.14956382 -0.09721957 0.034845427
-0.014214263 -0.015180111 -0.017713137 0.0038334962 -0.058422774 -0.14105643 -0.07197644 0.025939733
-0.16899936 0.04337115 -0.0020778843 -0.16619779 -0.093289375 -0.09202525 0.047981516 0.014328811
-0.1656207 -0.1540119 -0.029031672 -0.080031425 -0.18526116 -0.2255054 0.085754365 -0.114094995
-0.054779936 0.071449205 -0.15003969 0.026630536 -0.36961448 -0.14341576 0.02510202 -0.1124253
-0.044575308 -0.05487995 -0.119975045 0.046624392 0.025155503 -0.24157268 -0.16428246 -0.09691014
-0.0017130785 -0.112659484 -0.07169992 -0.25174075 -0.106775105 -0.0987587 -0.15590118 0.0058310926
-0.13263004 -0.09491776 -0.004109606 -0.19728445 -0.20011435 -0.045020055 -0.0786254 -0.04366718
-0.1993218 -0.29356012 -0.08286526 -0.15036927 0.030137742 0.0037588137 0.003683114 -0.10869236
-0.035909075 -0.016728036 -0.049736887 -0.20210421 0.020871937 0.019058915 -0.15576471 0.124446854
-0.2884037 0.05093062 -0.18978058 -0.036417015 -0.17335558 0.024328237 -0.061658323 -0.036111776
-0.15182826 -0.25466773 -0.096057326 -0.03954041 -0.3347677 -0.18581514 0.11525391 -0.2866156
-0.05360444 -0.11630061 -0.10064403 -0.124079704 -0.18961047 -0.032799352 -0.07199611 -0.07171459
-0.03987378 -0.2202051 -0.3753158 0.06209743 -0.17932749 -0.07146389 -0.15607491 0.036403194
-0.28968272 -0.08338878 -0.12450391 -0.2892649 0.07496096 0.0042482466 -0.22856998 -0.026220575

cons_representation_NN.0.bias f4 [32]
00000000: fa5a 3ac0 9078 2dc0 5adb acbe f939 b1be
00000010: f565 f5bf 03b8 99bf 091e 8ec0 9847 b2be
00000020: afec c3bf af2f 7fbe 5e0f 9fc0 c0f0 d2bf
00000030: d117 ecbe 1c8d 94bf 0f8e 503d a64e 67be
00000040: 610f 02c0 d381 cabe fed3 80bf 808e 5dc0
00000050: 3189 cdbe 943a 79c0 3b07 f13d cae9 b73f
00000060: 3a9d 6dc0 4174 82c0 7e12 1340 3551 2ec0
00000070: a5b9 8cc0 5a57 b8be 3581 19bf eb80 42c0
-2.9118028 -2.7104836 -0.33761102 -0.34614542 -1.917174 -1.2009281 -4.4411664 -0.34820247
-1.5306605 -0.24920534 -4.970626 -1.6479721 -0.4611192 -1.1605563 0.050916728 -0.22588596
-2.0321887 -0.39552173 -1.0064695 -3.4618225 -0.4014373 -3.8942003 0.11768957 1.4368222
-3.7127213 -4.076691 2.2980037 -2.7237065 -4.3976617 -0.36004144 -0.5996278 -3.0391185

vars_representation_NN.0.weight f4 [32, 64]
00000000: 50d6 6bc0 72ef 1740 09af 1040 045c 48bf
00000010: 860b 4ac0 de28 92bf 91f8 233f 5567 24c0
00000020: 1dc6 98bf c8aa 62c0 4893 8dc0 9855 0d40
00000030: ed01 80c0 34cd c6c0 762a 83c0 f4b5 893f
00000040: ab8c 9e3e c9c4 d3bf a211 e03e 667b 1ec0
00000050: ffc5 92bf 1c07 56c0 81cf dcc0 9846 8fbd
00000060: 7c6d e4c0 72bc 8e40 15ce 533f 310a 71c0
00000070: 5c82 d9bf fadc 263f 1061 503f 22b9 fcbf
00000080: 08f6 25c0 70f3 2ec0 fa8b 0240 b8af 473f
00000090: 5f84 2f41 6d81 ccc1 819d 33c0 f2d0 43c0
000000a0: 15ac 5b3f 5420 ccbd 3914 0bc1 6015 96c0
000000b0: 54bd 0741 b14d 3c41 805b d83c 8530 6cc1
000000c0: 1a9b bac0 67c0 9bc0 a906 41c1 9090 2ebd
000000d0: fb6f b0c1 884d acc0 a784 bfbc 0a4f 8ec1
000000e0: e958 f2bf bcb2 bbbd 15ef aec1 47d4 203e
000000f0: 804e de3e 75ab 39be 7418 9b40 092b 0bc1
00000100: f9ef 7dbf 87ba 9440 5a92 9f3f 4311 1fbf
00000110: 43be 2cbf 74ec 72bf a0d0 d1bb 6d16 67c0
00000120: eefb cdbf f25d 0fc0 fe6d 70c0 64f4 a7c0
00000130: def6 85be 575d c1c0 c910 04bf a0cd 4bc0
00000140: 09e5 843e b983 c3bf 8f75 f63e 1f82 66c0
00000150: 23a2 01bf 8fe6 a83f 592c de3f a4f7 823d
00000160: 0e93 fdbf 702b 55c0 bfbb 2dbf 56fd 47c0
00000170: 3143 86c0 8bc9 29bf 0523 acbd 0a90 973f
00000180: 8ee8 edc0 881e 48c1 2a83 ffc0 92ec 8ec1
00000190: 3f50 ddc0 4e1d 8d40 6073 85c0 a8f5 b13f
000001a0: cd56 21c1 f0da 043c d094 0ac1 4f5c 5c40
000001b0: e228 44be ee36 31c1 0428 72bd c4ff 38c1
000001c0: fac0 48c1 4801 1a40 6166 19c2 2fb3 a63c
000001d0: 812d 9cbe f2ff 8cc0 976a e63f b5ed 76c1
000001e0: fad2 c93d ab2b 1cbc 4ffc 71c1 594d 423e
000001f0: b501 5540 bd18 a83e 7c54 1041 1838 5440
00000200: 5a68 b1c0 eb49 19c1 0cae 19bf 0537 4ac0
00000210: c706 2dc0 c12b 69c0 f329 7a40 f7be d6c0
00000220: 4a68 0dbe 3435 89bf 99ea 65c0 04b1 d7c0
00000230: b6d1 a4bf aca5 13c1 b1b1 62be faa5 a8c0
00000240: b495 8dbe 2625 e2c0 052d 36c0 78d1 1b3f
00000250: 0065 02bf 925a 14bf 7e74 c7be 412a e4bd
00000260: a025 89bf e9f3 86be 207a 343e caae f83f
00000270: 68a6 37c0 1ece 9bc0 48fe 743e f6f0 c8c0
00000280: 65d2 0fc1 d85d b1bf 6066 e2c0 e21a dac1
00000290: 467b 93c0 3a46 2ec0 6523 4ac1 a759 7ac1
000002a0: fc61 90bf 40c0 76bb deca dac1 aae5 a3bf
000002b0: 8376 0ec0 dd7a ccc0 7283 9c3d 111a fac0
000002c0: 49cc 0341 8a89 9fc1 fd27 01c2 db68 d03d
000002d0: f12b 24c1 a773 2cc0 9167 12c0 8ad0 3fc1
000002e0: 623d e340 4498 833d e178 fac0 686e 66be
000002f0: d120 3bc0 631f 9abe 5ff9 01c1 4261 6fc1
00000300: 46c1 1e40 9358 91c0 8e29 cdbf 0d9d f03f
00000310: 061e 1f40 1ab5 83c0 7905 bd3f f5d2 bec0
00000320: 30ce 3040 cf8e d7bf b18b e3c0 d0aa 0d3f
00000330: 7ac6 ccbf cca9 a7bf 8cdb e0be b075 21c0
00000340: a542 86bf 7c35 4cc0 e680 b4bf 1ff5 6d3f
00000350: 3665 9b3f ec0b a7bf eacb 9840 7a10 863d
00000360: a86a dbbe b205 b93d fb15 8f40 ac16 fa3e
00000370: ab2c 6dc0 b253 c5c0 641e 36be 313f 1940
00000380: 5253 6ec0 1938 1341 86e9 afbf 8f19 003d
00000390: ab49 9340 5ecb a1c1 706e 26c0 728f 4dc1
000003a0: adc4 99c1 7a39 95bd 858e c7bf a381 a9c0
000003b0: ef2c 5040 2ffd d2c0 7422 e03d eb6e 19c1
000003c0: ff74 76bf 3dd5 4bc1 efbe 3540 407a 89bc
000003d0: 284b ca3f 3c60 05c1 91e8 a8bb 73ad 3b41
000003e0: 2f39 c4bf 2460 dbbd 9e0e c1be 04fe abbe
000003f0: 0a75 10c0 ec02 1cbd 5c7d 71c1 9f08 5ac1
-3.6849556 2.3739896 2.2606833 -0.78265405 -3.1569533 -1.1418722 0.6405116 -2.568807
-1.1935459 -3.5416737 -4.4242287 2.2083492 -4.000235 -6.212549 -4.098933 1.0758653
0.30966696 -1.6544429 0.43763453 -2.4762816 -1.1466674 -3.344184 -6.90033 -0.069958866
-7.138365 4.4605036 0.8273633 -3.766247 -1.6992908 0.65180933 0.81398106 -1.9743998
-2.5931416 -2.7336082 2.0397935 0.780025 10.969817 -25.563196 -2.8064883 -3.059628
0.8580945 -0.099671036 -8.692437 -4.6901093 8.483723 11.768968 0.026410818 -14.761846
-5.8314333 -4.8672366 -12.064126 -0.042618334 -22.054678 -5.3844643 -0.023378683 -17.788593
-1.8933383 -0.0916495 -21.86674 0.15705977 0.43419266 -0.18131812 4.846735 -8.698007
-0.99194294 4.6477695 1.2466538 -0.62135714 -0.67477816 -0.9489205 -0.006403044 -3.6107438
-1.6092508 -2.240109 -3.7567134 -5.248583 -0.26164907 -6.042644 -0.5158811 -3.1844254
0.2595599 -1.5274574 0.48136565 -3.601692 -0.50638026 1.3195361 1.7357284 0.0639489
-1.9810503 -3.3307762 -0.678646 -3.1248374 -4.195702 -0.66323155 -0.08405117 1.1840832
-7.434638 -12.507454 -7.984761 -17.865513 -6.9160457 4.409827 -4.170334 1.3903093
-10.083692 0.008108839 -8.661331 3.443134 -0.1915622 -11.075911 -0.059120193 -11.562443
-12.547113 2.4063282 -38.34998 0.020349113 -0.30503467 -4.4062433 1.8001279 -15.433034
0.09854694 -0.009531896 -15.124099 0.18974818 3.3282292 0.32831374 9.020626 3.3159237
-5.543988 -9.580546 -0.600312 -3.1596081 -2.7035387 -3.6432955 3.9088104 -6.710811
-0.13809314 -1.0719361 -3.5924437 -6.7403584 -1.2876499 -9.227947 -0.22138096 -5.270261
-0.27653277 -7.0670347 -2.8464978 0.608665 -0.50935364 -0.579507 -0.38956064 -0.11140872
-1.0714607 -0.26357964 0.17624712 1.9428341 -2.8695316 -4.868911 0.23925126 -6.279414
-8.988866 -1.3856764 -7.074997 -27.263126 -4.608798 -2.7230363 -12.633641 -15.646888
-1.1279902 -0.003765121 -27.349056 -1.2804463 -2.2259834 -6.389998 0.07642259 -7.815682
8.237374 -19.942158 -32.28905 0.101762496 -10.260728 -2.6945589 -2.2875712 -11.988413
7.101243 0.06425527 -7.8272557 -0.22503054 -2.923878 -0.3010207 -8.123382 -14.961245
2.4805465 -4.5420623 -1.6028306 1.8797928 2.4862075 -4.115857 1.4767295 -5.9632516
2.7625847 -1.6840457 -7.110802 0.55338764 -1.599807 -1.3098693 -0.439175 -2.522808
-1.0489088 -3.1907644 -1.4101837 0.9295215 1.2140262 -1.3050513 4.774892 0.065461114
-0.4285481 0.090342894 4.471433 0.48845422 -3.7058513 -6.1664667 -0.1778503 2.394482
-3.7238355 9.201196 -1.3743141 0.031274375 4.6027427 -20.2243 -2.6004906 -12.847521
-19.221033 -0.072863534 -1.5590369 -5.297075 3.2527425 -6.593406 0.109440714 -9.58958
-0.9627227 -12.73956 2.8397787 -0.016781926 1.5804186 -8.335995 -0.005154677 11.729846
-1.5329951 -0.10711697 -0.37706465 -0.33592236 -2.2571435 -0.038088724 -15.093105 -13.627105

vars_representation_NN.0.bias f4 [32]
00000000: e7dd 80c0 ec1e 41bf e0be b740 e0ac 2dc0
00000010: 36e0 9a41 074a 46bf b073 993f c5b7 c9c0
00000020: 5552 2241 159a 8541 1145 69c0 2f66 a8c0
00000030: a36b 8f40 74e5 f03e 04ff 6bc0 be72 b93d
00000040: b3bf bdc0 343a c240 0e38 bb40 117e 5f3f
00000050: 6aa2 b4c0 8157 17c0 02dd e73f 90cb 2ec0
00000060: 0351 4d40 12c2 ec40 1729 8d40 9cba 4541
00000070: 99b7 7740 613b a0c0 ea2d 11c1 2e3a e0c0
-4.0270877 -0.7543781 5.74205 -2.7136765 19.359478 -0.77456707 1.198843 -6.303683
10.145101 16.700235 -3.6448405 -5.2624736 4.4818892 0.4705006 -3.68744 0.090550885
-5.929651 6.069605 5.8505926 0.8730174 -5.644826 -2.3647158 1.8114321 -2.7311745
3.2080696 7.39869 4.411266 12.358059 3.870581 -5.0072484 -9.0737095 -7.007102

output_module.0.weight f4 [32, 32]
00000000: fac3 ffc0 902f 1041 38a4 8140 dd54 28c0
00000010: 3e61 06c1 f2d2 92c0 8c8b 0540 cd69 46c0
00000020: 128a 6340 3cd3 9dc0 1674 c140 2fc2 8dc0
00000030: 6669 b6c0 cd89 1241 d143 d840 ab0a 9f40
00000040: 1410 9340 7242 4ac1 8407 6e40 36ff 4540
00000050: ed05 17c1 04b7 24c0 32fe 89c0 aad9 2141
00000060: 951b 0241 2889 0bc1 8f6f 6d41 f1e9 3e41
00000070: 4499 b140 60ce 88c0 39ee 3c41 047b 8f40
00000080: d8f8 92c0 1788 a2c1 ec8d 82c0 7fcf c9bf
00000090: 885d 4dc1 e3bc 13c0 eac0 0c41 b7b3 93c0
000000a0: a9a4 dcbf 42a9 2840 2af5 3140 8916 24c1
000000b0: c84f 48c1 f362 7b3e a100 d3be 50c1 c2c0
000000c0: a1d3 12c1 fa2a ddc0 e786 4840 bf6c 1441
000000d0: db1d 14c1 447e c7be 879c c3bd 27ed a740
000000e0: aaf9 253f d887 1ac1 ffb8 063f 8387 21c1
000000f0: 9620 bfc0 34a8 a740 ebbc b340 76fa 85c0
00000100: 6408 8b3f 6db7 33c0 4407 a6bf 0425 5ac1
00000110: ad43 8940 617c 40c0 0d72 0241 c93a ab3f
00000120: 4dc5 bd3f c00c d03e 52a7 e83f 82d1 c8c0
00000130: 7232 09c0 a652 1ebf f68b dbbf fbfb 1ec0
00000140: ee57 4440 8275 65c0 5c44 c6bf 3b41 9dbf
00000150: 9dfa 57bf 9f71 06c0 eab3 9a40 d133 4540
00000160: 977a 8bc0 9008 87bf 4b47 5540 71b7 0340
00000170: acc6 c5c0 8ef8 4540 86a3 f5bf c0ea 703e
00000180: a687 e0be 9798 72be 7f69 f840 4fc0 1ac1
00000190: 5cda 07c1 a695 82bf 7d48 a640 879c cdc0
000001a0: 4ab5 f7c0 e2a2 41c1 8926 ae40 40cb 4f40
000001b0: 5c67 95bf ac76 0e40 b6b2 01c1 2b99 bb3f
000001c0: eb5e 8240 2ed0 37c1 f658 57bf 1676 fec0
000001d0: 7c70 e0bf 9148 d7c0 71c4 32c1 29e8 f140
000001e0: 3b8f fb3f fc7f bfc0 daa6 19bf 706d b4c0
000001f0: f78a 4340 8010 3840 a24d 13c1 253d 2bc1
00000200: 04e7 11bd bfaa 003f 2a8d 97bf dce5 2c3e
00000210: db85 32c0 0a17 18c0 ac4f 0640 d2db 0fbe
00000220: 0c6e ee3d c09e 4bbf e1be 1b3f 5ac1 4fbd
00000230: 0646 c83e 4049 8bbf 7c53 ea3e 6fc2 d03d
00000240: 60f3 503e d767 ddbc 55b1 243f ec91 ffbc
00000250: c3a0 99c0 cca6 73be 13dd 76be 5bb7 a5c0
00000260: 5c97 17bf 454e ecbf 2ce1 3dbe b0ed 523f
00000270: 3a5d 79be 6346 abbd c2dd a03f 95d7 87be
00000280: 33a4 dbc0 c8b4 4c40 0306 1440 9f74 febe
00000290: 01bb 6ec1 1346 cfc0 2a11 22be 6661 69c0
000002a0: 64d1 9440 d789 55c1 cc5c b2be 6f48 37c1
000002b0: 4698 62c1 fe14 a340 fce4 663e 7143 11c1
000002c0: b0c1 acc0 5027 1fc1 c85f 6d40 518e cebf
000002d0: d4d6 a13f db63 cf40 03da 46c0 9d53 9ac0
000002e0: 9355 be3d ec2b c240 2ea5 8b40 226f f640
000002f0: b694 22c0 c917 ce3d 9140 9540 b9a5 c13f
00000300: 0860 77bf a0cc e9be 449f 53c0 b83f 9ac0
00000310: c15e 36c0 0813 48bf 4d7d 84c0 915f 3ac0
00000320: 3ce0 4140 602d 34c1 395c f140 2d4f 6ac0
00000330: cbdf eec0 1777 e5c0 c0f4 4cc1 22c5 1fc0
00000340: 471f 64c1 aecf f9c0 bd0a 2940 89b8 f840
00000350: 5d34 aac0 7ddf 70bf 1b7b 83c0 bd75 1dc1
00000360: 2d4d 393e c471 3bc0 f4d8 50c0 b252 c2bf
00000370: c2c1 893f 9d94 b840 097a 5041 e098 0f41
00000380: 63da f3c0 a7ef 96c1 3878 3cc1 d1f5 4bc1
00000390: fd0b 44be 24e6 34c1 85aa 773f dc8e 5d41
000003a0: d575 6cc1 0279 38c0 1da6 903f 4355 cbc1
000003b0: ca9d 2040 85ba 493f 3130 45c1 d759 72c0
000003c0: 749e d140 0a23 2dc1 c34e 6640 5214 d740
000003d0: 6235 26c1 18f8 34bf a0db 9c40 5274 65c0
000003e0: 8b6c 0b40 2708 a6bf fdf8 c4c0 3be6 49bf
000003f0: 719d e440 c001 fc40 efc8 a2bf ce0e 3640
-7.992673 9.011612 4.051296 -2.6301796 -8.398741 -4.58825 2.0866423 -3.1002076
3.5553021 -4.9320354 6.0454206 -4.429954 -5.700366 9.158643 6.7582784 4.9700522
4.5957127 -12.641222 3.7192087 3.0937018 -9.438947 -2.5736704 -4.3122797 10.115641
8.131734 -8.720985 14.839736 11.932115 5.549959 -4.2751923 11.80816 4.4837666
-4.5928764 -20.31645 -4.0798244 -1.5766448 -12.835335 -2.3084037 8.797098 -4.615688
-1.723775 2.6353307 2.7805886 -10.255502 -12.519478 0.24549465 -0.41211417 -6.0860977
-9.176667 -6.911496 3.1332338 9.276549 -9.257289 -0.3896352 -0.095513396 5.2476993
0.6483408 -9.658165 0.5262603 -10.095584 -5.972728 5.2392826 5.6168113 -4.186824
1.0861936 -2.8080704 -1.2970967 -13.634037 4.289511 -3.0075915 8.152844 1.3377315
1.4825836 0.40634727 1.8176062 -6.2755747 -2.143704 -0.6184486 -1.7152088 -2.4841297
3.0678668 -3.585297 -1.5489612 -1.2285532 -0.8436678 -2.100685 4.834462 3.0812876
-4.3587146 -1.0549488 3.3324764 2.0580714 -6.180502 3.0932956 -1.9190528 0.2352705
-0.43853492 -0.23691021 7.762878 -9.67195 -8.49081 -1.0201919 5.1963487 -6.4253573
-7.74088 -12.102266 5.442204 3.2467804 -1.1672168 2.2259932 -8.106131 1.4656118
4.0740867 -11.488325 -0.8412012 -7.951915 -1.7534328 -6.727608 -11.172959 7.55959
1.9653085 -5.984373 -0.6002022 -5.638359 3.0553567 2.876007 -9.206453 -10.702428
-0.035620704 0.5026054 -1.1839955 0.1688456 -2.78942 -2.3764062 2.0986128 -0.14048699
0.116420835 -0.7953911 0.60838133 -0.050721504 0.39115924 -1.0881729 0.4576682 0.10193335
0.2040534 -0.027027054 0.6433309 -0.03119751 -4.800874 -0.23794097 -0.2410777 -5.1786323
-0.5921533 -1.8461386 -0.18542928 0.8239393 -0.2435197 -0.083630346 1.2567675 -0.26531664
-6.863794 3.198534 2.312867 -0.4969835 -14.920655 -6.477304 -0.1582686 -3.6465697
4.6505604 -13.346152 -0.34836423 -11.455184 -14.162176 5.0963125 0.22548288 -9.078965
-5.3986435 -9.947098 3.708971 -1.6137182 1.2643685 6.4809394 -3.1070564 -4.8227067
0.09293666 6.0678616 4.3639135 7.701066 -2.5403266 0.100631304 4.6641316 1.51287
-0.9663091 -0.4566393 -3.3065958 -4.820278 -2.8495333 -0.7815404 -4.1402955 -2.912083
3.0293112 -11.261078 7.5425076 -3.6610825 -7.4648185 -7.1707873 -12.809753 -2.496407
-14.257636 -7.8066015 2.6412804 7.7725263 -5.318892 -0.94091016 -4.1087775 -9.841245
0.18095846 -2.9288187 -3.2632418 -1.5181487 1.0762255 5.7681413 13.029794 8.974823
-7.6204085 -18.867018 -11.77935 -12.747514 -0.19145198 -11.306187 0.9674457 13.847378
-14.778768 -2.8823857 1.1300694 -25.416632 2.5096307 0.7880023 -12.3242655 -3.7867334
6.5505924 -10.821054 3.5985572 6.7212305 -10.388033 -0.7069106 4.9018097 -3.5852246
2.1785 -1.2971238 -6.155394 -0.7886693 7.144219 7.8752136 -1.271757 2.8446536

output_module.0.bias f4 [32]
00000000: bc8c 3b41 441d 08bf dcd4 29bf 9da6 ef40
00000010: 3c41 c840 9b8a 7bbe 41c4 80bf 1da9 723f
00000020: 76ec 1cbf 516b 67bf 8269 3ebd 14f4 92bf
00000030: 7f8e adbe b485 b4c0 b88c 34be d3e8 06be
00000040: ef66 c5bf bd21 aebf 70e4 b7be 585f 0fbf
00000050: 5443 24bf 09ee 46be 9a20 f8bd 1ba3 7640
00000060: 38ef 9dbf 7004 e3bd 6d1e 2abf a875 5bbf
00000070: df1a 86bf d0d0 e040 58ca 1ebf 6c92 0bbe
11.721859 -0.53169656 -0.6634042 7.4890885 6.257963 -0.24564593 -1.0059892 0.94789296
-0.6129831 -0.90398127 -0.04648734 -1.1480737 -0.33897778 -5.641321 -0.17631805 -0.13174753
-1.5422038 -1.3604046 -0.3591647 -0.5600486 -0.64165235 -0.1942674 -0.12115593 3.8537052
-1.2338629 -0.11084831 -0.66452676 -0.85726404 -1.047695 7.02549 -0.620275 -0.13630074

output_module.2.weight f4 [20, 32]
00000000: 4046 8ebd 125e c5bd 9551 273e 5b6f dc3d
00000010: 1a3e 16c0 65b7 91be 1798 5cbe cc07 cb3c
00000020: 569c 8e3f 30fb d2bf 8141 53bd e083 e23f
00000030: 1978 7740 a900 a0bd 7996 31be 1d3f 61bd
00000040: 21d5 393f 07de 343f 196a d5bd 212a 8a3e
00000050: b356 58bf 523d 1e3e dab3 ec3d 029f 593e
00000060: e14a e6bc d91e 8fc0 b527 443f 47fa 0fbf
00000070: 1b26 38bf 5a03 5e3d 4bb4 5a3d 7924 7fbc
00000080: cad3 79bd f08e a03e 81e2 813f d93d 993f
00000090: 0161 0bc0 c470 c7be ec83 d93c 3328 9d3c
000000a0: e9cc 9f3f 0148 c4bf a2fb a9bd 31bb 4e40
000000b0: 53ed 5040 7db4 91bd 7589 1a3e fc5d e83d
000000c0: 37a7 a83f 273b ccbe eb73 2e3f 3b19 a2bd
000000d0: 15c8 68be 7378 eabd 7a12 c53d a565 2d3f
000000e0: a9a2 a5bd 17cf 7ec0 6422 383f 2b33 99bf
000000f0: 0074 23bd 1f3f 553d 5306 ccbd 47ce 07be
00000100: 29bd eabd 58c4 3cbf f1e8 61bf cc21 a73e
00000110: f380 2cc0 545e 3b3d 9584 75be 387a c73c
00000120: cc50 04c1 476a 48c0 308e 8ebd cd9d febb
00000130: 245a 8a3e 9b14 babd 5339 efbb d7da 6cbd
00000140: 4aac 983f 287e 293f 1e46 2ac0 879d c1bf
00000150: c7fd 56c0 4b38 c13d 89d6 bd3d 834c c13e
00000160: 7695 963d 4eb9 23c0 71a7 8dc0 ec82 a0be
00000170: 3073 193e 3692 a13d f06c e6bf 17c5 0fbe
00000180: 9b10 483f a697 31c1 cd14 5ebf 73f0 63c0
00000190: c90e 54c0 e6d3 053d bd9c debf 2c76 a33f
000001a0: 70ff 8bc0 090b a9be 553d 143e eac0 d8be
000001b0: 387b 83c1 42aa d13e 721f e8bd 6891 233e
000001c0: f114 4b3d 1c00 0dc0 6f16 cec0 60fe 21c0
000001d0: 1b27 11c0 147f 12be bd04 f23d 4783 7bc0
000001e0: b87b 093f 16d5 dc3e 8bf6 dabf 6092 24c1
000001f0: 035a 343e 1257 213f c53d 0a40 8958 793d
00000200: baf5 b3bd 744c d4bf 9b23 32bf a9d9 aa3e
00000210: 67b4 0fc0 312b c7bf 07e4 3abe 1020 913c
00000220: 5a08 c3c0 ae4f 9dbb 09d8 d5bc 6eb2 ed3f
00000230: effb 86bf 1e03 0cbe 93c9 73be 4e14 19bc
00000240: d527 ecbc e41b 1d3f 98de 0ac0 7dc8 11c0
00000250: 95b7 14c0 0779 933d 7e61 813e 7897 cd3d
00000260: 5b4b d53d c674 53c0 d5bb 2fc0 bb48 28c0
00000270: c181 2cbe 278c 643d e5c5 fb3f cf99 debd
00000280: e748 403f d36e 563e d1cd aebd a062 19bd
00000290: a353 6dc0 bf56 ccbf c291 9abf 96a0 e5bd
000002a0: d892 233e 4dc8 9ebf a669 7fbe ba17 7f3f
000002b0: cece 6c40 0b56 3dbe 6480 92bd a610 1e3e
000002c0: eb86 873e e56e 9abf 7632 86be b2f3 21c0
000002d0: eae6 b3bf 2790 a2bd 5eaa 6b3d 15b3 84be
000002e0: df61 443e 7c3e 54c0 0339 92be 679b cd3e
000002f0: fa73 8ebf 4a41 85bc e7d3 0b3e fd77 8cbd
00000300: 8ac6 173d dff9 0ac0 30f3 df3e 2f47 2a3d
00000310: f28d 38c0 424d afbf dace a8be ec86 20bd
00000320: 8719 c1c0 780b 06c0 e131 aabd fb52 133e
00000330: 7185 33c0 189a bf3b 2999 b3bd 964b 503d
00000340: b6ab 753f b3db 8a3e fd0a 34c0 6714 873c
00000350: a168 07c0 7ce4 193e 2544 4e3e 9775 133d
00000360: 98e3 ca3e 6fd8 09c0 a426 b9bf bf72 6fc0
00000370: 0c65 913d 5dc8 153d 8648 d33f 35db e73d
00000380: 1f18 813f ccf1 30c0 759f fdbd 5418 49bf
00000390: c1ef 4cc0 cda3 79bf b9dc aabf 23ce d2be
000003a0: 51cc 033f 5953 3bc0 1ea8 7dbe af16 f63e
000003b0: 35cc 89c0 146e 943f b6ca d4bd ce4d cb3d
000003c0: 9554 2840 77e9 c83f dc9a 61c0 25d5 843f
000003d0: dcd2 1dc0 0649 b63d 39b3 62bc b313 4cbf
000003e0: a691 613e 5611 2cc0 aef3 b03e 2958 80c0
000003f0: c7eb 75be b9b1 143f 6b0e b2bd 251c ba3d
-0.06946993 -0.09637083 0.16339715 0.10763427 -2.3475404 -0.2846023 -0.21542393 0.024783991
1.114146 -1.6482906 -0.05157614 1.7696495 3.8667052 -0.07812626 -0.17342557 -0.05499183
0.72590834 0.70651287 -0.10420627 0.26985267 -0.8450729 0.1545308 0.115577415 0.21252063
-0.028111877 -4.4725156 0.7662309 -0.5624127 -0.71933144 0.054202415 0.053394597 -0.015572661
-0.060992993 0.31359053 1.0147249 1.1972 -2.1777956 -0.3895322 0.026552163 0.019184208
1.2484409 -1.5334474 -0.08299948 3.2301753 3.2644851 -0.071145035 0.15091498 0.11346051
1.317603 -0.3988888 0.68145627 -0.079149686 -0.22732575 -0.11448755 0.09622665 0.6773322
-0.080876656 -3.9813898 0.71927476 -1.196874 -0.039905548 0.05206215 -0.09962144 -0.13262282
-0.11461861 -0.73737097 -0.88246065 0.32642972 -2.6953704 0.045744255 -0.23976357 0.02435027
-8.269726 -3.1314867 -0.06960714 -0.007770276 0.27021897 -0.090859614 -0.0073005348 -0.05782589
1.1927578 0.66208124 -2.6605296 -1.5126199 -3.3592393 0.09434565 0.09269435 0.37753686
0.07352726 -2.558185 -4.4266896 -0.31349885 0.14985347 0.07889216 -1.8001995 -0.14040028
0.7815034 -11.099524 -0.8675049 -3.5615509 -3.3134024 0.032672785 -1.7391583 1.2770438
-4.3749313 -0.33016232 0.14476521 -0.42334682 -16.435165 0.4095021 -0.11334123 0.15973437
0.04958052 -2.2031317 -6.4402385 -2.5311508 -2.2680118 -0.14306289 0.1181731 -3.9298875
0.53704405 0.43131322 -1.7106489 -10.285736 0.17612462 0.63023484 2.16002 0.06087545
-0.08787103 -1.6585832 -0.6958558 0.33369187 -2.245386 -1.5560056 -0.18251048 0.017715484
-6.0947695 -0.0048007583 -0.02610399 1.8570077 -1.0545634 -0.13673064 -0.23807363 -0.00934322
-0.028827587 0.6137068 -2.169836 -2.2778618 -2.323705 0.072008185 0.25269693 0.10038656
0.104147635 -3.3040023 -2.7458394 -2.629439 -0.16846372 0.055797722 1.9669768 -0.108691804
0.7511124 0.20940714 -0.0853535 -0.03744757 -3.7082298 -1.5963973 -1.2075732 -0.1121227
0.15973985 -1.2404877 -0.24942645 0.9964558 3.7001224 -0.18489854 -0.07153395 0.15436038
0.26470122 -1.2065092 -0.26210374 -2.530499 -1.4054844 -0.07937651 0.05753552 -0.2591788
0.1917796 -3.3163137 -0.2855912 0.40157625 -1.1129143 -0.016266484 0.13655053 -0.068588234
0.037054576 -2.171501 0.43740225 0.041571792 -2.8836637 -1.3695452 -0.32970315 -0.03919117
-6.034366 -2.09445 -0.08310295 0.14387123 -2.8050196 0.005847227 -0.08769447 0.050853334
0.95965135 0.27120742 -2.8131707 0.01648922 -2.115761 0.15028566 0.20143183 0.036000814
0.39626765 -2.153835 -1.4464917 -3.7413785 0.07099351 0.036568034 1.6506507 0.11321107
1.0085486 -2.764758 -0.1238393 -0.78552747 -3.2021334 -0.97515565 -1.3348609 -0.41172895
0.5148364 -2.9269621 -0.24771163 0.4806418 -4.3061776 1.1596093 -0.103902265 0.099269494
2.6301625 1.5696248 -3.5250769 1.0377547 -2.4659948 0.08900647 -0.013836675 -0.7971756
0.22028217 -2.688558 0.34560913 -4.0107617 -0.24015723 0.58083683 -0.08694156 0.090873994

output_module.2.bias f4 [20]
00000000: 3d7a e3c1 5ed2 ecc1 71cf cfc1 486c adc1
00000010: 6745 e7c1 d4bd 9cc1 7ce9 c6c1 d7e0 b1c1
00000020: a790 bdc1 bd48 8fc1 ee8d d7c1 4bbd ddc1
00000030: a2e4 eec1 87a3 e5c1 a4a7 c5c1 8a7e 95c1
00000040: 1ac4 b0c1 3462 d0c1 9efb 78c1 b2ec c8c1
-28.434687 -29.602718 -25.97629 -21.677872 -28.908888 -19.59269 -24.864006 -22.234785
-23.695631 -17.910517 -26.944302 -27.717428 -29.861637 -28.704847 -24.706856 -18.686787
-22.095753 -26.04795 -15.56143 -25.115574
