code_RLSCG/save_models/Model_RLCG_2022_past_good.pt (torch, 46136 bytes, 17 tensors)

cons_embedding.0.weight f4 [32, 2]
0	0xbeeadc15	-0.45871034
1	0xbd3ff4dc	-0.046864375
2	0xbf14fcb1	-0.58198076
3	0xbf05381d	-0.5203875
4	0xbeb27414	-0.34854186
5	0x3e493778	0.19650066
6	0xbe9c8e73	-0.3057743
7	0x3e5e7795	0.21725304
8	0xbf02384b	-0.50867146
9	0xbe67c68d	-0.22634335
10	0xc0c87eb8	-6.2654686
11	0x3fd692c3	1.6763538
12	0xbf2cefc2	-0.6755334
13	0xbeefc590	-0.46830416
14	0xbe953d9f	-0.29148576
15	0x3cd6944c	0.02619376
16	0x3e8a483d	0.27008238
17	0x400c3c39	2.1911757
18	0xc02a8d16	-2.6648612
19	0xbfbc5f66	-1.4716613
20	0xbf321cbc	-0.69575095
21	0x3cc246aa	0.023715336
22	0xbf905d3a	-1.127845
23	0xbf1e1580	-0.61751556
24	0xbe841529	-0.25797394
25	0xbd3dbbbd	-0.04632162
26	0x3f8acfd9	1.084468
27	0xbfb5dcff	-1.4208068
28	0xbeddd3f3	-0.43325767
29	0xbe306bae	-0.17228577
30	0xbedbac02	-0.4290467
31	0x3f0cdaf6	0.5502161
32	0xbeeaaa85	-0.4583322
33	0xbea6a886	-0.32550448
34	0xbec7dd6f	-0.39036128
35	0xc0308ddc	-2.7586584
36	0xc08e040c	-4.437994
37	0x4020a664	2.5101557
38	0x3e3f2398	0.18665922
39	0x3e9acfea	0.3023675
40	0x3d680615	0.056646425
41	0xbfa4ec46	-1.2884605
42	0x3da7f54f	0.08201086
43	0xbf2f86f7	-0.68565315
44	0xbf02cc68	-0.5109315
45	0xbebaa44c	-0.36453474
46	0xbd6397a9	-0.055564556
47	0x3fa620c6	1.2978752
48	0xc08750c9	-4.2286115
49	0x3f919680	1.1374054
50	0x400a3a04	2.159791
51	0x3fc8ee13	1.5697654
52	0xbe14de28	-0.14537871
53	0xc0a4e625	-5.153094
54	0xbd32ca7d	-0.04365014
55	0xc06f7cbc	-3.7419882
56	0xbf1c88b8	-0.61146116
57	0xc06a0ae9	-3.656916
58	0xbfa9562b	-1.3229421
59	0xbf11ac2d	-0.56903344
60	0x3e588536	0.21144566
61	0x3e40e004	0.18835455
62	0xbed6745b	-0.41885647
63	0x3e5abfb8	0.21362197

cons_embedding.0.bias f4 [32]
0	0x3d099419	0.033588503
1	0xbdb6c843	-0.08924916
2	0xbe277e9e	-0.16356894
3	0xbe4ae615	-0.19814332
4	0x3d2c23b0	0.04202622
5	0x40899aa2	4.300126
6	0xbf0b7f6d	-0.5449131
7	0xbe84ad1c	-0.25913322
8	0x40019c73	2.025174
9	0x4029998f	2.6499975
10	0x3c84dde3	0.016219085
11	0x3e2a9714	0.16659194
12	0x3aea81c2	0.0017891454
13	0xbef8b076	-0.4857213
14	0x3d255151	0.040360752
15	0xbf00dc60	-0.50336266
16	0xbf28b3a4	-0.6589911
17	0x3ddc1889	0.10746867
18	0x407019d7	3.7515771
19	0xbf702510	-0.9380655
20	0xbe0424f5	-0.12904723
21	0xbe1e22ac	-0.15442914
22	0xbdee4f5c	-0.1163623
23	0xbfa56488	-1.2921305
24	0x4076c936	3.856031
25	0xc0028a18	-2.0396786
26	0x3c7a1aa2	0.015265139
27	0x3ff05397	1.877551
28	0x3e2882c9	0.1645614
29	0x3fe58a04	1.7932744
30	0xbf68c2bf	-0.9092216
31	0xbeeada76	-0.45869797

var_embedding.0.weight f4 [32, 9]
0	0x408041a4	4.008013
1	0x4000968d	2.009189
2	0xc0975f35	-4.730372
3	0xc09c78ed	-4.8897614
4	0x3f74a185	0.9555896
5	0x406bf8af	3.6870534
6	0xbfe3ef91	-1.7807485
7	0xbfd196f2	-1.637419
8	0x3fa32fb2	1.274893
9	0xbea8bef3	-0.32958183
10	0xc073c01a	-3.8086
11	0xc0a129f9	-5.0363736
12	0xc0c78b37	-6.235744
13	0x3e7e3a75	0.24826987
14	0x401c3069	2.4404547
15	0x4087d014	4.24415
16	0xbfaeea02	-1.3665164
17	0x40529220	3.2901688
18	0xc00e8fb5	-2.2275212
19	0xc0626172	-3.5371976
20	0x3fc3b487	1.5289468
21	0x3e87f411	0.26553395
22	0xbf8ee59e	-1.1163824
23	0x3e21d6f5	0.15804656
24	0xbfcf8ef8	-1.6215506
25	0xbf5e263c	-0.8677709
26	0xbe2286ff	-0.1587181
27	0x3fa52d14	1.2904382
28	0xc0b41b42	-5.6283274
29	0xc13f93c0	-11.973572
30	0x3f138cc5	0.5763667
31	0x3f15f9c7	0.58584255
32	0xbfb061cb	-1.3779844
33	0x40239620	2.556038
34	0x3f02dbbc	0.5111654
35	0x4083fc41	4.1245427
36	0xc080cce1	-4.0250096
37	0xbfcf3903	-1.6189274
38	0x400bb43d	2.1828759
39	0xc1234a74	-10.205677
40	0x402f50ce	2.739307
41	0x3f3bd555	0.73372394
42	0xbf75273e	-0.95763004
43	0xbfd347c6	-1.6506279
44	0x4012792f	2.2886465
45	0x3eaad3b1	0.33364633
46	0xbf271009	-0.6525884
47	0xc102354d	-8.138013
48	0xc057781f	-3.3667066
49	0x3f3be5d7	0.7339758
50	0x3fa7858f	1.3087634
51	0x3f7e7d70	0.9941015
52	0x40134493	2.3010604
53	0xbf0c0d7d	-0.5470808
54	0xc0a5bdae	-5.1794043
55	0xbf9609cd	-1.1721741
56	0x409f1f47	4.972568
57	0x3e360f84	0.17779356
58	0xbfeff360	-1.8746147
59	0x3e9d55eb	0.30729613
60	0x3ec8a4ad	0.39188138
61	0x406fa165	3.7442257
62	0x3e2f76e6	0.171352
63	0xbe310c14	-0.17289764
64	0xbdd75f3e	-0.10516213
65	0xbd860960	-0.06544757
66	0xbe9db575	-0.30802503
67	0xbe935c2e	-0.28781265
68	0xbd55a58b	-0.052159827
69	0x3b8d4100	0.004310727
70	0xbe1b0f26	-0.15142497
71	0x3dab9710	0.08378422
72	0xc03ac914	-2.9185228
73	0xbfe211d9	-1.7661697
74	0x3fc0a0b9	1.5049049
75	0x3eb04f24	0.3443538
76	0xbf8409a5	-1.0315443
77	0x3da6a67d	0.08137224
78	0xbe9a051f	-0.30082032
79	0x3f54a901	0.8307038
80	0xbd1d8d4b	-0.038464826
81	0x401dc927	2.4654024
82	0x405f528c	3.4894133
83	0x3f42a781	0.7603684
84	0x3fbadb7b	1.459823
85	0xc144ba46	-12.295477
86	0xc008d0aa	-2.1377358
87	0xc098a30e	-4.769904
88	0x3df3cf49	0.11904771
89	0x3fe5c15d	1.7949635
90	0x3fb48176	1.4102008
91	0x3dac49a3	0.084124826
92	0xc02a22bf	-2.6583707
93	0xbfb35f7b	-1.4013513
94	0xbe4f7f08	-0.20263302
95	0x3ff3448b	1.9005293
96	0x3f329cf3	0.69770736
97	0xbf86375c	-1.0485644
98	0xbfda51cc	-1.7056212
99	0xc0968d51	-4.7047505
100	0xbde563c2	-0.11200668
101	0x40340f56	2.813436
102	0xbfbdd62c	-1.4830985
103	0xbf42a44e	-0.7603196
104	0xc0d3f968	-6.624195
105	0xbfb188a9	-1.386983
106	0x3fd6647f	1.6749419
107	0xbfcd6799	-1.604724
108	0xc09b3e51	-4.851357
109	0xbfb367a9	-1.401601
110	0xbfe4f7c3	-1.7888111
111	0xbf852551	-1.0402013
112	0x40506087	3.2558916
113	0xc052bc7a	-3.2927537
114	0x3e0e5e10	0.1390307
115	0x40708ac4	3.7584696
116	0xbf6b0ea0	-0.9181919
117	0xc19a628f	-19.298124
118	0x404fb6d8	3.245535
119	0x3fb3f9e0	1.4060631
120	0xc1e50479	-28.627184
121	0xbe5493f4	-0.20759565
122	0x40845e0a	4.1364794
123	0xc0793aaa	-3.8942056
124	0x40864deb	4.1970115
125	0x3fab7249	1.3394252
126	0x3dafeac5	0.085897006
127	0x3c1aa080	0.00943768
128	0xbe93e6c4	-0.28886998
129	0x3e05becd	0.13061066
130	0xbe73200b	-0.23742692
131	0xbe043166	-0.12909469
132	0xbde50bbb	-0.11183878
133	0xbd4a304b	-0.049362462
134	0x3b6ef356	0.0036460957
135	0x41002aa4	8.01041
136	0xbff270ad	-1.8940636
137	0x40980b64	4.7513905
138	0xbfb6f8cc	-1.4294677
139	0xbff29d90	-1.8954334
140	0xc1e17c2d	-28.185633
141	0xbfad5279	-1.3540794
142	0x3ec22807	0.37921163
143	0x3f7f421d	0.99710256
144	0x3ff88f84	1.9418797
145	0xc00f8f34	-2.2431154
146	0x3f3553cd	0.70830995
147	0x40910019	4.531262
148	0xbe67c279	-0.22632779
149	0x3f9fe5d1	1.2492009
150	0x3fd5dc78	1.6707907
151	0xbf9ee7f8	-1.2414541
152	0x3e498253	0.19678621
153	0xc0d2cbbb	-6.5873694
154	0xbed72244	-0.4201833
155	0x3fe6185e	1.7976186
156	0x40123d2a	2.2849832
157	0x3fc1383c	1.5095286
158	0x3f389616	0.7210401
159	0x3fff470d	1.9943558
160	0x402d1e21	2.704964
161	0x3fe03509	1.7516185
162	0xbfeab68f	-1.8336962
163	0x3e64cfb3	0.22344856
164	0xbfc0b093	-1.5053886
165	0xbb5a03fa	-0.003326653
166	0xbfb0c682	-1.381058
167	0xbfde29f1	-1.735655
168	0xbf751562	-0.9573575
169	0xc002c36c	-2.0431776
170	0xc04faa34	-3.2447634
171	0x40978d3f	4.735992
172	0x4063ed57	3.561361
173	0x3e36193e	0.17783067
174	0xc185f5d9	-16.745043
175	0xbf4451b3	-0.76687163
176	0xc14c9ef0	-12.788803
177	0x40ac1461	5.3774877
178	0x3e317d0f	0.17332862
179	0x3fcd9a97	1.6062802
180	0xc0b12eb0	-5.536949
181	0xc138ddc7	-11.554145
182	0xbf7dc2f1	-0.9912558
183	0x3f84ba4d	1.0369354
184	0xbf19bb4c	-0.6005142
185	0xc18e4108	-17.781754
186	0x3f56636e	0.8374547
187	0xc021af58	-2.5263271
188	0xbf0537ce	-0.52038276
189	0x3e657b62	0.22410348
190	0xbe1e241b	-0.1544346
191	0x3d7a870b	0.061163943
192	0xbde97b1e	-0.11400436
193	0xbc72df2b	-0.014823715
194	0xbe4fe318	-0.20301473
195	0x3db154a2	0.086587206
196	0x3dc0b160	0.094088316
197	0xbbe151ab	-0.0068761907
198	0xc0ce3ce8	-6.444935
199	0x3facf50f	1.3512286
200	0xbf10182b	-0.5628688
201	0x3b89c7d6	0.0042047305
202	0x3f57b266	0.8425659
203	0x3fd5c686	1.670121
204	0xc0342866	-2.8149657
205	0x3f758f9b	0.9592225
206	0xc018586b	-2.3803966
207	0x400e759d	2.2259285
208	0x40176107	2.365297
209	0xbfd778bc	-1.683372
210	0x3f9a9a8e	1.2078416
211	0xbe98af9b	-0.29821476
212	0x408caf4a	4.3963976
213	0xc0037585	-2.0540478
214	0xbf20c1ae	-0.6279553
215	0xbf35d2b2	-0.7102462
216	0x40b1bdc6	5.5544157
217	0xc0a71aec	-5.2220364
218	0x40a8f864	5.280321
219	0x4060b589	3.51108
220	0x3f0ac3a5	0.5420478
221	0xbfe06fb3	-1.7534088
222	0x3f5bc266	0.85843503
223	0xc04316f6	-3.0482764
224	0x3f95a091	1.1689626
225	0xc10391e1	-8.223115
226	0x3e6d3425	0.23164423
227	0x3ff855cc	1.9401183
228	0x40af8782	5.4852915
229	0x3f0d7985	0.5526355
230	0xc07a449d	-3.9104378
231	0xbf94cb40	-1.1624527
232	0xbfa72f90	-1.306139
233	0x3fd3b380	1.6539154
234	0xc09cca10	-4.899666
235	0xbf818a04	-1.0120244
236	0x4047bfdc	3.1210852
237	0x4008e5db	2.1390293
238	0xbe000172	-0.12500551
239	0x4090bc59	4.5229917
240	0xbf312f04	-0.69212365
241	0x3fc7ffe3	1.5624965
242	0x400fcf31	2.247021
243	0x401447dc	2.316886
244	0x3fd285f9	1.6447135
245	0xbed447c4	-0.41461003
246	0x4100d653	8.052325
247	0xc02509d6	-2.5787253
248	0xc08f4eb5	-4.478358
249	0x405ef126	3.4834685
250	0x400b7429	2.1789649
251	0x404f568d	3.2396576
252	0xc0e7b275	-7.2405343
253	0xc03ba183	-2.931733
254	0x407052cf	3.7550542
255	0x4004738d	2.0695527

var_embedding.0.bias f4 [32]
0	0xbf115a5d	-0.5677851
1	0x3fcf54c9	1.6197749
2	0x3ffbf183	1.9683079
3	0x3ff9a623	1.9503826
4	0xbdff0f9f	-0.12454151
5	0xbd23202d	-0.039825607
6	0xbf93d77b	-1.1550134
7	0xbdf89a3e	-0.12138794
8	0xc00d6518	-2.2092953
9	0x3fd139fd	1.6345822
10	0x3e6c2598	0.23061216
11	0x3f957f92	1.1679556
12	0xbf1d55c8	-0.61459017
13	0x40082e09	2.1278098
14	0xbe68de5b	-0.22741072
15	0xbf436c91	-0.76337534
16	0xc07128d2	-3.7681165
17	0xbf497019	-0.7868667
18	0x3fe5de16	1.79584
19	0xbf938567	-1.1525086
20	0x3f884a43	1.0647663
21	0xbea10bd7	-0.31454346
22	0x3fb0bed5	1.3808237
23	0xbf397090	-0.7243738
24	0xbfe4f21a	-1.7886384
25	0xbeca6053	-0.39526615
26	0xbf19058d	-0.59774095
27	0x3e6cb8f4	0.23117429
28	0x3fcb47ed	1.5881325
29	0xbf6610e7	-0.8986954
30	0xbe13d8b4	-0.14438134
31	0xbfbb056b	-1.4611028

join_features_NN.0.weight f4 [32, 64]
0	0xbd58dd14	-0.05294521
1	0xbb6dcb41	-0.003628448
2	0xbfd05e3e	-1.627876
3	0xbf569a79	-0.83829457
4	0xbfe28927	-1.7698106
5	0xbfd4862a	-1.6603444
6	0x4001fcb7	2.0310495
7	0xbe43cab8	-0.191203
8	0xbf9c1b47	-1.2195824
9	0x4014c6b4	2.3246279
10	0xbe1036dd	-0.14083429
11	0xbf3b7719	-0.73228604
12	0xbe01d14a	-0.12677494
13	0x40d37c97	6.6089587
14	0xbf6a08a1	-0.91419417
15	0x3d5f9176	0.05458208
16	0xbfaf4b0e	-1.369478
17	0x3f94cd8a	1.1625226
18	0xc07e1a26	-3.970346
19	0xbe947570	-0.28995848
20	0xc0693939	-3.6441176
21	0xbdc32746	-0.09528975
22	0xc0102899	-2.252478
23	0xbf1f8e1d	-0.6232622
24	0x3e3d1e29	0.18468536
25	0xbfd0a7ac	-1.6301169
26	0x3f947e0c	1.1600966
27	0x40c6c539	6.211575
28	0xbfc6b722	-1.5524638
29	0x403a30c4	2.9092264
30	0xc01940b9	-2.3945754
31	0xbfa3db49	-1.2801296
32	0x3fafb614	1.3727441
33	0xc0a641bf	-5.1955256
34	0x40899329	4.299214
35	0xbf97579e	-1.1823614
36	0xbf15fc23	-0.58587855
37	0x405e6b02	3.4752812
38	0xc0dcbe6d	-6.8982453
39	0x3dd5a748	0.10432297
40	0x3e887ee6	0.26659316
41	0x3e846963	0.25861654
42	0xbfb22185	-1.3916479
43	0x40934050	4.6016006
44	0xc0523060	-3.2842026
45	0x3ff26fb8	1.8940344
46	0x3cdce8a0	0.026966393
47	0x401483d8	2.320547
48	0x408b6507	4.3560824
49	0xc0ab0e92	-5.3455286
50	0x40b1593b	5.5421424
51	0x3f0c28d4	0.547498
52	0x41239e5e	10.226164
53	0xbd1df5e4	-0.038564578
54	0x3fbcb5b8	1.4742956
55	0xc081f6f9	-4.061398
56	0xc0a2a497	-5.0825915
57	0xbf307e28	-0.689425
58	0xc0d38e4a	-6.6111193
59	0xbe033956	-0.1281484
60	0x407ffcbc	3.9998007
61	0x40174da9	2.364115
62	0x404eda4b	3.2320735
63	0xbe6d8b8e	-0.23197767
64	0xbe0720ef	-0.13196157
65	0x3eef0015	0.4667975
66	0x4043e2b8	3.0607128
67	0xbf3194af	-0.693675
68	0x3f300e9d	0.687723
69	0xc109c9a8	-8.6117325
70	0xc10062f0	-8.024155
71	0xc01a5fa3	-2.4120872
72	0x3fc2e942	1.5227435
73	0xbf86fd6f	-1.0546092
74	0xbfbd9d3b	-1.4813608
75	0xbf8b8470	-1.0899792
76	0x3d3150a3	0.04328979
77	0xc0b8b69b	-5.7722907
78	0xc108a1e1	-8.539521
79	0xbfc528f9	-1.5403129
80	0xc057de94	-3.37296
81	0x402c956f	2.6966207
82	0xbf42cb41	-0.7609139
83	0xbf73d994	-0.9525387
84	0xbf6900c0	-0.9101677
85	0x3d7186ed	0.058966566
86	0x3fac7f86	1.3476417
87	0xc080025f	-4.0002894
88	0x3f19ea5d	0.60123235
89	0x4069ee02	3.6551518
90	0x3f3cfa47	0.7381939
91	0x40816c1a	4.044446
92	0xbf2609bc	-0.64858603
93	0x3eff266c	0.49834
94	0xbdc64589	-0.096812315
95	0xc1065637	-8.396049
96	0x40002310	2.00214
97	0xc0d92247	-6.7854342
98	0x4093032c	4.594137
99	0x3f706358	0.93901587
100	0xc02a85e5	-2.6644223
101	0x40b6451a	5.6959352
102	0x40495723	3.1459434
103	0xbc515a1c	-0.012777831
104	0xbfaaae9e	-1.3334539
105	0xc015b37b	-2.3390796
106	0x3f824a6d	1.0178963
107	0x3f903781	1.1266938
108	0x40e73843	7.225618
109	0x4050c7c8	3.2621937
110	0x3dad31a7	0.08456736
111	0xbfaff5a1	-1.3746835
112	0xc0ba729b	-5.82649
113	0xbfa06e28	-1.2533617
114	0x40ea5676	7.3230543
115	0xc0adfe87	-5.43732
116	0x3fd1fe0d	1.6405655
117	0xbe0296ef	-0.12752889
118	0x408d29e4	4.4113636
119	0x3ea6e9d1	0.32600263
120	0xc05072e5	-3.2570126
121	0xbfbf9eb6	-1.497031
122	0xbf85fbad	-1.046743
123	0xbed0ef58	-0.40807605
124	0x408cfd72	4.405938
125	0xc0306cce	-2.756641
126	0x3fdb7558	1.7145185
127	0xc15e154a	-13.880198
128	0xbd0348ee	-0.032051973
129	0x3e970c3e	0.29501528
130	0x3f9fd3b0	1.2486477
131	0xbf9957b7	-1.1979893
132	0xbf2a3c93	-0.6649868
133	0x3fbf5c76	1.4950092
134	0xbf4699c7	-0.77578396
135	0xbfe7306e	-1.8061655
136	0xbfeb780a	-1.8396008
137	0x40858a19	4.1731076
138	0xbe2010d4	-0.1563142
139	0x3f4ec9ed	0.80776864
140	0x3d059d33	0.03262062
141	0xbfcb1e42	-1.5868609
142	0xbf901678	-1.1256857
143	0xc0102023	-2.2519615
144	0x3ee74d3e	0.4517612
145	0x3e8a308a	0.26990157
146	0x3f860fed	1.047361
147	0xbdb49317	-0.08817118
148	0xbfc5ee7c	-1.5463405
149	0x3e04ef0e	0.12981817
150	0xc006b2e3	-2.1046684
151	0xc02b5d72	-2.6775784
152	0x3f0568c6	0.52112997
153	0x3e79ab9d	0.24381872
154	0x40b5a5b2	5.6764765
155	0x40297bd2	2.6481824
156	0x40432216	3.0489554
157	0x400c06ee	2.187923
158	0xbfd430e1	-1.6577417
159	0xbe92ffe2	-0.28710848
160	0xbf810b5c	-1.0081592
161	0xc1016f3f	-8.08966
162	0x400edd96	2.2322745
163	0x3feded4c	1.8588042
164	0xbf572d67	-0.84053653
165	0x4028cc89	2.6374838
166	0xc0b7bfd8	-5.7421684
167	0x3ce2ea3d	0.027699584
168	0xbf742b12	-0.9537822
169	0x3ee90438	0.4551103
170	0x3ff46065	1.9091917
171	0x3f965429	1.1744434
172	0x3fd300fa	1.6484673
173	0xc1089ac2	-8.537783
174	0x3c3c6553	0.011498767
175	0xc061864d	-3.523822
176	0x40b2d62e	5.588645
177	0xc10bd2c7	-8.738959
178	0x3fa96292	1.3233206
179	0xbe8c1ad1	-0.2736421
180	0xc085ac38	-4.177273
181	0x3e34c12a	0.17651811
182	0xc0321a7e	-2.782867
183	0x4019276d	2.3930314
184	0xbe07e6c2	-0.13271621
185	0xc0a6ed1a	-5.216443
186	0xbf51085e	-0.8165339
187	0x3f293d36	0.66109025
188	0xbfde847d	-1.7384182
189	0x3f51454a	0.8174635
190	0x4007d68d	2.1224701
191	0xbf5d8764	-0.86534715
192	0xbbc206d4	-0.005921224
193	0xbf598382	-0.8496629
194	0x4014c1b0	2.3243217
195	0xc0627622	-3.5384603
196	0xbfd41865	-1.6569945
197	0xc0765e1d	-3.8494942
198	0x401d0d4b	2.4539363
199	0xbf7817ee	-0.96911514
200	0xbf28ce5d	-0.65939885
201	0xc001be87	-2.0272539
202	0x3f9d9ff1	1.2314435
203	0xc002b82a	-2.0424905
204	0xbc2fb079	-0.010723227
205	0x3fd9cdc2	1.7015917
206	0xc02c5722	-2.6928182
207	0x40229a2f	2.5406606
208	0xbddc9a25	-0.10771588
209	0x40847f1a	4.1405153
210	0xbf918fdb	-1.1372026
211	0x407a432e	3.9103503
212	0xbc99596e	-0.018719401
213	0xbdb53455	-0.08847872
214	0xc0c27f49	-6.0780377
215	0x3f6a92a5	0.9163001
216	0xbf65f544	-0.8982737
217	0x3fa2a627	1.2706956
218	0x4101ba0e	8.1079235
219	0xc03fd3ff	-2.9973142
220	0xc102ac1c	-8.167019
221	0xbf98a0ac	-1.1924033
222	0xbe15cc33	-0.14628677
223	0xc098da16	-4.776622
224	0xbf93838e	-1.1524522
225	0x3f19a0de	0.6001109
226	0x3fb609ff	1.42218
227	0xc11084ee	-9.032454
228	0x40470c33	3.1101196
229	0x408bb2f1	4.3655934
230	0x4083d8dd	4.1202226
231	0x3dd990fe	0.10623358
232	0x3f7e84c1	0.99421316
233	0xbdc9a780	-0.09846401
234	0x3e9f3bed	0.31100407
235	0x408271f9	4.0764127
236	0xc085ea0a	-4.184819
237	0xbf3add47	-0.7299389
238	0xbe0a26fa	-0.13491431
239	0xc1188620	-9.532745
240	0x4008dec4	2.1385965
241	0x405a853b	3.4143817
242	0x40899670	4.299614
243	0xbf36c2fe	-0.71391284
244	0xc1759cf9	-15.350823
245	0xbccbf6e4	-0.024898
246	0x4084c998	4.1496086
247	0xbf2b476d	-0.6690586
248	0xc113b39d	-9.231351
249	0xc1917f01	-18.187014
250	0xc1a8d1ac	-21.102379
251	0x3e8ef248	0.2791922
252	0xc18bb8a6	-17.46516
253	0x3fc5ab7e	1.544296
254	0x3f4ca622	0.79941
255	0x3eb51b39	0.35372332

join_features_NN.0.bias f4 [32]
0	0xbf35469b	-0.7081086
1	0xbe15bfa7	-0.14623891
2	0xc01c295d	-2.4400246
3	0xbde14d6e	-0.11001097
4	0xbfcd5cbe	-1.6043928
5	0xbe837adb	-0.2567967
6	0x40134453	2.3010452
7	0x4025ac52	2.5886426
8	0xc01c70f5	-2.4443944
9	0xbf2c0b6f	-0.67204946
10	0x4014c174	2.3243074
11	0x3f954cb3	1.1664032
12	0x3dbd8991	0.09254754
13	0xc007bc2e	-2.1208606
14	0xbfaa590f	-1.3308429
15	0x3f78e107	0.97218364
16	0xbee5b7a5	-0.44866672
17	0xbfa3ef93	-1.2807487
18	0xc094d0ed	-4.6505036
19	0xbf96a814	-1.1770043
20	0x3fd7d999	1.686328
21	0x3fe19f8c	1.7626815
22	0x3fc86753	1.5656532
23	0xbe810c51	-0.2520471
24	0x3f857bf5	1.0428454
25	0x3f6591c3	0.8967554
26	0xbf48f09e	-0.7849215
27	0x3fe6713b	1.8003305
28	0xc002ccbe	-2.0437465
29	0x400aed9b	2.1707523
30	0x3f800936	1.0002811
31	0xbff95237	-1.9478215

join_features_NN.2.weight f4 [32, 32]
0	0x4063c176	3.558683
1	0xbf34efca	-0.7067839
2	0xc0631d04	-3.548646
3	0xc0bc2e0c	-5.880621
4	0x3e87104e	0.26379627
5	0x3c75ff2e	0.015014453
6	0x3f23f465	0.6404479
7	0xbf2600cd	-0.6484497
8	0xc104d2d4	-8.301472
9	0xbf761c06	-0.9613651
10	0x3f340cc0	0.70331955
11	0x3f6f4266	0.9346069
12	0x3fa21cae	1.2665002
13	0x4023bcf8	2.5584087
14	0x4089b7a5	4.3036675
15	0x3da61424	0.0810931
16	0xbf6b9e7c	-0.920387
17	0x407eaa73	3.9791534
18	0xc00552f5	-2.0831883
19	0x3ecfd250	0.40590143
20	0x3ffc5578	1.9713583
21	0xc072d6a3	-3.7943504
22	0xc01aeed1	-2.4208262
23	0xc015bac7	-2.339525
24	0xbf248eb4	-0.6428025
25	0x3eecbcca	0.46237785
26	0xbf66d3b1	-0.90166765
27	0xc0c77fac	-6.234335
28	0x3f19de15	0.60104495
29	0x401154bd	2.270797
30	0xbf48458b	-0.78231114
31	0x403863bf	2.881088
32	0xbe89559d	-0.2682313
33	0xbe1cb7f9	-0.15304555
34	0xbb79f0ab	-0.0038137834
35	0xbe22c262	-0.15894464
36	0xbb814170	-0.0039445683
37	0x3da8a9fc	0.08235547
38	0xbd804bf8	-0.0626449
39	0xbea70fc1	-0.32629207
40	0xbebafe3a	-0.36522084
41	0xbe04c845	-0.12967022
42	0xbcfcbe79	-0.030852543
43	0xbdb34701	-0.08753777
44	0xbeaa1f89	-0.33227184
45	0xbe38ebc3	-0.18058686
46	0xbe84420f	-0.2583165
47	0xbdd2cb37	-0.102926664
48	0xbeb4dfa1	-0.35326865
49	0xbe9e38aa	-0.30902606
50	0xbe708baf	-0.23490785
51	0x3b3b455c	0.0028575277
52	0xbec1be77	-0.37840626
53	0x3bba1790	0.0056790784
54	0xbe8d85b1	-0.2764106
55	0xbd0e34cf	-0.03471833
56	0xbe1d31cf	-0.15351032
57	0xbe0a792b	-0.13522784
58	0x3c0c517a	0.008564347
59	0x3d22c78d	0.039741088
60	0xbe6ffccd	-0.2343628
61	0xbdc59697	-0.09647863
62	0xbc0418c3	-0.008062544
63	0x3aca32b0	0.0015426483
64	0xc05bd30a	-3.4347558
65	0x4048861f	3.133186
66	0xc05f6ed6	-3.49114
67	0x3f86eee8	1.0541658
68	0x3fc2119f	1.5161628
69	0x3d83f385	0.06442932
70	0xbf8ab33f	-1.0835952
71	0xc1906d9b	-18.053518
72	0x404ddc5b	3.2165744
73	0xbf6e32d1	-0.9304629
74	0x3e169190	0.14703965
75	0xbff870d4	-1.9409432
76	0x40546d0a	3.3191552
77	0x4071e839	3.7797987
78	0x3e837d62	0.25681597
79	0x3f89add6	1.0756176
80	0xc0c6d230	-6.2131577
81	0xbf3bab40	-0.7330818
82	0xbecb389b	-0.39691624
83	0xbfb0aad0	-1.3802128
84	0xc1190b9f	-9.565337
85	0x400f0350	2.2345772
86	0x3ed528ca	0.41632682
87	0xbf4a8a6a	-0.79117453
88	0xbfa5f252	-1.2964575
89	0xc0a390b0	-5.111412
90	0xbeae8974	-0.34089243
91	0x3fda669b	1.7062563
92	0x40001a8b	2.00162
93	0x406a19a4	3.657815
94	0xbfccc60b	-1.5997938
95	0xc0e350de	-7.1036215
96	0xc01bbbe3	-2.4333427
97	0xbf823330	-1.0171871
98	0x3ea0e908	0.3142779
99	0xc0b45af5	-5.636103
100	0xc02cceb9	-2.7001173
101	0x3e2750ed	0.16339464
102	0x3fe75778	1.8073568
103	0xc09deeef	-4.9354167
104	0xc07b25a6	-3.9241729
105	0xc13a9491	-11.661271
106	0x3fee4675	1.8615252
107	0x3fa0513d	1.2524792
108	0x4073ece5	3.811334
109	0xc06759a9	-3.6148474
110	0x402ccefa	2.7001328
111	0x40b808c3	5.7510695
112	0xc0b1be65	-5.5544915
113	0xbf23554d	-0.63802034
114	0xbf1177b7	-0.56823295
115	0x3ea1ea18	0.31623912
116	0xbff8e62f	-1.9445246
117	0xbf3d9f96	-0.74071634
118	0xc0987454	-4.7642
119	0xc0a476a4	-5.1394825
120	0x400605ae	2.0940967
121	0xc0c25dc1	-6.0739446
122	0xc0f0c8ea	-7.5245256
123	0xc023a34f	-2.5568426
124	0xc11a7545	-9.65363
125	0xc1066a4a	-8.4009495
126	0xc0432d77	-3.04965
127	0xc087325e	-4.2248983
128	0x40cdbf7d	6.429625
129	0xc067c1e5	-3.6212094
130	0xbf9f7a9b	-1.2459291
131	0xbecdf98f	-0.4022946
132	0xc0847cc3	-4.1402297
133	0x3d5fcb54	0.05463727
134	0xbe926d3c	-0.28598964
135	0xc09db583	-4.928407
136	0x3ff9bcf0	1.9510784
137	0x3d8a6802	0.06758119
138	0x3f180d90	0.59395695
139	0x404106da	3.0160432
140	0xc08b00ab	-4.3438315
141	0xc0d6c3a0	-6.71138
142	0xc081c8bb	-4.055753
143	0x4056f696	3.3588004
144	0xbf630ab5	-0.8868821
145	0x3fa1ec0a	1.2650158
146	0xc10d81b2	-8.844164
147	0x3eb96fa6	0.36217993
148	0xc1149143	-9.285464
149	0xc00420b5	-2.0644963
150	0x3f4c8f16	0.7990583
151	0x3fc14ef0	1.5102215
152	0x40c424ec	6.129507
153	0x3fa43aed	1.2830483
154	0xbf8d66c1	-1.1046983
155	0x3f36dcaa	0.71430457
156	0xc00274a7	-2.03837
157	0x40323bc6	2.7848983
158	0x40385bf7	2.880613
159	0x4014e545	2.3264935
160	0xbfbf49ca	-1.4944394
161	0xbf11260a	-0.5669867
162	0x407a0c93	3.9070175
163	0x40431302	3.0480351
164	0x3f96a627	1.1769456
165	0x3d0b4c92	0.03400857
166	0x4002390c	2.0347319
167	0x407ba8e3	3.932183
168	0x4064b81f	3.5737379
169	0xbf22dd1d	-0.6361864
170	0x3df6aec0	0.1204505
171	0xc06daedf	-3.7137983
172	0x3e8bdc22	0.27316386
173	0xc0443911	-3.065983
174	0xc017c32f	-2.371288
175	0xbfefb73f	-1.8727797
176	0xc06643b1	-3.5978816
177	0x3fbdde0b	1.4833387
178	0xc08b5c74	-4.355036
179	0xbe85f108	-0.26160455
180	0x3f449ae8	0.7679887
181	0x40369101	2.8526003
182	0xc0f75e87	-7.730289
183	0xc08687f1	-4.2040944
184	0xbe5a1739	-0.21297921
185	0xc06e6ee0	-3.7255173
186	0x3f7093d8	0.9397559
187	0x3fb4ae20	1.4115639
188	0xc0007612	-2.0072064
189	0x3fd68c63	1.6761593
190	0xc0abb7e8	-5.3661995
191	0xbf271704	-0.65269494
192	0x40af4376	5.476985
193	0xbf8b8a70	-1.0901623
194	0x40207a2c	2.5074568
195	0xc01060f7	-2.2559183
196	0x40016f75	2.0224278
197	0x3da9f82a	0.08299287
198	0x3faf702b	1.3706106
199	0x40c7fb87	6.249454
200	0xbecb1c3b	-0.39669976
201	0xc0203516	-2.50324
202	0x4045d44c	3.0910826
203	0x4004ea12	2.0767865
204	0x3f5ac011	0.8544932
205	0x3f662ad2	0.8990909
206	0x409d2938	4.9112816
207	0x3e4c2c2b	0.19938724
208	0xbed80772	-0.4219318
209	0xc0704bd0	-3.7546272
210	0xc017d3c9	-2.3723013
211	0x3d337fa7	0.04382291
212	0x3ff6967e	1.9264677
213	0x3fa342cd	1.2754761
214	0xbe7997f4	-0.24374372
215	0x40a2ae60	5.083786
216	0x4078e372	3.8888822
217	0xc0511b38	-3.2672863
218	0x4048f01e	3.1396556
219	0x40c38707	6.110233
220	0x40368fe1	2.8525317
221	0x40389ae2	2.8844533
222	0x3fcdb50e	1.6070879
223	0x3ffe7c6d	1.9881722
224	0x406e5664	3.7240229
225	0x3fe5381c	1.7907748
226	0x3f3cb536	0.73714006
227	0xbf9c3df1	-1.2206403
228	0x3d4466c8	0.047949582
229	0x3d0dfb6d	0.034663606
230	0xbfe2f70d	-1.7731644
231	0xc06bdf3b	-3.6855
232	0xc0889d74	-4.2692204
233	0xbffc4fe4	-1.9711881
234	0xbed075cf	-0.4071488
235	0xc0d24d5b	-6.571943
236	0xbfd50240	-1.6641312
237	0x400c6857	2.1938684
238	0x3fbb1991	1.4617177
239	0xbfd417ec	-1.65698
240	0x3e14ccad	0.14531203
241	0x4062c39e	3.5431895
242	0xc02cfe69	-2.703028
243	0x3f2fe7cb	0.68713063
244	0x3fd92743	1.6965107
245	0x40045d95	2.0682118
246	0xbecbf113	-0.39832363
247	0xc125a501	-10.352784
248	0x40b0ddab	5.527059
249	0xc063cee3	-3.5595024
250	0xbf6040bc	-0.87598777
251	0xbf1436af	-0.5789594
252	0xc0c94c95	-6.2905984
253	0x3f534d35	0.82539684
254	0x408efddb	4.468488
255	0xbd6de304	-0.058077827

join_features_NN.2.bias f4 [32]
0	0x411f3a48	9.951729
1	0xbf5fa8fb	-0.8736722
2	0x3fe52cea	1.7904332
3	0xbec488f4	-0.38385737
4	0xc059b38d	-3.401584
5	0xc1183535	-9.51299
6	0xc091f2f8	-4.5609093
7	0x4118f263	9.559176
8	0xc09e4402	-4.9458017
9	0xbf2f4ac4	-0.6847346
10	0xc0c84539	-6.25845
11	0xc091bb5f	-4.5541224
12	0x3fe27035	1.7690493
13	0xc04fe476	-3.2483191
14	0x3e9ebb2d	0.3100218
15	0xc0442852	-3.064961
16	0xc1059c26	-8.350622
17	0xc044bf01	-3.074158
18	0xc10e1538	-8.88018
19	0xbdc802c4	-0.097661525
20	0xbfda03ba	-1.7032387
21	0xc022668e	-2.5375094
22	0xbf521ffc	-0.82080054
23	0x400c5e42	2.193253
24	0xc05530b7	-3.3310983
25	0xbffebee8	-1.990201
26	0xc05044b8	-3.2541943
27	0xc1514225	-13.078649
28	0x4121985e	10.099699
29	0xc094b4d1	-4.6470723
30	0x3fdc69e5	1.7219816
31	0xc033cebe	-2.8094935

cons_representation_NN.0.weight f4 [32, 64]
0	0xbcda0f41	-0.026618602
1	0xbc04ff50	-0.008117512
2	0xbda3d3c4	-0.079993755
3	0xbdacb774	-0.084334284
4	0xbdb40f38	-0.08791965
5	0xbe69d775	-0.22836097
6	0xbe11bd5c	-0.14232391
7	0xbe693dec	-0.22777528
8	0xbdd85256	-0.10562579
9	0xbead95ef	-0.33903453
10	0xbe044e8c	-0.12920588
11	0x3d80419e	0.062625155
12	0x3ca41e7d	0.02003407
13	0xbdb31480	-0.087441444
14	0xbc29bd7a	-0.010360116
15	0xbe30a194	-0.17249137
16	0xbe339913	-0.17538862
17	0xbe728b45	-0.2368594
18	0xbe19f6ac	-0.15035504
19	0xbd0dd99b	-0.034631353
20	0xbd0e015c	-0.034669265
21	0xbdeef48d	-0.11667738
22	0xbdfdd22a	-0.12393601
23	0xbe2ddadb	-0.16978018
24	0x3dbbb952	0.091662064
25	0xbeb16323	-0.34645948
26	0x3c9754db	0.01847308
27	0x3d09dec8	0.033659726
28	0xbe8b2cc6	-0.27182597
29	0xbd0936ac	-0.033499405
30	0xbdbfdc59	-0.093682
31	0xbe86e611	-0.26347402
32	0xbdc7b494	-0.097512394
33	0xbdd8895c	-0.10573074
34	0x3ce3fdd0	0.027830988
35	0xbdfb756a	-0.12278254
36	0x3d5264e4	0.051365748
37	0xbe1c6ad7	-0.15275131
38	0x3d33af30	0.043868244
39	0xbcfab798	-0.030605122
40	0xbe998afe	-0.29988855
41	0xbde3f0e5	-0.11129931
42	0x3d167c48	0.036739618
43	0xbe1c984b	-0.1529247
44	0xbdb016ac	-0.08598074
45	0xbe3c3680	-0.18380165
46	0xbda3663c	-0.07978484
47	0xbd9eb26a	-0.077488735
48	0xbdf62952	-0.120196
49	0xbe85e67d	-0.2615241
50	0xbeaa55ca	-0.33268577
51	0x3dc75c5c	0.09734413
52	0x3d3830b0	0.044968307
53	0x3cf2f590	0.029658109
54	0x3dd00056	0.10156314
55	0xbdc0fc1e	-0.094230875
56	0xbeaddd80	-0.33958054
57	0xbea904ea	-0.33011562
58	0xbe8c927f	-0.27455518
59	0xbe3c3e12	-0.18383053
60	0xbdfb810e	-0.122804746
61	0xbe83186f	-0.2560458
62	0xbd74d3dc	-0.059772357
63	0xbabefe80	-0.0014571697
64	0x3d14240f	0.0361672
65	0x3e4face7	0.20280801
66	0x3da1e5ed	0.07905183
67	0xbd8be845	-0.06831411
68	0xbe0a5206	-0.13507852
69	0x3f38b9ce	0.72158515
70	0xbfd36bf8	-1.6517324
71	0xbff99a6f	-1.9500254
72	0x3f029c73	0.5101997
73	0xbf6232e7	-0.8835892
74	0xbee5622d	-0.44801465
75	0xbfe4dde7	-1.7880219
76	0xbf1f7f40	-0.62303543
77	0xbea9d376	-0.33169144
78	0xbe54e63e	-0.20790955
79	0xbf829659	-1.0202132
80	0xbf63cf6f	-0.88988394
81	0xbf3b3892	-0.73133194
82	0xbe8672fe	-0.26259607
83	0xbf328abf	-0.6974296
84	0xbd8226dd	-0.06355069
85	0xc018027b	-2.3751514
86	0xbfee7b71	-1.8631421
87	0xbefe79da	-0.4970234
88	0x3e04b090	0.12957978
89	0xbfd5c4ff	-1.6700743
90	0x3df0996e	0.117480144
91	0x3dfdb567	0.123881154
92	0xbf3be179	-0.7339092
93	0xbed0a8ca	-0.40753776
94	0xbf0bf23c	-0.54666495
95	0x3f1a9a22	0.6039144
96	0xbdfd92f8	-0.12381548
97	0x3deefa26	0.11668806
98	0xbd9e66e6	-0.0773447
99	0xbe1d1950	-0.15341687
100	0x3dd3308c	0.10311994
101	0x3f3076aa	0.68931067
102	0xbd80301a	-0.06259175
103	0xbd873238	-0.06601375
104	0xc0042d63	-2.0652702
105	0xbf9a7566	-1.2067077
106	0xbeccb37d	-0.3998069
107	0xbf16f012	-0.5896007
108	0x3d47259e	0.04861986
109	0xbec074a4	-0.3758899
110	0xbda59850	-0.08085692
111	0x3bda58f1	0.0066634347
112	0xbd875f0e	-0.06609927
113	0xbfe94c29	-1.8226367
114	0xbf5941de	-0.8486613
115	0x3cf82deb	0.030295333
116	0x3eae4df0	0.34043837
117	0xbba92e18	-0.0051629655
118	0x3d84a61e	0.06476997
119	0xbe6a2c45	-0.2286845
120	0xbfef0a95	-1.8675104
121	0xbec607cf	-0.38677832
122	0xbfa96e87	-1.3236855
123	0xbfa3f5d4	-1.2809396
124	0xbfa3e57e	-1.280441
125	0xbf33a3e7	-0.7017197
126	0xbdd2b851	-0.10289062
127	0xbcca9050	-0.024727017
128	0x404d9682	3.2123113
129	0xbd5df6bc	-0.054190382
130	0x3f62a985	0.88539916
131	0xc0a24d11	-5.0719075
132	0x3fd7cbfa	1.6859124
133	0x4029ed5a	2.6551118
134	0xbe5abe3d	-0.21361633
135	0x3f2acbbc	0.66717124
136	0x408a56bd	4.323088
137	0xbfa8608b	-1.3154463
138	0x3d9b248f	0.075753324
139	0x4022953a	2.540358
140	0x3d97bb22	0.074087396
141	0xbe9f2ce3	-0.31088933
142	0x3e8d9962	0.27656084
143	0x3edd3212	0.43202263
144	0x405c3659	3.440817
145	0xbfdf7f86	-1.7460792
146	0xc0c4276d	-6.1298127
147	0x3f11ebe2	0.57000554
148	0x400c640b	2.1936061
149	0x405b1f8d	3.4238007
150	0xbfadc60a	-1.3576062
151	0xbf8e7c37	-1.1131657
152	0x3e0c7b7f	0.13718985
153	0x3f4c212b	0.7973811
154	0x3f4e8c02	0.80682385
155	0xbf8c0080	-1.0937653
156	0x3f66e26b	0.90189236
157	0xc07b95c7	-3.9310167
158	0xbebcd21b	-0.36879048
159	0xc0deee05	-6.966555
160	0x3a24f6ea	0.00062928966
161	0xbdf7fb98	-0.121085346
162	0x3d620f27	0.05519023
163	0xbcada59f	-0.021197138
164	0xbe06887c	-0.13138002
165	0xc115e98a	-9.369516
166	0xbdd40002	-0.10351564
167	0xbd2275ec	-0.03966324
168	0xc06de5c5	-3.717149
169	0xc0ded18e	-6.9630804
170	0xbc7d3687	-0.015454895
171	0xbdab9412	-0.083778515
172	0xbe1ffb09	-0.15623106
173	0x407a09e9	3.9068549
174	0xbcfffcb0	-0.03124842
175	0x3d8aff1e	0.06786941
176	0x3d22196c	0.039575025
177	0xbe922290	-0.28541994
178	0xc0f8c102	-7.7735605
179	0x3da82f99	0.082122035
180	0xbe4b9fdd	-0.19885202
181	0xbd618e5e	-0.055067413
182	0xbac03980	-0.0014665574
183	0xbd191cfe	-0.037381165
184	0xc0fe3771	-7.9442677
185	0x4095b908	4.678837
186	0xbed2de32	-0.41185147
187	0xc0b77e42	-5.7341623
188	0xbe94f8d3	-0.29096088
189	0xc127cdc9	-10.4877405
190	0x3cb91ae3	0.022595828
191	0x3d52c7c4	0.051460043
192	0xbf9dc6d7	-1.2326306
193	0xbcc4f476	-0.02404235
194	0xbea4a147	-0.32154295
195	0xc0ba7bd3	-5.8276153
196	0x3fb3d9b5	1.4050814
197	0xbf4d209a	-0.8012787
198	0xc0857c81	-4.171448
199	0xc08d302b	-4.41213
200	0xc015c95a	-2.3404145
201	0x3ed81570	0.42203856
202	0x3ffcd1ae	1.9751489
203	0xc0b0f97f	-5.530456
204	0x3f24c300	0.64360046
205	0xc0063f71	-2.0976222
206	0x3fe5eb8a	1.7962506
207	0xbf96c09e	-1.1777532
208	0xbe3f1c16	-0.18663058
209	0x40996bcb	4.7944083
210	0x3fd7fc79	1.6873924
211	0xc0009312	-2.0089765
212	0xc016a23e	-2.3536525
213	0xc0922f14	-4.568247
214	0xc0e81773	-7.2528625
215	0x401931c9	2.3936636
216	0xc10ac551	-8.673173
217	0xc07b9ddb	-3.9315097
218	0xc100e007	-8.054694
219	0xc0823b8a	-4.069768
220	0xc0028033	-2.0390747
221	0xbfcfa6ff	-1.6222838
222	0x3fb506e8	1.4142733
223	0xc122a0b2	-10.164232
224	0xbdcdf22e	-0.10055958
225	0xbca914f8	-0.020639881
226	0xbb86a9e0	-0.004109606
227	0xbd989948	-0.07451111
228	0xbe09dbd6	-0.13462767
229	0xc0000690	-2.0004005
230	0xbc7cf3a0	-0.015438944
231	0x3df9f0f4	0.12204161
232	0x3eefc173	0.46827278
233	0xc02ede6a	-2.732325
234	0xbd15c60e	-0.036565833
235	0xbca3fce9	-0.020018058
236	0x3dba90d6	0.091096565
237	0xc0d39890	-6.6123734
238	0x3db458a8	0.08805972
239	0xbda19a5c	-0.0789077
240	0x3db624e6	0.088937566
241	0x3e074a63	0.1321197
242	0xc06e065e	-3.7191386
243	0xbc85fbb4	-0.016355373
244	0xbf1d6aa5	-0.6149085
245	0x3db730e2	0.089448705
246	0xbdef1a6c	-0.116749614
247	0xc0cc5380	-6.385193
248	0xbf3c4536	-0.7354311
249	0xc0654c0a	-3.582766
250	0xc03ef15d	-2.9834816
251	0xbf98812d	-1.1914421
252	0xbef041b9	-0.46925142
253	0xbefbfa14	-0.49214232
254	0xbdbbdcf3	-0.09173002
255	0x3d94d0c4	0.072663814

cons_representation_NN.0.bias f4 [32]
0	0xbee42020	-0.4455576
1	0xbfdba217	-1.7158841
2	0xc0be6eef	-5.9510417
3	0xbe4975b1	-0.19673802
4	0x3ee09822	0.43866068
5	0xc0db4f08	-6.8533974
6	0xc0238f21	-2.555611
7	0x3f9b35fd	1.2125851
8	0xc05d4a3c	-3.457656
9	0xbf82b125	-1.021031
10	0xbf2b96b6	-0.6702684
11	0x3e994700	0.2993698
12	0xbeb259b9	-0.34834078
13	0xbeca6a82	-0.39534384
14	0xbedc1402	-0.42984015
15	0xc18a7caa	-17.310871
16	0x3e132b73	0.14372043
17	0xc0f89b01	-7.7689214
18	0xc04e1fe6	-3.220697
19	0xbfafd9e3	-1.3738369
20	0x413ba0ff	11.726806
21	0xbe48f253	-0.1962369
22	0x40925137	4.572414
23	0x404b8430	3.179943
24	0x409786a6	4.7351866
25	0xbfcc50d1	-1.5962163
26	0xbe1de7b6	-0.15420422
27	0xc0d86a83	-6.763002
28	0x3f93dc9c	1.15517
29	0xbea11030	-0.31457663
30	0xbeae7494	-0.34073317
31	0xc0260823	-2.5942466

vars_representation_NN.0.weight f4 [32, 64]
0	0xbcd5cdcb	-0.026099106
1	0xbb170cfd	-0.0023048513
2	0xbdc06fce	-0.09396325
3	0xbe293097	-0.16522442
4	0xbe7389d9	-0.23783053
5	0xbe85c705	-0.26128402
6	0xbd549511	-0.051899973
7	0xbeaf26aa	-0.34209186
8	0xbe73ea67	-0.23819886
9	0xbe0997c4	-0.134368
10	0xbd3191dc	-0.043351993
11	0xbe505ee9	-0.20348705
12	0xbe670e95	-0.22564156
13	0x3ad68967	0.0016367853
14	0xbd3f519f	-0.0467087
15	0x3d778492	0.060429163
16	0xbea30432	-0.31839138
17	0xbd2f7cb2	-0.042843528
18	0x3e08593c	0.1331529
19	0x3d3e4afe	0.046458237
20	0x3d5c2fab	0.053756397
21	0x3d1ec7ca	0.038764752
22	0xbe3603d6	-0.17774901
23	0xbdc8ccaf	-0.09804665
24	0xbcf227aa	-0.029559929
25	0xbda423aa	-0.08014615
26	0xbe097eb2	-0.13427237
27	0xbcc08de1	-0.023505153
28	0xbdfd6d8c	-0.1237441
29	0xbddf737d	-0.109106995
30	0xbd465dbf	-0.048429247
31	0xbdd2d8b2	-0.102952376
32	0xbeb0d037	-0.34533855
33	0xbec4dd9e	-0.3845033
34	0x3cfdb9bf	0.03097236
35	0xbec442a6	-0.383321
36	0xbeed5e9c	-0.46361244
37	0x3d4868d3	0.048928093
38	0xbdc4800e	-0.09594737
39	0xbb82ad12	-0.0039879167
40	0x3df94f86	0.12173371
41	0xbea542a5	-0.32277408
42	0xbe604dad	-0.21904631
43	0xbe3f5387	-0.18684207
44	0xbe2f64e6	-0.17128333
45	0xbf100ebf	-0.562725
46	0xbd8691f0	-0.06570804
47	0x3d55a9f3	0.05216403
48	0xbe06236f	-0.13099454
49	0xbe894d52	-0.26816803
50	0xbd3ee502	-0.046605118
51	0xbeae67a0	-0.34063435
52	0xbe606410	-0.21913171
53	0x3cd82328	0.026383951
54	0xbeb39fa4	-0.35082734
55	0xbe4a840f	-0.19776939
56	0xbd9e81b2	-0.07739581
57	0xbe15d9ce	-0.14633867
58	0xbeb7f4cc	-0.35928953
59	0xbec5c4f7	-0.38626835
60	0xbe8853ea	-0.2662652
61	0xbea76da1	-0.32700828
62	0xbdea3a08	-0.1143685
63	0xbe820377	-0.25393268
64	0xbe465c11	-0.19371058
65	0x3df93335	0.1216797
66	0xbf0469dc	-0.5172403
67	0xbe9b4533	-0.30326232
68	0xc05b4bba	-3.426497
69	0xbf17aa03	-0.5924379
70	0xbfeb793e	-1.8396375
71	0xbfa1fc8d	-1.2655197
72	0x3ea12c9c	0.31479347
73	0xbf06cc98	-0.52655935
74	0xbee67f90	-0.45019197
75	0xbf70ea88	-0.94107866
76	0xbfb1c85a	-1.3889267
77	0x3e8d23a8	0.27566266
78	0xbe3ce8f7	-0.18448244
79	0xbe1717ef	-0.14755224
80	0xbd4dc8a2	-0.050240166
81	0xbefa460d	-0.4888157
82	0x3f8143b4	1.0098786
83	0xbff1b06f	-1.8881968
84	0xbd9bc215	-0.076053776
85	0xbde9afd9	-0.114104934
86	0xc01c8d08	-2.4461079
87	0x3e160ff9	0.1465453
88	0xbf608c84	-0.8771441
89	0x3e40f800	0.18844604
90	0x3ec8a364	0.39187157
91	0xbe04129e	-0.12897727
92	0x3e027fbc	0.1274404
93	0x3e1f217f	0.15540121
94	0xbfd6b570	-1.677412
95	0x3f2283c4	0.6348231
96	0xc0ae35c8	-5.444065
97	0xbe08b2df	-0.13349484
98	0xbc604f23	-0.013690743
99	0xbf8216a9	-1.0163165
100	0xbfe4f460	-1.7887077
101	0xbfbcce87	-1.4750527
102	0x3e4b16e1	0.19832946
103	0x3dfab0b7	0.12240737
104	0xbc7e91c0	-0.015537679
105	0xc03819d9	-2.8765776
106	0xbf14e304	-0.581589
107	0xbe8467b1	-0.2586036
108	0x3cf05746	0.02933849
109	0xbf404b42	-0.75114834
110	0xbd63dea0	-0.055632234
111	0xc09474c1	-4.639252
112	0xbe17f54c	-0.14839667
113	0xbeaa248c	-0.33231008
114	0xbeadb124	-0.3392421
115	0xc0d6e608	-6.71558
116	0xbf49357c	-0.78597236
117	0x3d8a08ac	0.06739935
118	0x3f42baa8	0.76066065
119	0xbd9b124d	-0.0757185
120	0xc05ba317	-3.4318292
121	0xbffb6aaa	-1.9641926
122	0xbd859b79	-0.06523795
123	0xc0032486	-2.0491042
124	0xbf135a66	-0.5755981
125	0xbe101356	-0.14069876
126	0xbc96a57d	-0.018389458
127	0xbfca84ce	-1.5821779
128	0x3cd10314	0.025514163
129	0x3e3041c0	0.17212582
130	0xbf773c8d	-0.9657677
131	0x3e96e494	0.29471266
132	0xbf31c8af	-0.69446844
133	0xbf1368b8	-0.57581663
134	0xbdfdc429	-0.1239093
135	0xbc4ea0aa	-0.0126115475
136	0x3fa46d8d	1.2845932
137	0xbdb7c99f	-0.08974003
138	0x3c4e5dd6	0.012595614
139	0xbeee3fb0	-0.46532965
140	0xbf1ea31e	-0.6196765
141	0x3f74d3e5	0.95635825
142	0xbf943182	-1.1577609
143	0xbee90d98	-0.45518184
144	0xbf8e87f8	-1.1135244
145	0xbf9e5d32	-1.2372191
146	0xbda50cc7	-0.08059078
147	0xbf4ea8e3	-0.8072645
148	0xbf15c1be	-0.5849875
149	0xbf9ac40e	-1.2091081
150	0xbfc34bc8	-1.5257502
151	0x3f4fd66a	0.81186545
152	0xbe21ceb6	-0.1580151
153	0xbedeff31	-0.4355407
154	0xbf7ece47	-0.99533504
155	0xbe3a031d	-0.1816525
156	0xbff7521f	-1.9321936
157	0x3fe45198	1.78374
158	0xbf8ba209	-1.0908824
159	0xbdb876b1	-0.090070136
160	0xc0db8e91	-6.861153
161	0xc151c1e1	-13.109834
162	0xc02c39d5	-2.6910298
163	0xc10d72c1	-8.840516
164	0x3fed853f	1.8556288
165	0x3ea4d537	0.3219392
166	0x40bfb095	5.9903054
167	0x3d9481e6	0.07251339
168	0x3cdc77d8	0.026912615
169	0xbf7e8dee	-0.9943532
170	0xc082cf8b	-4.087835
171	0xbd0a6f60	-0.03379762
172	0xbed0ac35	-0.40756384
173	0xbf8c3171	-1.0952588
174	0xbdfbf4b6	-0.12302534
175	0xc0e4e33b	-7.152738
176	0xbf751f5f	-0.95750993
177	0xc0405f6c	-3.005824
178	0xbf86f3c4	-1.0543141
179	0xc0aa75cb	-5.326879
180	0x4007b0de	2.12017
181	0x3dd6c4ce	0.10486756
182	0xc032c655	-2.7933552
183	0xbfc6f187	-1.5542458
184	0xbfe7faf7	-1.8123463
185	0x41077752	8.466631
186	0x3d599cae	0.053127937
187	0x3f93f375	1.1558672
188	0xbfaf4c91	-1.3695241
189	0xc018c0b2	-2.3867612
190	0xc012213d	-2.2832787
191	0x3f09b021	0.53784376
192	0xbe75f31a	-0.24018517
193	0xbda1ad25	-0.07894353
194	0xbfa18311	-1.2618123
195	0xbf7ee9e1	-0.9957562
196	0xbed3e2bb	-0.4138392
197	0xbf6c7f0f	-0.92381376
198	0xbdd970ed	-0.10617242
199	0x3f51a9dd	0.81899816
200	0xbcfbd806	-0.030742656
201	0xbf30ccd8	-0.69062567
202	0xbf265603	-0.64974993
203	0x3f322956	0.69594324
204	0xbdb8dd74	-0.09026614
205	0x3f4757e3	0.7786848
206	0x3cabcd88	0.020972028
207	0xbe800388	-0.25002694
208	0xbffd7f1a	-1.9804413
209	0xbfccd29b	-1.6001772
210	0xbf485030	-0.78247356
211	0x3d90d575	0.07071964
212	0xbe54f34a	-0.20795932
213	0xbe5cd17d	-0.21564288
214	0xbf99be3e	-1.2011182
215	0x3d775fc2	0.060394056
216	0xbed7f41d	-0.4217843
217	0xbe3ec5ca	-0.18630138
218	0x3f327f72	0.69725716
219	0x3e0548a2	0.13015988
220	0xbd7ed4b3	-0.062214565
221	0x3f8af7dc	1.0856891
222	0xbdcd40a4	-0.10022095
223	0x3e8c56f3	0.27410087
224	0xc01b5217	-2.4268854
225	0xbfdcebc4	-1.725945
226	0xbe421af0	-0.18955588
227	0xc028fd02	-2.6404424
228	0xbf51dab9	-0.8197437
229	0xbec23312	-0.3792959
230	0xbf10b71b	-0.56529397
231	0x3de91c78	0.11382383
232	0x3db3dd64	0.08782461
233	0xc0369b1b	-2.853217
234	0xbf13e116	-0.5776533
235	0x3d3d7166	0.046250723
236	0xbd3d5086	-0.04621937
237	0xbef03f62	-0.46923357
238	0x3dc39b9c	0.095511645
239	0xbfd41ef3	-1.6571945
240	0x3cab75f0	0.02093026
241	0xbebce858	-0.36896014
242	0xbea5644d	-0.32303086
243	0xc02a00e0	-2.6563034
244	0xbf4023d0	-0.75054646
245	0xbd785380	-0.060626507
246	0x3e95870e	0.292046
247	0xbf61b52e	-0.88167083
248	0xbedbf505	-0.42960373
249	0xc0193959	-2.3941252
250	0xc04e76a2	-3.2259908
251	0xc08217a0	-4.065384
252	0xbfd7635b	-1.6827196
253	0xc01b7506	-2.4290175
254	0xbe43f550	-0.19136548
255	0xbf8e90a7	-1.1137894

vars_representation_NN.0.bias f4 [32]
0	0xbee31165	-0.44349208
1	0xbfc19663	-1.5124019
2	0xc0761c25	-3.8454678
3	0xc0385a1a	-2.8804994
4	0xbf8118bd	-1.0085675
5	0x3d4d513e	0.050126307
6	0xbfc0323c	-1.501533
7	0xc002bb96	-2.0426993
8	0xbff7309f	-1.9311713
9	0xbf54f561	-0.8318692
10	0xbf112923	-0.56703395
11	0xbfd4a3d5	-1.6612498
12	0xc01da638	-2.4632702
13	0xbfa10584	-1.2579808
14	0xc0293073	-2.643582
15	0xbf9a03ad	-1.2032372
16	0xc018ee80	-2.389557
17	0xc0525565	-3.286462
18	0xbeeb3906	-0.45941943
19	0xbf9a7c4e	-1.2069185
20	0xbedab421	-0.42715552
21	0xc0118bcc	-2.2741575
22	0xc0316f7a	-2.772429
23	0xbf2582ff	-0.6465301
24	0x40173cbd	2.3630822
25	0xbfc91f6e	-1.5712717
26	0xbfa1e132	-1.2646849
27	0xbf6a99ac	-0.91640735
28	0xbf2eac5d	-0.68231755
29	0xbf611189	-0.8791738
30	0xbfe19a2d	-1.7625176
31	0x400195fd	2.0247796

output_module.0.weight f4 [32, 32]
0	0xbe4115f9	-0.18856038
1	0x3f6301f0	0.8867483
2	0xbf939ce9	-1.153226
3	0xbef80b1b	-0.48445973
4	0xbd6ad62d	-0.05733316
5	0x3dd77bfa	0.105216935
6	0xbe792103	-0.24328999
7	0xbea4231a	-0.3205803
8	0xbf077e1b	-0.52926797
9	0xbd55623e	-0.052095644
10	0xbe845a5e	-0.25850195
11	0xc026cecf	-2.6063726
12	0xbf8a22ef	-1.0791911
13	0x3d1e37e5	0.038627524
14	0xbfc5d6d5	-1.5456187
15	0xbef2481c	-0.4732064
16	0xbf4e5af1	-0.80607516
17	0x3e787222	0.24262288
18	0xbf62431e	-0.8838366
19	0x3fa9f918	1.3279142
20	0xbeffe805	-0.49981704
21	0xc00f34ce	-2.237598
22	0xbf04cc38	-0.51874113
23	0x3ed05dbb	0.4069651
24	0xbfe307ff	-1.7736815
25	0xbfa43efc	-1.2831721
26	0x3f4ef417	0.808412
27	0x3e0f6c7d	0.14006229
28	0xbf846a50	-1.0344944
29	0xbd621391	-0.05519444
30	0xbf04d664	-0.51889634
31	0xbf22ca65	-0.6359008
32	0x3d0f151c	0.03493224
33	0xbfd1568d	-1.6354538
34	0xbfb55c6b	-1.4168829
35	0xbfab8343	-1.3399433
36	0xbf66983b	-0.90076035
37	0x3f8962c1	1.0733262
38	0xbf84824b	-1.0352262
39	0xbf190030	-0.5976591
40	0xbfe0ed7f	-1.7572478
41	0xbcd0af84	-0.025474317
42	0x3f93f500	1.1559143
43	0xbf8eda52	-1.1160376
44	0x3e433b13	0.19065504
45	0x3c84e05f	0.01622027
46	0x3e9ff8f9	0.3124464
47	0xbf8f4161	-1.1191827
48	0xbef6bc70	-0.4819064
49	0xbfb61ba0	-1.422718
50	0x3dcb1f5f	0.09918093
51	0x3e690bb8	0.22758377
52	0x3f23cf72	0.6398841
53	0x3e3a5192	0.18195179
54	0xbf9b5d68	-1.213788
55	0xbf1019e6	-0.5628952
56	0x3fa7f1b8	1.3120642
57	0x3f9c86c5	1.2228628
58	0x3ef0805e	0.46972936
59	0xbef48234	-0.47755587
60	0xbfb51b04	-1.414887
61	0x3f74ea38	0.9566989
62	0xbf3137d7	-0.6922583
63	0xbefe08e3	-0.49616155
64	0xbe593017	-0.21209751
65	0xc01098e8	-2.2593327
66	0xc035e4ff	-2.8421018
67	0xbf9b5160	-1.2134209
68	0x3e511ab2	0.2042034
69	0xbeb49312	-0.35268456
70	0x3e86f9b1	0.26362374
71	0xbd841679	-0.06449599
72	0x3e7cdf9d	0.24694677
73	0xbec213b0	-0.37905645
74	0xbedb7caf	-0.42868564
75	0xbf513490	-0.8172083
76	0xbdc5fafd	-0.09667013
77	0x3e01ea70	0.12687087
78	0xbf958364	-1.1680722
79	0xbff96b72	-1.9485915
80	0xc02d9ea2	-2.7128072
81	0x3e3432fe	0.17597577
82	0x3e1bdb02	0.15220264
83	0x3f699146	0.91237295
84	0xbed43b99	-0.4145172
85	0x3f2def52	0.679433
86	0xbd7dfaf1	-0.062006894
87	0xc001ac57	-2.0261438
88	0x3db3146b	0.08744129
89	0xbed0dd9a	-0.4079407
90	0x3cf440c7	0.029816044
91	0xbded2f15	-0.11581246
92	0xc007c5d3	-2.1214492
93	0x3f5fd886	0.87439764
94	0xbf12e564	-0.5738127
95	0xbf53d9bb	-0.82754105
96	0x3e003379	0.12519635
97	0xbf967aeb	-1.1756262
98	0xbfd33f7f	-1.6503752
99	0x3f101cb1	0.5629378
100	0x3dc2d96d	0.09514127
101	0xbe826682	-0.25468832
102	0x3e7d0c32	0.24711683
103	0xbe56ccb3	-0.20976524
104	0x3e21cd28	0.15800917
105	0xbe84a88c	-0.2590984
106	0xbf42fdcf	-0.7616853
107	0xbf677459	-0.9041191
108	0xbb1d360a	-0.0023988509
109	0xbe9d8341	-0.307642
110	0xbfe14fa6	-1.7602432
111	0xbee6c820	-0.45074558
112	0xbfefc683	-1.8732456
113	0xbf3e8bf2	-0.7443229
114	0xbf1149d3	-0.5675327
115	0x3fdaf0e2	1.7104762
116	0xbf2c4824	-0.6729758
117	0xbdf07ffd	-0.11743162
118	0xbf94a1fe	-1.1611936
119	0xbfd5b5cf	-1.6696109
120	0x3f58cf8a	0.8469168
121	0xbf997cb7	-1.1991185
122	0xbea1282c	-0.3147596
123	0xbe25c4c5	-0.16188343
124	0xbf624ca7	-0.8839821
125	0xbe2448d8	-0.16043413
126	0xbd5a1c0b	-0.0532494
127	0xbf041b56	-0.5160421
128	0xbe48969c	-0.19588703
129	0x3d6b1aa3	0.05739845
130	0xbfbb61a3	-1.4639171
131	0xbd10579d	-0.035239805
132	0xbe0d1f45	-0.1378146
133	0x3f4b2b5c	0.79363036
134	0x3ec035d7	0.37541077
135	0xbee82701	-0.45342258
136	0x3f907401	1.1285402
137	0xbea31fae	-0.31860107
138	0xbdb82f99	-0.089934535
139	0x3f2555f9	0.6458431
140	0xbe2d3d6f	-0.16917966
141	0xbf6a3bc1	-0.9149743
142	0xbf87f7a2	-1.0622447
143	0xbed7d40b	-0.42153963
144	0xbf0fb374	-0.561332
145	0xbfc33684	-1.5251012
146	0x3f300eb7	0.68772453
147	0xbf288065	-0.65820915
148	0xbeac1899	-0.33612517
149	0xbf854fc2	-1.0414965
150	0x3f3ea3ea	0.74468863
151	0x3dcec27a	0.10095687
152	0xbedc4ede	-0.4302892
153	0x3e09a6f3	0.13442592
154	0x3d9395a7	0.07206278
155	0x3e0d0dae	0.1377475
156	0xc0029d46	-2.0408492
157	0xbf601585	-0.87532836
158	0xbf426610	-0.75936985
159	0xbede20c9	-0.43384388
160	0xbe291992	-0.1651366
161	0xbfbca784	-1.4738622
162	0xbfde3a40	-1.7361526
163	0xbf4fc2c2	-0.8115655
164	0xbe42057a	-0.18947402
165	0xc00332d8	-2.0499783
166	0x3df63a0a	0.12022789
167	0xbfa68569	-1.3009464
168	0x3fd903c9	1.695428
169	0x3efa1fe7	0.48852465
170	0xbfe12348	-1.7588892
171	0x3f6a2c74	0.9147408
172	0xbd5ee9a3	-0.054422032
173	0xbea29940	-0.31757545
174	0xbfd3c3ab	-1.6544088
175	0xbffab879	-1.9587547
176	0xbfcf7a3a	-1.6209176
177	0x3e884106	0.2661211
178	0xbf8c008d	-1.0937668
179	0x3f1050ba	0.5637318
180	0x3b83a83b	0.0040178574
181	0x4004c5f5	2.0745823
182	0x3f7586ec	0.95909
183	0x3f1312b5	0.5745042
184	0x3f9ac761	1.2092096
185	0xbfa54b62	-1.291363
186	0xbfc3d9b9	-1.5300819
187	0xbd422b5d	-0.047404636
188	0xbd321d19	-0.04348478
189	0x3e980304	0.296898
190	0xbf86e584	-1.0538793
191	0xbf409fd3	-0.7524387
192	0x3bf80fe4	0.0075702537
193	0xbfd261af	-1.6436061
194	0xc0323cbf	-2.7849576
195	0xbf34bea4	-0.70603395
196	0x3fcf2f7e	1.6186368
197	0xbfe77318	-1.8081999
198	0xbfabd925	-1.3425642
199	0xbfbc4638	-1.4708929
200	0x3f0cc8c6	0.54993856
201	0xbcbd9480	-0.0231421
202	0x3f06e540	0.5269356
203	0xbf5533ee	-0.83282363
204	0xbe81c9df	-0.25349328
205	0x3c91c206	0.017792713
206	0xbf8928b9	-1.0715553
207	0xbfc890e2	-1.5669215
208	0xbf0f1a1f	-0.5589923
209	0xbf7de5ad	-0.9917858
210	0xbedf9ab7	-0.43672726
211	0x3f2d9caa	0.67817175
212	0xc02bdbd9	-2.6852934
213	0xbf3c0d71	-0.7345801
214	0xbf4349a1	-0.76284224
215	0x3c16205c	0.0091629885
216	0xbfd8ee0d	-1.6947647
217	0xbfb62958	-1.4231367
218	0x3f907774	1.1286454
219	0x3d6dff68	0.058104903
220	0x3e4af6b8	0.19820678
221	0xbe77306a	-0.24139562
222	0xbffa3351	-1.954691
223	0xbe8ecb25	-0.27889362
224	0x3df2f3fb	0.11862942
225	0x3e1ea65b	0.15493147
226	0xc04f8637	-3.2425668
227	0x3dfcbd01	0.12340737
228	0xbe2434a0	-0.160357
229	0xc00a6416	-2.1623588
230	0xbf85e21f	-1.0459632
231	0xbf452962	-0.7701627
232	0x3fec4a5a	1.846019
233	0x3e90c375	0.28274122
234	0xc0069b0d	-2.1032135
235	0x3e047c26	0.12937984
236	0xbf4248c4	-0.7589228
237	0xbf15390b	-0.58290166
238	0xbc361fa6	-0.011115944
239	0xc0196df7	-2.3973367
240	0xc0933875	-4.6006417
241	0xbf232cc8	-0.63740206
242	0xbf3ae511	-0.7300578
243	0x3f058678	0.5215831
244	0xbebc4eba	-0.36778814
245	0xbe8bf746	-0.27337092
246	0x3f084ffa	0.53247035
247	0x3f82c29f	1.0215644
248	0xc03de94c	-2.9673643
249	0xbf19bfa3	-0.6005804
250	0x3ea8bd81	0.3295708
251	0xbeb0beab	-0.34520468
252	0xbfa01b54	-1.250834
253	0x3eccb1e3	0.39979467
254	0xbe07e39e	-0.13270423
255	0x3de955c8	0.113933146

output_module.0.bias f4 [32]
0	0xc0447a46	-3.069963
1	0xc0f6e1e6	-7.7150755
2	0xbec02c4a	-0.3753379
3	0xc006ef1c	-2.108344
4	0xbe1fc479	-0.15602292
5	0xc0683472	-3.628201
6	0xc009e99e	-2.1548839
7	0x3fa4487d	1.2834622
8	0xbffe7c1d	-1.9881626
9	0xbf50a81d	-0.8150652
10	0xbc305616	-0.010762712
11	0xbf988697	-1.1916074
12	0xc0108340	-2.2580109
13	0xc122ad37	-10.167289
14	0xbf0779db	-0.5292031
15	0xbf233658	-0.63754797
16	0xbead9b29	-0.3390744
17	0xc0a4cd71	-5.1500783
18	0xc09542b1	-4.664391
19	0xc034be20	-2.8241043
20	0xbfcebe1a	-1.6151764
21	0xbfeba0bc	-1.8408427
22	0xbdd799ce	-0.10527383
23	0xc02e5fe9	-2.724604
24	0xbfde8833	-1.7385315
25	0xbfa5f9b8	-1.2966833
26	0xbff3285c	-1.8996692
27	0x40bd769c	5.9207287
28	0xbe7b4018	-0.24536169
29	0xbec6463b	-0.38725457
30	0xbf1a33ef	-0.60235494
31	0xbfd51b83	-1.6649021
